ipnets_output/split_1/checkpoint.pt (torch, 71458 bytes, 12 tensors)

single_channel_interp.kernel f4 [37]
0	0xbe6dda52	-0.23227814
1	0xbd3b5b49	-0.045741353
2	0x3ccb87a2	0.024844948
3	0x3d97d23b	0.07413145
4	0x3d71748b	0.058949035
5	0xbebda1f5	-0.37037626
6	0xbe625322	-0.22102025
7	0x3f46ea73	0.7770149
8	0xbe4d4c9a	-0.20048752
9	0x3e001da2	0.12511304
10	0x3d5c982e	0.053856067
11	0x3c9d6cd1	0.019216927
12	0xbd493b4a	-0.049128808
13	0xbe28db1a	-0.1648983
14	0x3c40163b	0.01172405
15	0xbe3dfed6	-0.18554243
16	0xbb8c63d0	-0.0042843595
17	0xbeb0809a	-0.34473115
18	0x3e2cbc8c	0.168688
19	0x3daf1ad6	0.085500404
20	0x3e4d621d	0.20056958
21	0xbd23fc66	-0.040035628
22	0xbe1a50c5	-0.15069874
23	0xbdcb5fd6	-0.09930389
24	0xbea0c804	-0.314026
25	0xbe80252e	-0.25028366
26	0x3cf58254	0.029969372
27	0xbde3cca2	-0.11123015
28	0x3c864b18	0.01639323
29	0x3e14b9a1	0.14523937
30	0x3db690d0	0.089143395
31	0x3e14dd3e	0.14537522
32	0x3f0c0f2c	0.5471065
33	0x3e26dbf6	0.16294846
34	0x3da2c5e8	0.07947904
35	0xbb14c123	-0.0022698126
36	0x3da36f60	0.079802275

cross_channel_interp.cross_channel_interp f4 [37, 37]
0	0x3f852f3c	1.040504
1	0xbd70a227	-0.05874839
2	0xbbdc3d28	-0.0067211576
3	0xbd8d467f	-0.06898212
4	0x3d07218a	0.03299097
5	0xbd510c0e	-0.051036887
6	0x3ca2c4c3	0.019869214
7	0x3da3daa5	0.080006875
8	0xbc987b68	-0.018613532
9	0x3c8ceebe	0.017203685
10	0xbbe4950e	-0.0069757765
11	0xbcd40773	-0.025882458
12	0x3d1efe15	0.03881653
13	0x3d212fa4	0.039352074
14	0xbd34ff2f	-0.044188675
15	0x39390d1c	0.00017647858
16	0x3d91d80c	0.07121286
17	0xbc1c947c	-0.009556886
18	0xbd664901	-0.056221966
19	0x3c9868df	0.018604694
20	0x3bedf601	0.007261992
21	0xbda7c9e3	-0.08192804
22	0xbc93878d	-0.018008972
23	0xbbd7fdc7	-0.006591532
24	0x3d815355	0.063147224
25	0xbd7f6a53	-0.062357258
26	0x3d4ab790	0.049491465
27	0x3bab4096	0.005226205
28	0xbc3b7852	-0.011442261
29	0x3c2c0683	0.010499599
30	0x3cb3e096	0.021957677
31	0x3db2aa75	0.08723918
32	0xbccd09ad	-0.025029028
33	0xbcde55b6	-0.02714048
34	0x3b017b34	0.0019757273
35	0xbc260425	-0.010132824
36	0x3d754b21	0.0598861
37	0x3cef3299	0.029198932
38	0x3f624d1c	0.8839891
39	0x3e1106c0	0.14162731
40	0x3daee376	0.085394785
41	0xbd4505cb	-0.048101228
42	0x3e138493	0.14406042
43	0x3c950092	0.018188749
44	0x3d70d270	0.05879444
45	0x3e51c041	0.20483495
46	0xbd1e2eef	-0.038618978
47	0x3dbbe631	0.09174765
48	0xbe18cc26	-0.14921626
49	0x3dcc4e72	0.099759
50	0xbded1669	-0.1157654
51	0xbd5a2897	-0.053261366
52	0x3d8fec75	0.070275225
53	0x3e0c49a6	0.1369997
54	0x3da2c052	0.079468384
55	0xbdf3a547	-0.118967585
56	0x3dcf5713	0.1012403
57	0x3e4dd6c7	0.20101462
58	0xbd1c635c	-0.038180694
59	0x3d72bea6	0.059263848
60	0xbd2ff99d	-0.04296266
61	0x3cb595d0	0.022166163
62	0xbdc411df	-0.09573721
63	0xbc82b7d7	-0.015956802
64	0x3df9edac	0.122035354
65	0x3d9c923e	0.07645081
66	0xbd967061	-0.07345653
67	0xbd3fdba5	-0.04684033
68	0x3a410198	0.0007362603
69	0xbd93d0da	-0.0721757
70	0x3a6de51a	0.00090749713
71	0xbd6e5559	-0.058186863
72	0x3e1c490f	0.15262245
73	0x3d9dd82a	0.07707246
74	0xbc3b9e29	-0.011451283
75	0x3cd09bcd	0.025464917
76	0x3f710432	0.94147027
77	0x3e8cd229	0.2750409
78	0xbd8c23f7	-0.06842797
79	0x3d064b21	0.032786492
80	0x3d07ee58	0.033186287
81	0xbc93922d	-0.018014038
82	0x3c6c94dd	0.014439789
83	0x3dcdf4aa	0.100564316
84	0x3c787328	0.015164174
85	0xbd2d1f93	-0.04226644
86	0x3ddc4af2	0.10756482
87	0x3c3eb4d7	0.011639795
88	0x3c83fcc7	0.016111745
89	0x3d89da0a	0.06731041
90	0x3db16ce9	0.08663351
91	0x3c337671	0.010953532
92	0xbdbc0284	-0.09180167
93	0x3d9558d0	0.0729233
94	0xbc90d1cc	-0.017678164
95	0x3d52bc46	0.051449083
96	0x3e310b18	0.17289388
97	0x3d4c16ea	0.04982654
98	0x3d99515c	0.07486221
99	0x3cefd006	0.029273998
100	0xbd9e8ae0	-0.07741332
101	0x3d8c0e16	0.06838624
102	0xbd1558d4	-0.036461666
103	0xbd50dd01	-0.050992016
104	0x3da73385	0.081641234
105	0x3cc0caa0	0.02353412
106	0x3d02d7c1	0.03194404
107	0x3d653931	0.055962745
108	0x3bb29592	0.005449959
109	0x3db615c2	0.08890869
110	0x3d86e499	0.0658657
111	0xbbc53404	-0.0060181636
112	0x3d34ebc4	0.044170156
113	0x3e9bf5f1	0.30461076
114	0x3f73c96b	0.95229214
115	0xbd88ac30	-0.06673467
116	0x39d35768	0.0004031018
117	0x3db172a6	0.086644456
118	0xbcb41526	-0.02198274
119	0x3c441608	0.011968143
120	0x3de682c2	0.11255409
121	0xbd55ccea	-0.052197374
122	0xbcd09be5	-0.025464961
123	0x3e138dbc	0.14409536
124	0x3c129d5f	0.008948653
125	0xbd0d46bf	-0.034491297
126	0xbbc50b30	-0.0060132965
127	0x3e0e7d6b	0.1391503
128	0x3bc3095c	0.0059520435
129	0xbd8f11ce	-0.06985818
130	0x3cf6bb95	0.030118743
131	0xbda16822	-0.0788119
132	0x3d7e3bf5	0.0620689
133	0x3e254270	0.16138625
134	0x3da83a5e	0.08214258
135	0x3d7d1c19	0.061794374
136	0xbb28e64d	-0.0025772036
137	0xbda6dbb4	-0.08147374
138	0x3d48f43b	0.04906104
139	0xbd688aab	-0.05677287
140	0xbc645a9e	-0.01393762
141	0x3dca6800	0.09883118
142	0xbd1efbb9	-0.03881428
143	0x3d563640	0.05229783
144	0x3d78205f	0.060577746
145	0x3caafdb8	0.020872936
146	0x3d65fc99	0.0561491
147	0x3da74109	0.08166701
148	0x3e876b66	0.26449126
149	0xbe686d9e	-0.22698066
150	0x3e1362e0	0.14393187
151	0x3e1a4890	0.15066743
152	0x3f8b7748	1.0895777
153	0xbe7acf93	-0.24493246
154	0xbe4d22cc	-0.20032805
155	0xbd7263e6	-0.0591773
156	0xbbf926d9	-0.007603508
157	0xbd3efd4f	-0.046628293
158	0xbdcc0fe9	-0.09963972
159	0x3e9d0f72	0.30675846
160	0xbe8757cd	-0.26434174
161	0x3e9dae63	0.3079711
162	0xbd9bf934	-0.07615891
163	0xbde1d109	-0.110261984
164	0x3d1261b9	0.035737727
165	0xbe95d942	-0.29267317
166	0x3e0e414b	0.13892095
167	0xbea4727a	-0.3211859
168	0x3c6ae315	0.014336367
169	0x3c88e947	0.016712798
170	0x3d507f5b	0.050902706
171	0x3e222975	0.15836127
172	0x3d12cfcf	0.035842713
173	0x3e6d47e0	0.2317195
174	0x3d5f3cf8	0.054501504
175	0x3dcc5c0e	0.099784955
176	0xbc7751db	-0.015095199
177	0x3e7fb23a	0.24970332
178	0x3e170ca6	0.14750919
179	0x3e25b120	0.16180849
180	0x3d9ad623	0.075603746
181	0x3c877c3e	0.016538735
182	0x3e8e4cda	0.27793008
183	0xbea06e3c	-0.31334102
184	0xbe4f24e4	-0.20228916
185	0xbe741f02	-0.23839954
186	0x3e67d27e	0.2263889
187	0xbd0f89f8	-0.035043687
188	0xbba1779b	-0.004927588
189	0xbdfed10f	-0.124422185
190	0x3f84fadb	1.0389055
191	0x3e33125e	0.17487475
192	0xbe6ca999	-0.23111571
193	0x3ec060d6	0.3757388
194	0xbd6fa70d	-0.05850892
195	0x3d349226	0.04408469
196	0xbe85e483	-0.26150903
197	0x3e2ecce9	0.17070355
198	0xbef57e85	-0.4794809
199	0x3daba1af	0.08380448
200	0x3d917616	0.07102601
201	0x3e289fb8	0.16467178
202	0x3dfc258c	0.12311849
203	0x3d4beab6	0.049784385
204	0x3e7bdbb3	0.24595527
205	0x3e5afb95	0.21385033
206	0xbe3c0df5	-0.18364699
207	0xbe06ac75	-0.13151725
208	0xbdb6cd57	-0.08925884
209	0xbb6417aa	-0.0034804144
210	0xbe55082e	-0.20803902
211	0xbe1de82a	-0.15420595
212	0xbeafd79c	-0.34344184
213	0x3c3f8e10	0.011691585
214	0xbe0eaafa	-0.1393241
215	0xbe0aaf98	-0.13543546
216	0xbe6fa519	-0.23402824
217	0xbdef48bb	-0.11683794
218	0x3e035e71	0.12828995
219	0xbe2221a1	-0.15833141
220	0x3e1c7c2e	0.15281746
221	0x3e2592ab	0.1616923
222	0xbe377278	-0.1791476
223	0x3e44a552	0.1920369
224	0xbddd8bac	-0.10817656
225	0xbc25b8c2	-0.0101148505
226	0xbe13dac2	-0.14438918
227	0x3e365bd7	0.17808472
228	0x3f5f60bc	0.8725698
229	0xbcf4a817	-0.029865308
230	0x3e119df6	0.14220414
231	0xbc9cdb84	-0.019147642
232	0x3d8d7ea0	0.069089174
233	0xbe7f6679	-0.24941434
234	0x3d984baf	0.074363105
235	0xbeaa9abd	-0.3332118
236	0x3d93d924	0.07219151
237	0x3e25ece7	0.16203652
238	0xbd4e4bbd	-0.0503652
239	0x3e36421a	0.17798653
240	0xbd88ddd5	-0.06682936
241	0x3e8aac23	0.27084455
242	0x3de3b6d5	0.11118857
243	0xbe1d2c31	-0.15348889
244	0xbc909afa	-0.017652024
245	0xbe2a3133	-0.1662033
246	0x3dc9a8a1	0.098466165
247	0xbe8930f1	-0.26795152
248	0xbcc33ecc	-0.023833655
249	0xbe582486	-0.21107683
250	0xbd89ca8c	-0.06728086
251	0xbe6ecf79	-0.23321332
252	0xbcfa0026	-0.030517649
253	0xbe40bb85	-0.18821533
254	0xbdfc340e	-0.12314616
255	0x3df41356	0.119177505

demo_encoder.0.weight f4 [32, 8]
0	0xbc1bafc0	-0.009502351
1	0x3e9dd875	0.30829206
2	0x3ea3fb2a	0.3202756
3	0x3ed0aab4	0.40755236
4	0x3d92886b	0.07154926
5	0xbf06347d	-0.5242384
6	0x3e3cae7f	0.1842594
7	0x3e0409ee	0.12894413
8	0x3e7cef56	0.24700674
9	0x3ec92edd	0.39293566
10	0xbe06c384	-0.13160521
11	0xbb2d39e1	-0.0026432204
12	0xbee32c8a	-0.44369918
13	0xbe4330c1	-0.19061567
14	0xbd24e113	-0.04025371
15	0x3e8e4106	0.27783984
16	0x3edcaf7a	0.43102628
17	0x3ed90ead	0.4239401
18	0x3e61c935	0.2204941
19	0x3d89aeaf	0.067227714
20	0x3e79bbd4	0.24388057
21	0xbe6ddf73	-0.2322977
22	0xbe70f968	-0.23532641
23	0x3da4cd8a	0.08047016
24	0xbe63d073	-0.22247486
25	0x3db36a83	0.0876055
26	0x3d0ebce3	0.034848105
27	0xbe39dde4	-0.18151051
28	0x3e141e31	0.14464642
29	0x3ea773bd	0.3270549
30	0xbe11fa48	-0.14255631
31	0xbe919b1c	-0.28438652
32	0x3ad7f671	0.0016476644
33	0x3db6f3b7	0.08933204
34	0x3d27c81d	0.040962327
35	0x3e910839	0.28326586
36	0xbdb860f8	-0.0900287
37	0xbda28dfd	-0.07937238
38	0xbe527c0e	-0.20555136
39	0xbdbfe938	-0.09370655
40	0xbeb075b4	-0.344648
41	0x3ec637a4	0.38714325
42	0xbee6280c	-0.44952428
43	0x3dd5f6b5	0.10447446
44	0xbe3e0af5	-0.18558867
45	0x3e1c4bdc	0.15263313
46	0xbe36090d	-0.1777689
47	0x3e852751	0.2600656
48	0x3e19cb8c	0.15019053
49	0xbca01294	-0.019540109
50	0x3ecbe2a4	0.3982135
51	0xbedaacad	-0.42709866
52	0xbddd0bf3	-0.10793295
53	0xbead5f2b	-0.3386167
54	0x3e8cf1b8	0.27528167
55	0xbdc6268d	-0.09675322
56	0x3e210212	0.15723446
57	0xbe34b6df	-0.17647885
58	0x3e8cca1f	0.27497956
59	0xbd2697fd	-0.04067229
60	0x3ddc6aa5	0.10762528
61	0x3f1806a5	0.5938514
62	0x3d8b8d5a	0.0681407
63	0x3ecfb411	0.40567067
64	0x3ea383f1	0.319366
65	0x3dc479f7	0.095935754
66	0x3d915754	0.07096735
67	0xbeb6951b	-0.35660633
68	0xbf1648c6	-0.58704793
69	0x3e5aaae1	0.21354248
70	0x3e4b0534	0.19826204
71	0x3e68dd7e	0.22740743
72	0x3eb0dfce	0.3454575
73	0xbef0f3cb	-0.47061
74	0x3e922715	0.28545442
75	0x3e656b4b	0.2240421
76	0xbe3a997c	-0.18222612
77	0xbd0cf385	-0.034411926
78	0x3dd957d8	0.10612458
79	0xbe86227e	-0.2619819
80	0x3e016abd	0.12638374
81	0xbd081e83	-0.033232223
82	0xbdc8a44d	-0.09796963
83	0x3dedc18c	0.11609182
84	0x3e47f774	0.1952799
85	0x3ed00a0e	0.4063267
86	0xbeaea5d2	-0.34110886
87	0xbe7e4f8f	-0.24835037
88	0xbee2f3a7	-0.44326517
89	0x3ddcaea8	0.107755005
90	0x3d82dbdb	0.0638959
91	0x3de3d265	0.11124114
92	0xbef52bdd	-0.47885028
93	0x3ec6ba43	0.3881398
94	0xbead365a	-0.3383053
95	0x3e134978	0.14383495
96	0xbeb1ad9d	-0.3470277
97	0x3ec65211	0.38734487
98	0x3d38a6c4	0.045080915
99	0xbd875b45	-0.06609205
100	0x3e4e1c2e	0.20127937
101	0x3e430496	0.19044718
102	0x3e8a6187	0.27027532
103	0xbe2a8150	-0.16650891
104	0x3de8a141	0.11358882
105	0xbe2dffbc	-0.16992086
106	0x3e3810d8	0.17975175
107	0xbeae60f2	-0.34058338
108	0xbe607472	-0.2191942
109	0x3d3b6c42	0.04575754
110	0x3eafb4ce	0.3431763
111	0x3cb98729	0.022647457
112	0xbe8112b6	-0.25209588
113	0xbe5b76dc	-0.2143206
114	0xbe3cf8cd	-0.18454285
115	0xbe58ba17	-0.21164738
116	0x3d8bdcaf	0.068292014
117	0x3db389cd	0.08766518
118	0x3dabe16f	0.083926074
119	0xbd06ae74	-0.032881215
120	0xbe9837d2	-0.29730088
121	0xbd241437	-0.04005834
122	0xbe8e3642	-0.2777577
123	0x3e75f47d	0.24019046
124	0x3e78bd29	0.24290909
125	0xbde886ff	-0.113538735
126	0x3da4fb39	0.080557294
127	0xbe0e989c	-0.13925403
128	0xbea846e4	-0.32866585
129	0x3ea512d7	0.32240936
130	0x3eb17c91	0.3466535
131	0x3e793d4f	0.24339794
132	0xbed50f77	-0.4161336
133	0x3e885a64	0.26631463
134	0x3d94537d	0.072424866
135	0x3e3f42ff	0.186779
136	0xbee1a3eb	-0.44070372
137	0x3e455387	0.19270144
138	0x3db1a082	0.086731926
139	0x3d8bf88c	0.06834516
140	0xbe4d8734	-0.20071107
141	0x3ddf0616	0.10889833
142	0xbe09e2e1	-0.13465454
143	0x3ec55cd1	0.38547376
144	0xbe44e58f	-0.19228195
145	0xbd32c90d	-0.04364877
146	0x3de97db4	0.11400929
147	0x3e07e77f	0.13271903
148	0x3bea2a27	0.007146138
149	0x3e6b6860	0.22989035
150	0xbe3b3b8a	-0.18284431
151	0xbd2d7dba	-0.04235623
152	0x3d80e051	0.06292785
153	0xbecc4b31	-0.39901116
154	0x3e0b7a37	0.1362084
155	0x3e700279	0.23438443
156	0xbc92a6f9	-0.017901884
157	0x3e920e72	0.28526646
158	0x3ebdaa54	0.37044013
159	0xbe63578b	-0.22201364
160	0xbdc91dc4	-0.098201305
161	0xbe0f5ed5	-0.1400102
162	0x3e0fe0fa	0.14050665
163	0xbe8a454f	-0.27006003
164	0xbe7ea416	-0.24867281
165	0x3d0f6b28	0.0350143
166	0xbe6285b9	-0.22121324
167	0x3e7f273b	0.24917309
168	0xbe8f4e36	-0.27989358
169	0x3dbd9347	0.092566065
170	0x3df7ca5d	0.120991446
171	0xbd47b39f	-0.048755284
172	0xbe5e8603	-0.21730809
173	0xbdd9e11a	-0.10638638
174	0x3cef3542	0.0292002
175	0x3d7aa497	0.06119212
176	0x3e2f7d58	0.17137659
177	0xbe8d4b36	-0.27596444
178	0x3e7b5ac2	0.2454634
179	0x3f0501b6	0.51955736
180	0xbea8b942	-0.3295384
181	0x3eded85f	0.43524453
182	0x3d898155	0.06714121
183	0xbecfe90f	-0.40607497
184	0x3c8f5097	0.017494483
185	0xbd23bb70	-0.039973676
186	0x3e80f030	0.2518325
187	0xbe3dc4f0	-0.18532157
188	0xbd933955	-0.071886696
189	0x3eab8062	0.33496386
190	0xbe42a4f8	-0.19008243
191	0xbec921b9	-0.3928354
192	0x3ec16fd9	0.37780645
193	0x3da626da	0.08112879
194	0x3e4d35ec	0.20040101
195	0x3de2d372	0.11075486
196	0xbe8e65ab	-0.27811942
197	0x3e227f54	0.15868884
198	0x3df3dea4	0.119077
199	0x3e6b2182	0.22962001
200	0x3dae44ce	0.08509217
201	0xbdd84557	-0.105601005
202	0x3d8e2131	0.069399245
203	0x3ee26c52	0.44223267
204	0xbe039a9f	-0.12851952
205	0x3f13bd6d	0.57710916
206	0xbe0bdf47	-0.13659392
207	0xbe8f3e69	-0.27977303
208	0xba0b447f	-0.0005312636
209	0x3eb45ee7	0.35228655
210	0xbcb1d81b	-0.021709492
211	0xbe857623	-0.26066694
212	0x3e1a84ca	0.15089718
213	0x3e901aa0	0.28145313
214	0xbd8f204e	-0.069885835
215	0xbddc6ed7	-0.107633285
216	0x3dde3aec	0.10851082
217	0x3d13c90c	0.036080405
218	0x3d6ad0ab	0.057327908
219	0x3eb17769	0.34661415
220	0xbec95af7	-0.39327213
221	0xbb81f6f1	-0.0039662053
222	0x3e3d36fd	0.18478008
223	0xbe1d7e87	-0.15380298
224	0xbd8aa3df	-0.06769537
225	0xbec9bedf	-0.39403436
226	0x3dac84bd	0.08423755
227	0x3dd25c2e	0.10271488
228	0xbb95e6a9	-0.004574616
229	0xbecab228	-0.39589047
230	0x3e1ecdc7	0.15508185
231	0xbdcb7773	-0.099348925
232	0x3ee6b029	0.45056275
233	0x3ee151da	0.4400776
234	0x3eddbef0	0.43309736
235	0x3ea975d5	0.3309771
236	0x3e88eab1	0.26741555
237	0x3baf7689	0.0053547067
238	0x3e758d39	0.23979653
239	0x3dc680bb	0.09692522
240	0xbc4b167a	-0.012395496
241	0xbeaad5d4	-0.33366263
242	0x3ab8bfde	0.0014095267
243	0x3dd4a553	0.103830956
244	0xb9a7905d	-0.0003196028
245	0xbecaadf3	-0.39585838
246	0x3dad277d	0.084547974
247	0xbdfc243e	-0.123116
248	0xbe7d033a	-0.24708262
249	0xbe12840f	-0.14308189
250	0xbe305be5	-0.17222555
251	0x3e97b3a9	0.29629257
252	0x3db1209d	0.086487986
253	0xbe1aeb35	-0.15128787
254	0xbb18789f	-0.0023265255
255	0xbd0b8f44	-0.034072176

demo_encoder.0.bias f4 [32]
0	0xbe36bc2a	-0.17845216
1	0x3ee387c1	0.4443951
2	0xbe7a8f72	-0.24468783
3	0x3eba6461	0.36404708
4	0xbe97f8d9	-0.29682043
5	0xbe80a284	-0.2512399
6	0xbe8863cf	-0.26638648
7	0xbd389cf4	-0.045071557
8	0xbe1c93af	-0.15290712
9	0xbe52d96e	-0.20590755
10	0x3d1bea1a	0.038065054
11	0x3e695269	0.22785343
12	0xbd94d02d	-0.07266269
13	0x3e8ac6fc	0.27104938
14	0xbe889a6d	-0.26680318
15	0xbeb1d034	-0.3472916
16	0xbe817cca	-0.2529052
17	0xbdff8011	-0.124755986
18	0x3e11ed32	0.14250639
19	0x3e3c9f7f	0.18420218
20	0x3e43a1e6	0.19104728
21	0x3c5abcad	0.013350648
22	0x3e8a4e9c	0.270131
23	0xbd7508b2	-0.059822746
24	0x3e906167	0.28199312
25	0xbdd94b70	-0.10610092
26	0x3e0a8603	0.13527684
27	0xba98434c	-0.0011616736
28	0x3ea72c2a	0.32650882
29	0x3cb82a1c	0.022481017
30	0x3e5d8276	0.21631798
31	0xbd30edbb	-0.043195467

demo_encoder.2.weight f4 [32, 32]
0	0xbe30e9d1	-0.17276694
1	0x3de690d4	0.112580925
2	0xbca110bd	-0.019661302
3	0x3ea5dfba	0.32397252
4	0x3e2162ae	0.157603
5	0x3e5cb9e4	0.21555287
6	0xbe22f0d8	-0.15912187
7	0xbd01c573	-0.031682443
8	0xbe843e6d	-0.25828877
9	0xbe5f4dc9	-0.21807016
10	0x3da8c9d9	0.082416244
11	0x3e8bc1ef	0.27296397
12	0x3e2ce79a	0.16885224
13	0x3dbff229	0.0937236
14	0x3d90515c	0.07046768
15	0xbd97436a	-0.07385905
16	0x3e6c5e17	0.23082767
17	0x3ed00480	0.40628433
18	0x3dd325e4	0.103099614
19	0x3e16492b	0.14676349
20	0x3de1dc2d	0.11028323
21	0x3e334b62	0.17509225
22	0x3e73695e	0.23770663
23	0xbe226630	-0.15859294
24	0xbe18e3bb	-0.14930622
25	0x3dcbaf73	0.09945574
26	0x3db381aa	0.08764966
27	0x3e576899	0.21035995
28	0xbe50be4b	-0.20385091
29	0xbdb54977	-0.08851903
30	0xbe622b3c	-0.22086805
31	0xbe02437a	-0.12721053
32	0xbe4aeafa	-0.19816199
33	0x3e078fc3	0.13238434
34	0x3e0a29d8	0.13492525
35	0x3e117e46	0.14208326
36	0x3e19d543	0.15022759
37	0xbe190734	-0.14944154
38	0xbded677b	-0.11592003
39	0xbe0dcc47	-0.13847457
40	0xbeafe5e5	-0.34355083
41	0xbd7988a8	-0.06092134
42	0x3e86ce08	0.26329064
43	0x3e39d4e6	0.1814762
44	0xbe14a53a	-0.14516154
45	0xbd4ec6d7	-0.050482597
46	0x3e2b401f	0.16723679
47	0x3b448f50	0.0029992647
48	0x3da5c2d6	0.08093803
49	0x3d63c349	0.05560616
50	0x3dffd550	0.12491858
51	0xbd6eb997	-0.05828246
52	0x3e084243	0.13306527
53	0xbdc497b4	-0.095992476
54	0xbc9a4a2d	-0.018834198
55	0xbdfc3f42	-0.12316753
56	0x3d8b4750	0.06800711
57	0x3e619f47	0.22033416
58	0xbd640184	-0.055665508
59	0x3e316d63	0.17326884
60	0x3caf4d07	0.021399034
61	0x3c8a3b03	0.016873842
62	0xbd9769b3	-0.073932074
63	0xbe175b29	-0.14780869
64	0x3e819923	0.25312147
65	0x3e918102	0.28418738
66	0x3c14ca81	0.009081484
67	0xbe264e50	-0.16240811
68	0xbd156b4b	-0.036479276
69	0x3d4b89dd	0.049692024
70	0x3e164f04	0.1467858
71	0x3e9292c5	0.286276
72	0x3e0ccdd1	0.13750388
73	0xbe129c76	-0.14317498
74	0xbdbb004a	-0.091309145
75	0xbe3673f6	-0.17817673
76	0xbe3ac5dc	-0.1823954
77	0x3e20a8b4	0.15689355
78	0x3d886777	0.06660359
79	0xbdd36a85	-0.10323051
80	0x3d2b35af	0.041799244
81	0xbdd6cf79	-0.10488791
82	0xbd190736	-0.037360393
83	0xbd9ff19f	-0.078097574
84	0x3e3c5d68	0.18395007
85	0xbd9f29d9	-0.07771654
86	0x3d96cbbe	0.073630795
87	0x3c2f6e20	0.010707408
88	0x3e730e78	0.23735988
89	0x3ca863b4	0.020555355
90	0xbe263f8d	-0.1623518
91	0xbdc0271e	-0.09382461
92	0x3e2f0481	0.17091562
93	0x3dd389a9	0.10328991
94	0xbd8cf922	-0.06883456
95	0xbddf60de	-0.10907148
96	0x3df71433	0.120643996
97	0x3d2e0561	0.0424856
98	0xbe51c333	-0.20484619
99	0xbcd7640c	-0.026292823
100	0xba9b23ce	-0.0011836232
101	0x3c0042c0	0.007828414
102	0xbe28f3ea	-0.16499296
103	0xbe09de28	-0.13463652
104	0xbe0c250e	-0.1368601
105	0x3dc2da75	0.095143236
106	0xbc9264c8	-0.017870322
107	0x3e301429	0.1719519
108	0xbe1e62b1	-0.15467335
109	0x3e1047cd	0.1408989
110	0x3dc8af2c	0.097990364
111	0xbe34e6bb	-0.17666142
112	0x3bc81dee	0.0061070835
113	0x3d16c46c	0.036808416
114	0x3d8ad319	0.06778545
115	0x3dc9ade0	0.09847617
116	0x3d22e223	0.039766442
117	0x3ca93bf0	0.020658463
118	0xbc5345ae	-0.012895031
119	0x3d9f409e	0.077759966
120	0xbe5c34a3	-0.21504454
121	0xbb04ff99	-0.002029395
122	0xbdcc1354	-0.09964624
123	0xbd0f8b34	-0.035044864
124	0xbd859faa	-0.06524594
125	0xbe2b931d	-0.16755338
126	0xbc81e148	-0.015854493
127	0x3c1e79c1	0.009672583
128	0xbe29fff2	-0.16601542
129	0xbe78a1e0	-0.242805
130	0x3db2fcd7	0.087396316
131	0xbd781c02	-0.060573585
132	0xbe1c490f	-0.15262245
133	0xbe3c370f	-0.18380378
134	0xbdf63b76	-0.1202306
135	0x3d2d9f9f	0.042388555
136	0x3c4c6aca	0.012476632
137	0x3dc01c83	0.09380438
138	0x3e159c9c	0.14610523
139	0xbe175008	-0.14776623
140	0xbe8ca68a	-0.2747081
141	0xbe79a8f1	-0.24380852
142	0xbbbdc8a2	-0.0057917396
143	0xbc7981cf	-0.015228703
144	0xbe71a88d	-0.23599453
145	0xbe99b745	-0.30022636
146	0xbe2a8ee3	-0.1665607
147	0xbe4c6980	-0.1996212
148	0xbe00d021	-0.12579395
149	0xbd6060e7	-0.054779913
150	0x3d0e2903	0.03470708
151	0xbe224a99	-0.15848769
152	0xbd58e43b	-0.052952033
153	0xbe51959d	-0.20467229
154	0xbe217931	-0.15768887
155	0xbe4d7dcc	-0.20067519
156	0xbdb917ff	-0.0903778
157	0xbe142408	-0.1446687
158	0xbe2dca34	-0.16971666
159	0xbe2a2e34	-0.16619188
160	0x3d526a14	0.051370695
161	0x3d874c24	0.066063195
162	0xbd934006	-0.07189946
163	0x3db679d1	0.089099534
164	0xbe963042	-0.29333693
165	0xbe0c01f3	-0.13672619
166	0x3e6757d5	0.22592099
167	0xbdac85de	-0.08423971
168	0x3e896c7c	0.2684058
169	0x3cba3244	0.022729047
170	0xbe976e85	-0.29576507
171	0xbcc2e7b9	-0.023792135
172	0x3dfbd514	0.12296501
173	0x3bd221c9	0.006412719
174	0x3ddaa9da	0.10676928
175	0xbde2f51d	-0.11081908
176	0xbda1d2ef	-0.079015605
177	0xbe3d5c3d	-0.18492217
178	0x3d163095	0.036667425
179	0x3d39b8ed	0.045342375
180	0x3d866f95	0.06564251
181	0x3e07506f	0.13214277
182	0xbdebfdfe	-0.115230545
183	0xbcf358de	-0.029705461
184	0xbdc88e9a	-0.09792824
185	0xbd71d274	-0.059038594
186	0x3e274272	0.1633394
187	0x3d509b97	0.050929632
188	0xbcf440d3	-0.029816067
189	0xbc5e797c	-0.013578769
190	0xbd33af3a	-0.04386828
191	0xbd3d961f	-0.046285745
192	0xbc080812	-0.008302705
193	0x3e062ac6	0.13102254
194	0x3d4ece82	0.05048991
195	0xbe726b9f	-0.23673867
196	0xbe141dd3	-0.14464502
197	0xbc941566	-0.01807661
198	0xbe53f61d	-0.20699354
199	0x3b48e0e9	0.0030651635
200	0xbd8f7147	-0.07004028
201	0x3e783280	0.24238014
202	0xbdc099f0	-0.09404361
203	0x3c05c7d6	0.00816532
204	0xbe2f0f90	-0.1709578
205	0xbca87d47	-0.02056755
206	0xbd4a12b1	-0.04933423
207	0xbe0cd853	-0.13754396
208	0xbcf6c2ce	-0.030122187
209	0xbe1b7cfd	-0.15184398
210	0xbdd46106	-0.10370068
211	0x3d8eca4e	0.0697218
212	0xbc83cad3	-0.016087925
213	0xbe334316	-0.1750606
214	0x3e4c55ec	0.19954652
215	0xbe89a276	-0.2688176
216	0x3dd3e0a1	0.10345579
217	0x3e2ca162	0.16858438
218	0x3d0a077b	0.03369854
219	0x3d88a6c2	0.066724315
220	0xbdb0d01d	-0.086334445
221	0x3e3a6213	0.18201475
222	0xbd10b4ef	-0.0353288
223	0xbe72af8a	-0.23699775
224	0xbde8adb6	-0.11361258
225	0x3c9b2ceb	0.018942317
226	0xbd1a461b	-0.037664514
227	0x3df2c563	0.11854055
228	0xbc9304f1	-0.017946692
229	0x3e6106b7	0.21975218
230	0x3e06c2cf	0.13160251
231	0xbdb42b2f	-0.08797299
232	0x3e0384d7	0.12843643
233	0xbe0cc1cb	-0.13745801
234	0xbe3e2025	-0.1856695
235	0x3d964c4d	0.07338772
236	0x3d3e0e38	0.04640028
237	0x3e14f492	0.14546421
238	0xbe2b9b8b	-0.16758554
239	0x3d62967a	0.055319287
240	0x3dc47b49	0.09593827
241	0xbdd276d1	-0.10276569
242	0x3dc4264f	0.09577619
243	0xbe7ab655	-0.24483617
244	0x3d4ec8fc	0.050484642
245	0xbb965195	-0.004587362
246	0xbe3dcb5c	-0.18534607
247	0xbc01d6b9	-0.007924729
248	0x3e1596d9	0.14608325
249	0xbe20a3f2	-0.1568754
250	0xbd94b958	-0.07261914
251	0xbdf48090	-0.11938584
252	0xbe758b6e	-0.2397897
253	0x3cad52a1	0.021157565
254	0xbe552218	-0.20813787
255	0xbd72e5ff	-0.059301373

demo_encoder.2.bias f4 [32]
0	0x3c7ea39d	0.015541938
1	0x3df006f5	0.11720077
2	0x3e4780bf	0.19482706
3	0x3b35c21e	0.002773411
4	0xbe2bb6bb	-0.16768925
5	0xbba976b6	-0.005171622
6	0xba559962	-0.0008148161
7	0x3d09b023	0.033615243
8	0xbdb44d16	-0.088037655
9	0x3b8130b2	0.0039425725
10	0xbe1a17c3	-0.15048127
11	0x3e51abca	0.20475689
12	0xbcccca5d	-0.024998838
13	0x3e5f768b	0.21822564
14	0xbd086a62	-0.03330458
15	0xbdf481e0	-0.11938834
16	0x3e335289	0.17511953
17	0x3d5d9c59	0.054104183
18	0x3d7b5c69	0.061367426
19	0x3dd906a3	0.10596969
20	0xbe64cc99	-0.22343673
21	0x3dcff5f7	0.10154336
22	0x3c0cc6a1	0.008592279
23	0xbd0f2a8b	-0.03495268
24	0xbd0568ce	-0.032570653
25	0x3db668e5	0.08906726
26	0xbd30543e	-0.04304909
27	0xbda0cde0	-0.078517675
28	0x3e3b4783	0.18288998
29	0x3e145779	0.14486493
30	0x3e4708db	0.19436972
31	0xbd5d734f	-0.054065045

gru.weight_ih_l0 f4 [96, 111]
0	0xbe81750b	-0.2528461
1	0x3e793418	0.24336278
2	0x3dab8e85	0.08376793
3	0x3e1ee480	0.15516853
4	0x3d64b723	0.055838715
5	0xbdeca44b	-0.11554774
6	0xbe12f9d4	-0.14353114
7	0xbe13c43e	-0.14430329
8	0x3c795ba1	0.0152196
9	0x3dfcfda1	0.123530634
10	0x3cb3374c	0.021876954
11	0xbe0a5976	-0.13510689
12	0x3e243d06	0.16038904
13	0xbe304012	-0.17211941
14	0x3e88cfb9	0.2672098
15	0xbe93e165	-0.288829
16	0xbe22b55f	-0.158895
17	0xbd133dc6	-0.035947584
18	0x3e281c76	0.16417107
19	0xbda19b5c	-0.078909606
20	0x3e5ab9af	0.21359895
21	0xbe890879	-0.26764277
22	0xbcf00c64	-0.029302783
23	0x3d49d5f8	0.049276322
24	0x3e1f4fc0	0.15557766
25	0x3df14329	0.11780388
26	0x3ea580f7	0.32324955
27	0x3d0eb53f	0.03484082
28	0x3b53de46	0.003232853
29	0xbe027655	-0.12740453
30	0xbca1683f	-0.019703029
31	0x3e1bbf78	0.15209758
32	0xbde7d4b9	-0.113198705
33	0x3e2ef7eb	0.1708676
34	0xbdaaed43	-0.08346035
35	0x3bfe2ca3	0.007756786
36	0x3c8e6b9f	0.017385302
37	0xbe25ad37	-0.16179357
38	0xbb00d106	-0.0019655838
39	0xbd1dcd48	-0.03852585
40	0x3d6c76df	0.05773055
41	0xbcdb907b	-0.026802292
42	0x3e59c363	0.2126594
43	0x3def5a7d	0.11687181
44	0x3d2246d9	0.039618347
45	0x3e3f37a3	0.18673567
46	0xbe4121c0	-0.18860531
47	0xbe8adb22	-0.2712031
48	0x3c6bee78	0.014400117
49	0x3dae82b5	0.08521024
50	0xbcf2e8c8	-0.029652014
51	0xbdc5e2b3	-0.0966238
52	0xbd0b7e77	-0.034056153
53	0x3d968e9f	0.073514216
54	0xbe696e82	-0.22796062
55	0xbe3a8278	-0.18213832
56	0xbdb11696	-0.08646886
57	0xbd6ed86c	-0.058311865
58	0xbe1235fa	-0.14278403
59	0xbd484754	-0.04889615
60	0xbcdb9b59	-0.026807474
61	0xbd9aa789	-0.07551486
62	0xbe0d6de6	-0.13811454
63	0xbce558b3	-0.027996397
64	0xbe2626b6	-0.16225705
65	0xbc7bfab3	-0.015379596
66	0xbebe9caf	-0.37228915
67	0xbe5babfa	-0.21452323
68	0x3cadc4ea	0.02121206
69	0xbe65e0da	-0.22449055
70	0x3d50468e	0.050848536
71	0x3dcc49d6	0.099750206
72	0x3ddcf681	0.107892044
73	0x3d677826	0.056511067
74	0xbdeabc1f	-0.114616625
75	0xbdad468d	-0.08460722
76	0xbd9e4754	-0.077284485
77	0xbc2cda07	-0.010550029
78	0x3d2a9a83	0.04165126
79	0xbe035eb4	-0.12829095
80	0x3ddb52d9	0.10709161
81	0x3c83ae29	0.016074257
82	0xbd532f63	-0.051558863
83	0xbcfbc45d	-0.030733282
84	0x3e47cbb5	0.19511302
85	0xbe14e25e	-0.14539477
86	0x3dace6d6	0.08442466
87	0xbb3b03fc	-0.002853631
88	0xbd5a887a	-0.05335281
89	0xbe9f0d7f	-0.31064984
90	0x3dca47f9	0.09877009
91	0xbe076fd8	-0.13226259
92	0xbdd50003	-0.10400393
93	0x3d35ca87	0.0443826
94	0x3df978ca	0.12181242
95	0xbe097188	-0.13422215
96	0xbe069116	-0.13141283
97	0x3e20fb53	0.15720873
98	0xbd88acae	-0.06673561
99	0x3e26912b	0.16266315
100	0xbe930705	-0.28716293
101	0xbcd0c9e4	-0.025486894
102	0xbdfda0f3	-0.12384214
103	0x3e364b3b	0.17802136
104	0x3da54e6f	0.08071601
105	0xbd40f41d	-0.047107805
106	0xbce73d4b	-0.028227469
107	0xbd9dfc86	-0.07714181
108	0xbe216938	-0.15762794
109	0xbe275397	-0.1634048
110	0xbd4d1207	-0.05006602
111	0xbd014620	-0.031561017
112	0xbe05a5bc	-0.13051504
113	0x3d167b37	0.0367386
114	0x3da7889c	0.08180353
115	0x3e1f09dd	0.15531106
116	0x3cd1182f	0.025524227
117	0xbdef7a6a	-0.116932705
118	0xbe2670db	-0.16253988
119	0xbe03eb04	-0.1288262
120	0xbdcd8639	-0.100353666
121	0xbdccb39f	-0.099951975
122	0x3d9f19a2	0.07768561
123	0xbe69ea86	-0.2284337
124	0xbe0dcfa2	-0.13848737
125	0x3c2c914a	0.0105326865
126	0xbde3234e	-0.11090718
127	0x3ea3586a	0.31903392
128	0x3dedf081	0.11618138
129	0xbe2037e6	-0.15646324
130	0xbe84811c	-0.25879753
131	0x3e1644ef	0.14674734
132	0x3d03d0a0	0.032181382
133	0x3e3412f4	0.17585355
134	0x3b7adeff	0.0038279889
135	0xbda3a246	-0.079899356
136	0x3cd5f7e2	0.026119176
137	0x3c505139	0.0127146775
138	0x3e1502be	0.14551827
139	0xbe113f23	-0.14184241
140	0x3dc9912c	0.098421425
141	0x3dc86a1e	0.09785865
142	0x3d71ddcc	0.059049413
143	0xbe18609d	-0.14880605
144	0x3d0594ba	0.03261254
145	0x3d4bac20	0.049724698
146	0xbda858aa	-0.08220036
147	0x3ccdf348	0.02514042
148	0x3d82fe0c	0.06396112
149	0xbdca5783	-0.09879973
150	0xbd5574c5	-0.052113313
151	0xbd800aee	-0.06252085
152	0x3d9c9f1e	0.07647537
153	0xbd6d1f22	-0.05789102
154	0xbe069da4	-0.13146073
155	0xbe8b5d16	-0.27219456
156	0x3e0a1595	0.13484795
157	0x3d422057	0.047394123
158	0xbd6b60e2	-0.05746544
159	0x3d981d28	0.07427436
160	0x3e54eb28	0.2079283
161	0x3da0eb19	0.07857341
162	0x3dd93864	0.10606459
163	0x3dd42e74	0.10360423
164	0xbd0e5bd4	-0.034755543
165	0x3e38c583	0.18044095
166	0xbde36913	-0.11104026
167	0x3e43161b	0.19051401
168	0x3e04133d	0.12897964
169	0xbd91a701	-0.071119316
170	0x3e2936b6	0.16524777
171	0x3e6181c4	0.22022158
172	0xbcfea184	-0.031082876
173	0x3c8e1747	0.017345084
174	0x3de2a2f9	0.11066241
175	0xbdbf523c	-0.09341857
176	0x3ddbc30f	0.10730564
177	0xbdb4cb35	-0.08827821
178	0x3d8acb07	0.06777006
179	0xbe2a46c3	-0.16628556
180	0xbe3f596a	-0.18686453
181	0x3e0ec8cb	0.13943784
182	0x3d75ec15	0.0600396
183	0xbdc17b1c	-0.094473094
184	0x3c4e81af	0.012604161
185	0xbe757d57	-0.23973595
186	0xbd01fe4f	-0.03173667
187	0xbe761d59	-0.24034633
188	0x3d2949ba	0.041330077
189	0xbd840bd8	-0.064475715
190	0x3e26279f	0.16226052
191	0x3e8b90ee	0.2725901
192	0x3e9b164b	0.30290446
193	0xbd92022e	-0.07129322
194	0x3d992b16	0.07478921
195	0x3dc1ebbb	0.0946879
196	0xbe300f3b	-0.1719331
197	0xbc0a8e4a	-0.008456776
198	0x3d2bb840	0.04192376
199	0x3cb7ddc9	0.022444623
200	0xbe0ae80f	-0.13565086
201	0xbdaa6b2d	-0.083212234
202	0x3e1a9a46	0.15097913
203	0xbe42400c	-0.18969744
204	0x3ea698c9	0.3253844
205	0xbcc5949f	-0.02411872
206	0x3d9b3102	0.07577707
207	0x3db3cce1	0.08779312
208	0x3dbf85c5	0.093516864
209	0x3e2aedb5	0.1669224
210	0x3d6cbd0d	0.05779748
211	0x3db0ca0d	0.08632288
212	0xbe7e9b82	-0.24864009
213	0xbe32fc73	-0.17479114
214	0x3b1a32f9	0.0023528917
215	0xbd3b7061	-0.04576147
216	0x3e4b705f	0.19867085
217	0x3c19b463	0.009381386
218	0xbd861fa1	-0.065490015
219	0x3d88198b	0.06645497
220	0xbdaa1f17	-0.08306711
221	0x3bfe6aad	0.0077641816
222	0x3d50f66f	0.051016267
223	0x3da42ef3	0.08016767
224	0x3e2e60ce	0.17029116
225	0xbbb1aff0	-0.0054225847
226	0xbc1bf4de	-0.00951883
227	0x3e163837	0.14669882
228	0xbcdb8bc4	-0.026800044
229	0xbe573204	-0.21015173
230	0x3e064593	0.13112478
231	0x3ba7877e	0.0051125875
232	0xbd286ae5	-0.041117568
233	0xbe01e2c7	-0.12684165
234	0xbd3e7365	-0.046496768
235	0xbe3f9363	-0.18708567
236	0x3da465c2	0.08027221
237	0xbd5ad5b7	-0.05342647
238	0x3e6d8fda	0.23199406
239	0xbde9a121	-0.11407686
240	0xbe0eb44d	-0.13935967
241	0xbe61178b	-0.21981637
242	0x3e063e16	0.13109621
243	0x3e0f024a	0.13965717
244	0x3df01a61	0.117237814
245	0x3d7f0775	0.06226297
246	0xbcfcfeee	-0.030883279
247	0xbe0fa317	-0.14027058
248	0xbd2ed9eb	-0.04268829
249	0xbdf60537	-0.120127134
250	0xbcb1ee97	-0.021720214
251	0xbd4cf3bf	-0.050037142
252	0xbd94b046	-0.07260184
253	0xbe4b7d6d	-0.19872065
254	0x3d80838f	0.06275093
255	0x3e27b033	0.16375808

gru.weight_hh_l0 f4 [96, 32]
0	0xbdfcca0b	-0.12343224
1	0x3d88e8a1	0.066849954
2	0xbd41fb25	-0.04735865
3	0x3dabe6d2	0.08393635
4	0x3cfab952	0.030605946
5	0x3d7a15bd	0.061055887
6	0xbd535fc3	-0.051604997
7	0x3defb7ab	0.11704954
8	0x3d79ef82	0.061019428
9	0xbdab9d01	-0.083795555
10	0xbdd01ca7	-0.10161715
11	0x3d46e666	0.04855957
12	0xbd15d0d9	-0.036576126
13	0x3ea01d19	0.312722
14	0x3e232d15	0.15935166
15	0x3e4e81f8	0.20166767
16	0x3e50dcca	0.20396724
17	0x3d156cee	0.036480837
18	0x3db2a87d	0.08723543
19	0x3c89e338	0.01683198
20	0x3e43ebdb	0.1913294
21	0x3d919079	0.07107634
22	0x3e07ce50	0.13262296
23	0xbd957c90	-0.07299149
24	0x3e41e88a	0.18936363
25	0xbdeaebd6	-0.114707634
26	0xbcdb36f0	-0.026759595
27	0xbd813478	-0.06308836
28	0x3df5053d	0.1196389
29	0xbaba5d82	-0.0014218541
30	0x3cc151d5	0.02359859
31	0x3e24fe5f	0.1611266
32	0xbbe0af7a	-0.006856856
33	0xbdd0a3aa	-0.101874664
34	0x3ce6a70e	0.02815583
35	0xbde3699e	-0.11104129
36	0xbeab1f21	-0.33422187
37	0xbde653d8	-0.11246461
38	0x3e5d7fa5	0.21630724
39	0xbe22ec80	-0.1591053
40	0xbde6edf4	-0.11275855
41	0x3e3b2920	0.18277407
42	0xbe11a56b	-0.14223258
43	0x3ccf3ddb	0.02529805
44	0xbdaab295	-0.08334843
45	0x3dbf8948	0.09352356
46	0x3d92e987	0.07173448
47	0xbe24a8d3	-0.16080026
48	0x3c8661d3	0.016404068
49	0x3e552650	0.20815396
50	0xbdd083f6	-0.101814196
51	0x3d0f1f25	0.03494181
52	0xbd86b122	-0.06576754
53	0x3e329040	0.1743784
54	0x3e3cc696	0.1843513
55	0x3e47d959	0.19516505
56	0xbe555f45	-0.20837124
57	0x3dd6708e	0.10470687
58	0x3dd94c34	0.10610238
59	0xbe64440b	-0.22291581
60	0x3e122a32	0.14273909
61	0x3e4e69cd	0.20157547
62	0x3e048d03	0.12944417
63	0xbd124110	-0.03570658
64	0x3d4f8642	0.050665148
65	0x3daf9da8	0.085749924
66	0x3d2616a0	0.04054892
67	0xbe24b18a	-0.16083351
68	0xbd02c202	-0.0319233
69	0x3d333717	0.04375371
70	0xbd911af8	-0.07085222
71	0x3daf1cf9	0.08550448
72	0x3e462966	0.1935173
73	0xbe25f71a	-0.16207543
74	0x3d2867f9	0.04111478
75	0xbe0d2582	-0.1378384
76	0x3e3b67ae	0.1830127
77	0x3e0ba367	0.13636552
78	0x3c8d20ec	0.017227612
79	0x3e48d606	0.19612893
80	0xbbd91ba3	-0.006625609
81	0xbddaf8d7	-0.10691994
82	0x3e168b64	0.14701611
83	0xbc06a434	-0.00821786
84	0xbe129f85	-0.14318664
85	0xbc9e6e1d	-0.019339615
86	0xbcc71a9b	-0.024304679
87	0xbd81c7e7	-0.063369565
88	0xbe55e518	-0.20888174
89	0x3d9a188d	0.07524214
90	0xbda9f9b4	-0.0829958
91	0xbe402a26	-0.18766078
92	0x3db55317	0.08853739
93	0xbdea3cb9	-0.11437363
94	0x3d984a92	0.07436098
95	0xbd06718a	-0.032823123
96	0xbd62a359	-0.05533156
97	0xbd47b1f2	-0.048753686
98	0xbd39cb08	-0.04535964
99	0xbdd38323	-0.10327747
100	0x3d6a197c	0.05715321
101	0xbd42c302	-0.047549255
102	0x3e30d8d6	0.17270216
103	0x3dfa7e84	0.12231162
104	0x3d305d14	0.043057516
105	0x3e4caa36	0.19986805
106	0xbcaff7a4	-0.021480389
107	0xbd19a585	-0.037511367
108	0xbc2e8f1b	-0.010654236
109	0x3e051464	0.1299606
110	0x3e1a78bb	0.15085118
111	0xbe013400	-0.12617493
112	0x3dbb323f	0.09140443
113	0xbd8f7d1a	-0.07006283
114	0x3e4b4124	0.19849068
115	0xbe108a83	-0.14115338
116	0xbe33564b	-0.17513387
117	0x3d8305c9	0.06397588
118	0xbe2fdb95	-0.17173608
119	0x3e32ce3d	0.17461486
120	0x3e0863a4	0.1331926
121	0xbe483be0	-0.1955409
122	0x3c62e88a	0.013849387
123	0xbc1e662c	-0.009667914
124	0xbe2bd47a	-0.16780272
125	0xbde4d7db	-0.11173984
126	0x3e430ebe	0.19048592
127	0x3e5deb83	0.21671872
128	0x3d6a57df	0.057212707
129	0x3e2c8bc4	0.16850191
130	0xbdb1d0c4	-0.08682397
131	0x3da19342	0.07889415
132	0x3d028890	0.031868517
133	0x3d5aa4e8	0.053379923
134	0xbe04bbac	-0.12962216
135	0x3daafd7e	0.08349131
136	0x3d3ee205	0.046602268
137	0x3de7bf86	0.11315827
138	0x3d10095c	0.035165176
139	0xbc959e97	-0.018264098
140	0x3cd948ec	0.02652403
141	0xbe849044	-0.25891316
142	0xbcc4dbea	-0.024030644
143	0x3ad4ee3e	0.0016245318
144	0xbd74b57d	-0.059743393
145	0xbcf4c7a4	-0.029880352
146	0xbd711baf	-0.05886429
147	0x3d82c0b3	0.06384411
148	0xbe3b96d1	-0.1831925
149	0xbd89adf0	-0.06722629
150	0x3e5eeecd	0.21770783
151	0xbdb7665e	-0.08955072
152	0xbea41c7a	-0.32052976
153	0xbe3d7d6f	-0.1850488
154	0x3daa4cfe	0.08315466
155	0xbe3b0214	-0.18262511
156	0xbd829340	-0.06375742
157	0xbd88dc09	-0.066825934
158	0x3b8d50f4	0.004312629
159	0x3df923fa	0.12165065
160	0xbd3e8b91	-0.04651982
161	0x3e4ddd3c	0.20103925
162	0x3deaa569	0.11457331
163	0xbdd11a2a	-0.102100685
164	0x3d86333c	0.06552741
165	0xbe5ffa24	-0.21872765
166	0x3d7f805f	0.062378284
167	0xbe2cba73	-0.16868
168	0xbdcc4ed9	-0.099759765
169	0xbe13d199	-0.14435424
170	0xbe81462d	-0.25248852
171	0xbcebd79c	-0.028789334
172	0xbe7039d4	-0.2345956
173	0xbe8d4ed8	-0.27599216
174	0xbb68ef3a	-0.003554298
175	0x3d328f75	0.043593843
176	0x3c4e7da0	0.0126031935
177	0x3e2c205f	0.16809224
178	0x3d62dcda	0.0553864
179	0xbd902b03	-0.07039454
180	0x3e11d94f	0.14243053
181	0x3d1a6d8d	0.037702132
182	0xbe475b32	-0.19468382
183	0xbe6e9afc	-0.2330131
184	0xbc6f0b5f	-0.014590113
185	0xbe671eb9	-0.22570314
186	0xbdd1c1cc	-0.10242042
187	0xbd676d27	-0.05650058
188	0xbdcc28ee	-0.09968744
189	0x3e10801d	0.14111371
190	0xbd8e74bd	-0.0695586
191	0xbddc09cf	-0.10744058
192	0xbe0169f8	-0.1263808
193	0x3b2ac26c	0.0026055826
194	0xbdd91e76	-0.10601513
195	0x3d69e026	0.05709853
196	0x3d4538bc	0.04814981
197	0x3d292cde	0.041302554
198	0x3e0b6a2c	0.1361472
199	0x3e04ad47	0.12956725
200	0x3d0a5053	0.03376801
201	0xbcbcd673	-0.023051476
202	0x3d563cc9	0.052304063
203	0xbe69c7b2	-0.22830084
204	0xbe1a7f8c	-0.15087718
205	0x3e013caf	0.12620805
206	0x3dd6b897	0.104844265
207	0x3dfb724d	0.122776605
208	0xbdeff9af	-0.11717545
209	0xbe6728fb	-0.22574227
210	0x3df48d5e	0.11941026
211	0x3c9402f5	0.018067816
212	0xbda63715	-0.08115975
213	0x3dab13c6	0.08353381
214	0x3e024144	0.1272021
215	0x3e2f0a5d	0.17093797
216	0x3e0bd6de	0.13656184
217	0xbd3c75bf	-0.04601073
218	0x3d84310c	0.064546674
219	0xbd76c37f	-0.060245033
220	0x3d95d6cb	0.07316359
221	0xbe2af44b	-0.16694753
222	0xbd1e6fba	-0.03868077
223	0x3e539345	0.20661648
224	0x3e5c2a1f	0.21500443
225	0x3e12e957	0.14346825
226	0x3d90d310	0.07071507
227	0x3e01a1ab	0.12659328
228	0xbc9450ef	-0.018104998
229	0x3de9fe32	0.11425437
230	0x3e2a0b18	0.16605794
231	0x3e821f28	0.25414395
232	0x3dc5f5ac	0.09665999
233	0x3e530ad0	0.20609593
234	0x3e3307fa	0.17483512
235	0x3e2403db	0.16017096
236	0xbda60e4b	-0.08108195
237	0x3e42c96d	0.1902215
238	0xbd9a7619	-0.075420566
239	0xbe2fb8ac	-0.1716029
240	0x3df34825	0.11878995
241	0xbe1c5f6f	-0.1527078
242	0x3e3ad384	0.1824475
243	0xbcbeb3d9	-0.023279117
244	0xbe1f5f97	-0.15563808
245	0xbdd2b68c	-0.10288724
246	0x3cbdc931	0.023167225
247	0x3d82685f	0.063675635
248	0xbe73c534	-0.23805696
249	0x3dc0ed4d	0.094202615
250	0x3dced395	0.1009895
251	0x3daecfb0	0.08535707
252	0xbd985c9e	-0.0743954
253	0xbc58aa0b	-0.013224135
254	0xbd272283	-0.040804397
255	0xbdb47772	-0.08811845

gru.bias_ih_l0 f4 [96]
0	0x3c9be46c	0.019029818
1	0x3e5a5103	0.21319966
2	0x3c097c50	0.008391455
3	0xbe6f9389	-0.23396124
4	0x3dc6d636	0.09708826
5	0xbdfea251	-0.12433303
6	0xbe130322	-0.14356664
7	0xbd7e9413	-0.062152933
8	0xbd04dec2	-0.032439
9	0x3e3590ea	0.17731062
10	0xbdce18c8	-0.100633204
11	0x3e40a12e	0.18811485
12	0xbd7c5e09	-0.061613116
13	0x3e25cf19	0.16192283
14	0xbdd31bbd	-0.10308025
15	0x3d3de87e	0.0463643
16	0xbdd098f2	-0.10185422
17	0x3d782e2e	0.060590915
18	0xbc81b8d5	-0.015835205
19	0xbe64c89f	-0.22342156
20	0x3da93963	0.08262899
21	0x3c712bb4	0.014719892
22	0xbe2227e8	-0.15835536
23	0x3e29f7d8	0.16598451
24	0xbdeba4fa	-0.11506076
25	0x3d4cc19e	0.049989335
26	0xbc9794a9	-0.018503504
27	0xbe3a385d	-0.18185563
28	0x3c1a16cf	0.009404852
29	0xbd5e48e4	-0.054268733
30	0x3e977551	0.29581693
31	0x3e1ebf3f	0.15502642
32	0x3d3d22ba	0.046175696
33	0xbda7a9a1	-0.08186651
34	0x3e4465d5	0.19179471
35	0x3d30b1b7	0.043138232
36	0x3ddd0762	0.10792424
37	0x3db4bb14	0.08824745
38	0x3e1030ac	0.14081067
39	0x3c40b69b	0.011762287
40	0x3e5c480e	0.21511862
41	0xbcfe73db	-0.031061104
42	0x3e1055f3	0.14095287
43	0xbd6182c3	-0.055056345
44	0x3d87ed1e	0.066370234
45	0x3c01d3c2	0.007924022
46	0x3e65b32d	0.22431631
47	0x3e45f417	0.19331394
48	0x3e422620	0.18959856
49	0x3cc9ebf6	0.024648648
50	0xbdcf4809	-0.101211615
51	0x3c4b30ed	0.0124018015
52	0x3af133fa	0.0018402331
53	0x3dcfceb9	0.10146851
54	0x3d209166	0.039201163
55	0xbda6b8d7	-0.08140724
56	0x3e228a7c	0.1587314
57	0x3c63703f	0.013881742
58	0xbd926357	-0.07147854
59	0x3c854282	0.016267065
60	0xbce1f769	-0.027583795
61	0xbb29d977	-0.0025916973
62	0x3e3e16cc	0.18563384
63	0xbdfbac63	-0.122887395
64	0x3e0a783b	0.13522427
65	0xbc2034f3	-0.009778249
66	0xbcecb501	-0.028894903
67	0xbd2264ee	-0.039647035
68	0x3e321ac2	0.1739302
69	0xbdc5ee61	-0.09664608
70	0xbe984aef	-0.2974467
71	0xbe333079	-0.1749896
72	0x3da644eb	0.08118614
73	0xbddc9f71	-0.107725985
74	0x3ccf0fce	0.025276091
75	0x3db78525	0.08960942
76	0xbcf8b8d2	-0.030361567
77	0x3d9b6ce1	0.075891264
78	0x3d079229	0.033098374
79	0xbe559967	-0.208593
80	0xbdff93a5	-0.12479333
81	0xbe05315e	-0.13007113
82	0xbd67a55a	-0.056554176
83	0xbdb31145	-0.08743528
84	0xbe2c0c5b	-0.16801588
85	0xbe4d855e	-0.20070407
86	0x3dca71e9	0.09885008
87	0xbd043a99	-0.032282446
88	0xbd8bee2f	-0.06832539
89	0x3be5595d	0.0069991783
90	0x3cffec75	0.031240681
91	0xbd4078af	-0.046990093
92	0xbde1af3d	-0.11019752
93	0x3dcfc92b	0.101457916
94	0x3d917137	0.07101672
95	0x3d8c4852	0.068497315

gru.bias_hh_l0 f4 [96]
0	0x3def45f7	0.116832666
1	0x3e1dfbb7	0.15428053
2	0x3c393520	0.01130417
3	0x3d830a2c	0.063984245
4	0x3d868e5d	0.065701224
5	0x3d892bc3	0.066978
6	0xbd01d120	-0.031693578
7	0x3e2505cd	0.16115494
8	0xbd54cdbd	-0.05195402
9	0xbd4ecadb	-0.050486427
10	0xbd9d55f3	-0.07682409
11	0xbd81a188	-0.06329638
12	0x3e13ffbf	0.14453028
13	0xbd70892f	-0.05872458
14	0xbc90cfb8	-0.017677173
15	0x3e654a05	0.22391517
16	0x3deab863	0.1146095
17	0x3d62ae16	0.055341803
18	0x3e4b1b19	0.19834556
19	0xbdf75cfd	-0.12078283
20	0x3e0e48b1	0.13894917
21	0x3df2d1ee	0.11856447
22	0xbe5a8bb4	-0.21342355
23	0x3d8b276b	0.06794628
24	0xbcc0fd90	-0.023558408
25	0xbc2a2049	-0.010383674
26	0x3e4860c5	0.19568165
27	0x3e1ff54d	0.15620919
28	0x3d48c2fd	0.04901408
29	0x3de5218c	0.11188039
30	0x3da125a0	0.078685045
31	0xbe0c5388	-0.1370374
32	0x3d9024ca	0.07038267
33	0x3e143f87	0.14477359
34	0x3ca41f3e	0.020034429
35	0x3d85973f	0.065229885
36	0xbe24f28b	-0.16108148
37	0xbd803041	-0.06259204
38	0xbd543f97	-0.051818457
39	0x3cad2e09	0.021140115
40	0x3e1dd400	0.15412903
41	0x3dc754bf	0.09732961
42	0x3e4bcda7	0.19902669
43	0x3e8eb67f	0.27873608
44	0xbd4fa094	-0.05069025
45	0x3d345403	0.044025432
46	0xbca4d863	-0.020122712
47	0xbd09131b	-0.033465486
48	0x3e3ae73a	0.18252268
49	0xbe1411e9	-0.14459957
50	0xbe4b461f	-0.19850968
51	0xbe0bb142	-0.13641837
52	0x3df004a0	0.11719632
53	0xbdade30f	-0.084905736
54	0x3d9da6ba	0.07697816
55	0xbe0db2cf	-0.13837741
56	0x3e0305a7	0.12795125
57	0x3d8f7bd5	0.07006041
58	0xbd9d6465	-0.07685164
59	0xbc19bdc5	-0.0093836235
60	0xbcc37858	-0.023861095
61	0x3e21adb8	0.15788925
62	0x3dc79336	0.09744875
63	0xbd9baa72	-0.07600869
64	0x3d29e1de	0.04147517
65	0x3e06841d	0.13136335
66	0xbe1a121e	-0.15045974
67	0x3dfa56ab	0.12223562
68	0x3dc3a197	0.09552305
69	0xbe19bd95	-0.15013726
70	0x3abdab40	0.0014470592
71	0x3d96616d	0.07342801
72	0x3de469a1	0.111529596
73	0xbd3638c4	-0.04448773
74	0xbddee190	-0.108828664
75	0xbe03dc58	-0.12877023
76	0x3d6d6387	0.057956245
77	0x3b5741dc	0.0032845652
78	0x3b539701	0.003228605
79	0xbdfd1e22	-0.12359263
80	0x3e4d48b7	0.2004727
81	0x3dd56e76	0.104214594
82	0xbcc1c694	-0.02365426
83	0x3d8ed805	0.06974796
84	0x3cb25f77	0.021774037
85	0xbd7f1ae1	-0.062281493
86	0xbcb33e88	-0.021880403
87	0xbe28984c	-0.16464347
88	0x3d6cf89c	0.05785428
89	0x3e13fe1c	0.14452404
90	0xbb9c1cdb	-0.004764182
91	0x3cde9b0a	0.027173538
92	0x3d697873	0.056999635
93	0x3d916c96	0.07100789
94	0xbe820971	-0.25397828
95	0x3e1d9ef3	0.15392666

output_layer.weight f4 [2, 32]
0	0x3d36ab5b	0.04459701
1	0xbc2bd85b	-0.010488595
2	0xbdfb549e	-0.12271999
3	0xbdafcf75	-0.08584491
4	0x3e416427	0.18885861
5	0xbe10901d	-0.14117475
6	0xbd1e1b81	-0.03860045
7	0xbe17a85a	-0.14810315
8	0x3e300d15	0.1719249
9	0xbe06fe0a	-0.13182846
10	0xbe4d8adb	-0.200725
11	0xbe38be22	-0.1804128
12	0xbdca47e1	-0.09876991
13	0xbd969edd	-0.073545195
14	0xbe5c28ec	-0.21499985
15	0xbdba6df7	-0.091030054
16	0x3d50c234	0.050966457
17	0x3e565116	0.2092937
18	0x3e2aa767	0.16665421
19	0x3e413466	0.18867645
20	0xbdd0b903	-0.10191538
21	0xbdaf76ce	-0.08567582
22	0x3e1db1ae	0.1539981
23	0xbdf736b9	-0.120709844
24	0xbe446f32	-0.19183043
25	0xbe4e1cdd	-0.20128198
26	0x3cdacdc1	0.02670944
27	0xbbb598bb	-0.0055418885
28	0xbe2b9e9f	-0.16759728
29	0x3e295e00	0.16539764
30	0xbe349f4d	-0.17638893
31	0xbd810bc3	-0.063010715
32	0xbe12ff9b	-0.14355318
33	0xbea3c764	-0.3198806
34	0x3e4db9e0	0.20090437
35	0x3dc810bd	0.097688176
36	0xbe1f373a	-0.15548411
37	0x3e0e9eaa	0.13927713
38	0x3e6d6e5a	0.23186627
39	0x3cb8e6dc	0.02257102
40	0xbd89dc8d	-0.0673152
41	0x3e1555f2	0.14583567
42	0x3db2753d	0.08713768
43	0x3e0dd672	0.13851336
44	0x3c9c94ec	0.01911398
45	0x3da7e4ac	0.081979126
46	0x3e270b63	0.16312937
47	0x3e1b0fdc	0.15142769
48	0xbe5153ab	-0.20442073
49	0xbded8674	-0.115979105
50	0xbdb40b67	-0.08791237
51	0x3c36e5d0	0.01116319
52	0x3e0879cb	0.1332771
53	0x3e21cce4	0.15800816
54	0xbe695e6d	-0.22789927
55	0x3df5a678	0.11994642
56	0x3ce31e27	0.027724339
57	0x3d31ec4f	0.043438252
58	0xbe9751cc	-0.29554594
59	0x3e304ea7	0.17217503
60	0x3d8e3bb6	0.06944983
61	0xbeb4e651	-0.35331967
62	0x3e174abd	0.14774604
63	0x3e149072	0.14508227

output_layer.bias f4 [2]
0	0xbdd145ca	-0.10218389
1	0xbddf9073	-0.109162234
