ipnets_output/split_4/checkpoint.pt (torch, 71458 bytes, 12 tensors)

single_channel_interp.kernel f4 [37]
00000000: 38d3 02bf f8c2 e5bd fffb 203e d6d5 af3e
00000010: fbf6 2d3d 0081 b4be 1c92 5abe f76b 683f
00000020: 0550 bcbe 6e85 4c3e cb7b 0d3d df79 90be
00000030: ace5 81be eafc 8abe f95d 85be e9c8 b3be
00000040: 270f cabd dd56 99be bf5d 083e bcbc e73d
00000050: d3ea 983e 2dca 6ebd 7096 eebd cd0f 5abe
00000060: 7f6a 28be 0411 aabe 9d47 d4bd 8398 16be
00000070: 7efd 813c b005 c63d c9dd 403e cd61 3a3e
00000080: 3293 373f 94f2 c83e 9f4e 2d3e 81d5 ecbd
00000090: fff1 a13b
-0.51103544 -0.11218828 0.15721129 0.3434283 0.042471867 -0.3525467 -0.21344799 0.9078974
-0.367798 0.19972774 0.034541886 -0.2821798 -0.25370538 -0.27146083 -0.26048258 -0.3511422
-0.09866171 -0.29949084 0.13317011 0.11315295 0.29866657 -0.05829828 -0.116497874 -0.2129509
-0.16446875 -0.33216107 -0.10365222 -0.14706616 0.015867945 0.096690536 0.18834604 0.1820137
0.7170898 0.39247572 0.16924523 -0.1156416 0.0049421783

cross_channel_interp.cross_channel_interp f4 [37, 37]
00000000: 19da 8c3f 73e9 633d 00e3 883d ca6e b03d
00000010: 6b3c 40bc dd67 c2bd fafd 1dbc 83a5 383d
00000020: 7d6f 5cbd 0dcd 51bd b5de 843d 62d2 623d
00000030: 6119 30bd b832 b13d 92ae 513e d2f3 abbd
00000040: cdf0 703c 654d 21bd 7b9a 10be da67 d2bc
00000050: 6785 503d 9725 c5bb 4b9a e53d 5d91 98bd
00000060: 865d b8bb 1853 d03b 6932 113e 3173 0b3d
00000070: d940 633d 4ff2 d8bd 20f3 04be dc8c 983d
00000080: 3f03 77bd 4bd9 09bd 6550 103e 699a aebc
00000090: 342f 093e 71cf d03d b43d 743f 51da ce3d
000000a0: 1e72 613e e8d6 b8bd 1a28 633d fe95 213e
000000b0: 2f29 c3bd e12e bb3d 5686 ee3c 85dc 403e
000000c0: 85ff 10bd 3cfc 60bd a9b2 0abe 9cba 36be
000000d0: 60a8 76bd d42e 873d 5966 a33d 81e8 6fbd
000000e0: 5ef3 51bd 829b 493e 6002 783d 9e74 f3bc
000000f0: da27 a3bc 1628 bc3d 81f6 10be 3813 0ebe
00000100: e662 b03c 8391 963c 3c02 4ebd c580 743d
00000110: 2ad5 0fbe d073 16bd 9a12 163c 8038 67bd
00000120: c2f0 493d 638c f6bd f905 cfbd 95d0 a5bd
00000130: b59d 593f caa6 af3e 23ca 7f3c 6eff 18bd
00000140: 1160 b7bd c181 dfbd 8a0a d53c db92 1a3e
00000150: b48f eabc 7b89 e93d b120 4639 02f9 d2bd
00000160: 352b d83a d9a9 603e af25 2e3e 1c22 96be
00000170: 22d5 5c3e 5245 903d dfe4 cabd a472 0d3e
00000180: b119 923d 6c00 c63d 9e0d ce3d a0ed 4ebb
00000190: 1354 6f3c 3a8f 813d 067d 97bd a6fa 543d
000001a0: 5530 eb3d 9662 563e 2328 72bd ced0 193d
000001b0: d4ae 733d d46c 653d 27ec fb3d 2255 d4bd
000001c0: b715 54bc 1ce9 af3e 4bb3 5d3f d42a 79bc
000001d0: d3e9 053b 5fac 05bd fd29 a6bd a27a e33d
000001e0: 2f63 263e c6a5 0f3d 8f77 b23d 9c16 623d
000001f0: 76ab 44be 96f0 13bd f38d 643e 47a6 443e
00000200: 59c4 3ebe 05c2 1f3e a3c8 a23c c625 51bd
00000210: 5354 343e fa0f 7d3d 7f4c 923d f211 a43d
00000220: ad0d 83bd 7485 75bc 1e1f ddbc d855 cbbd
00000230: 9865 ad39 9ebb e03d 1776 e93d 6087 2fbd
00000240: 2d0c 043d c3c8 913b be3d a13d 05ab 6d3d
00000250: 9b08 283e 6a72 7bbe 7557 6b3e 36f7 dabd
00000260: 481e 873f 79ac 0abe e05b 51be ff98 fabd
00000270: 83b0 84bd 7177 5abc 3194 bebe 327a 663e
00000280: a1fd 26be f18a 823e f3b2 d73d fca1 f33c
00000290: 999a ff3d 05de f9bd 83b5 833d 80d8 a73e
000002a0: dd12 64bd cbbf aa3d 3550 1e3e 3595 a13c
000002b0: ba1f 37bc dda8 f73d 9ed7 093e 9fee 143e
000002c0: 924c 6cbc 3ebb f73c fc60 053e edb0 a83e
000002d0: 3de5 2bbe b41d 98be f5f3 8d3e 2dd4 e3bd
000002e0: 9295 2e3e b6b3 b8bd b5e6 443e 835c af3d
000002f0: bc69 213e b3ac 7abe 617e 8f3f 0dfb ad3e
00000300: b648 363e 6ee3 503f 02ef acbd 7eae 303e
00000310: 218a 71be 64e6 663e 6b17 e1be 2cab a43d
00000320: 8681 c2bd 337c 853e 1365 8c3e 6c0a 4dbe
00000330: 6b16 5cbe 121b ba3e a9d2 e8bd d213 0abe
00000340: 103d 10be ab84 3d3d 18ca 6ebe dab9 2bbd
00000350: 5612 c7be 17f1 413d 15d1 933d 6e9f 48bd
00000360: 99a3 6ebe a418 1a3e 919d d73c a12a 20be
00000370: bc82 4b3e 928e 31be 387d b0bd 6d65 a93e
00000380: b342 453d 9cfc 8c3d ce60 23be 2611 8f3e
00000390: 3e74 693f fb63 9dbc 6bfc a53c 4134 c83d
000003a0: c89c 383e 1fc5 30be 2edc e6bd c34b acbe
000003b0: 0335 8abd b3ab aabc fe89 b3bc a61c 423e
000003c0: 96ad c1bd 7db9 83be c1e6 643e e3ef 19bd
000003d0: 1f51 2ebe f50b 903c 9993 fe3d a031 81be
000003e0: f327 f13d b50f 78be cdff a33d f8c6 10bd
000003f0: a162 a7bc 2195 0cbe f76d d33d 27fe 4e3d
1.1004058 0.055642556 0.06683922 0.08614881 -0.011733155 -0.094924666 -0.009643072 0.04507972
-0.05381726 -0.051220942 0.064877905 0.055376418 -0.042992953 0.08652252 0.2047675 -0.083961144
0.014705849 -0.03938045 -0.1412143 -0.025684286 0.050908472 -0.006016444 0.1121107 -0.07449601
-0.0056263832 0.006357562 0.14179386 0.034045402 0.055481765 -0.10593092 -0.1298337 0.07448742
-0.06030583 -0.033654492 0.14093168 -0.021313863 0.13396913 0.10195816 0.9540665 0.10100234
0.22016189 -0.09025365 0.055458166 0.15779874 -0.095293395 0.09139801 0.02911679 0.18834122
-0.035399932 -0.05492805 -0.13544716 -0.17844623 -0.06021917 0.06600729 0.07978506 -0.058571342
-0.051257484 0.19688228 0.06054914 -0.029718693 -0.019916464 0.09187333 -0.14156534 -0.13874519
0.021531533 0.018379932 -0.0502951 0.059693117 -0.1404616 -0.03673154 0.009159708 -0.056450367
0.04930187 -0.120384954 -0.10108561 -0.080964245 0.85006267 0.34306937 0.015612158 -0.03735297
-0.0895387 -0.109134205 0.026006002 0.15095083 -0.028632976 0.114031754 0.0001889493 -0.10301401
0.0016492369 0.21939792 0.17006563 -0.29322898 0.21565679 0.07044472 -0.09906935 0.13813263
0.071338065 0.09668049 0.10061191 -0.003157474 0.014607447 0.063261464 -0.07396893 0.05199685
0.11483828 0.20936045 -0.05912031 0.037552647 0.0594929 0.05601199 0.12300902 -0.103678
-0.01294463 0.34357536 0.86601704 -0.015207965 0.002043356 -0.03263509 -0.081134774 0.11107375
0.16248773 0.035070203 0.0871421 0.055197343 -0.19206032 -0.036118113 0.22319774 0.19204055
-0.18629588 0.15601356 0.019871062 -0.051061414 0.17610292 0.061782815 0.07143497 0.08011235
-0.06399093 -0.014985431 -0.026992377 -0.09928483 0.00033072825 0.10973285 0.11399477 -0.042853713
0.032238174 0.0044489815 0.078731045 0.058024425 0.16409533 -0.24555364 0.22982581 -0.10691683
1.0556116 -0.13542356 -0.20445204 -0.12236213 -0.064789794 -0.013334141 -0.37222436 0.22507551
-0.16307689 0.2549663 0.10532179 0.029740326 0.12480659 -0.1220055 0.06431105 0.32782364
-0.055682052 0.08337363 0.15460284 0.019724468 -0.011176998 0.12092755 0.13461158 0.14544152
-0.014422553 0.030240651 0.13025278 0.32947484 -0.16786666 -0.29710162 0.27725187 -0.11124454
0.17049244 -0.09018652 0.19228633 0.08562567 0.1576299 -0.24479942 1.1210443 0.339806
0.17801175 0.8159703 -0.084440246 0.17254063 -0.23587848 0.22548825 -0.4396318 0.08040461
-0.09497361 0.2607132 0.27420864 -0.20023507 -0.21492927 0.36348778 -0.11368305 -0.13484123
-0.14085793 0.0462691 -0.2331928 -0.04192529 -0.38881177 0.04734906 0.072176136 -0.04898017
-0.23304595 0.15048462 0.02632025 -0.15641262 0.1987409 -0.17339543 -0.086176336 0.33085194
0.048159312 0.06884119 -0.15954897 0.2794277 0.91192997 -0.019212713 0.020261964 0.09775592
0.18028557 -0.17262696 -0.11272465 -0.33651552 -0.067483924 -0.020833826 -0.021916386 0.18956241
-0.09456937 -0.25727454 0.2235365 -0.03758229 -0.17023133 0.017583827 0.12430496 -0.25233173
0.11775198 -0.24224742 0.080077745 -0.035346 -0.020432772 -0.13728763 0.103237085 0.050535347

demo_encoder.0.weight f4 [32, 8]
00000000: b58e a3be 00b0 aa3d 372a 1ebe 1e5a 83bd
00000010: 47ab ebbe cbfe b5be c2f4 cbbd 33ce 07be
00000020: dbd6 98bd a3e4 d53d 649b 8abe 8c3b 04be
00000030: 1320 b23d b096 ddbd 9d10 913e 736e 01bf
00000040: 1423 81be 0d76 56be 42c0 c03e cfa5 9e3e
00000050: 91f5 353e 86ad 033f 3956 08bc efdd a13e
00000060: e95a cabd 539f 913d 006b 8dbe c432 babe
00000070: ae44 e13e 4d09 1bbe ffcc afbe 915e 2ebe
00000080: 4c49 e0bd a9ae b93e e9a3 853e a5b8 ef3d
00000090: 6a2a 513d 7b03 933e e88c 31be 1cdb 8fbe
000000a0: 2c1d d63c 9fb0 2b3e 7537 323e d9de 1bbd
000000b0: 232f 9cbe 8d63 b2be 3268 ff3e 9379 a5be
000000c0: f060 4dbd d1c1 233d ca38 b33e 87e9 9ebc
000000d0: 01f3 c0bd 8fa4 c8be c2ea 8d3e a5e9 cebe
000000e0: aed4 513e cd6f aabe 92a5 e8bc e677 44be
000000f0: 8d3a 103e 978a a6be 2427 893d b2f5 b0be
00000100: f021 83be e933 27be 51e0 d9bd 18ef a53e
00000110: 5fa9 883e 688a 27be be04 e43d 3aaa 653b
00000120: fe04 a3be 0a52 0fbe 9fc7 8e3e f84f 9bbd
00000130: 1a01 13be a427 c13e d2e5 093b f146 f23e
00000140: 543f 3abe bec9 cebd b934 f4be d8ba 0a3e
00000150: 469e b8be baf4 6cbe bb74 ab3d 58f7 57be
00000160: 6334 a3be 54ca 7fbe 619a ffbd 2c45 203e
00000170: 525b d2bc a268 acbe 330c ff3d d88a 3fbd
00000180: e254 003f c173 20bd b0a2 4cbe 52ea 733e
00000190: 4c50 b4bd 8299 7ebe aea2 b5bd 1846 1a3d
000001a0: 9ca5 1dbe 94a5 48be 2193 e53d 4008 db3e
000001b0: d544 a7be 3560 f23b 9c9d ee3d f5e4 02be
000001c0: ed42 97be dd00 c73e 3fd5 5b3e c318 863e
000001d0: b83d cb3d b9f2 d33e 1e60 083d 9a3d 433e
000001e0: 7f2a 9bbe f9f6 d2bd 0593 67be b9a6 b7be
000001f0: 1cae 71be 6ff2 2fbe e561 e13d 24d3 a33e
00000200: b91e d53e 15f4 01be 1bcd 433e e07b c03d
00000210: f2a4 92bd 7c69 fabe 51c6 013f 15f3 ed3e
00000220: b260 2dbe ef85 1fbb 6afe 933e 1fbb e83d
00000230: 7b9a 90be 68eb a83e a0b3 5b3e 47b6 66bd
00000240: 3612 2b3e 2347 803d bd85 f33d 7160 c9be
00000250: b0f7 02be 4383 173e a5bf 4c3e 5062 76be
00000260: 3310 85bc 00e3 d1be 86bc c1be 53cb c5bd
00000270: 009d a33a b935 923e 218a 063e 734f 2e3e
00000280: 65e0 9cbe b556 943e 5991 e3bd ed98 81bd
00000290: 3257 f8bd ff26 823e 1dfe 6b3e b250 7b3e
000002a0: 59aa cabe 0b88 b53e 4d3d e43e 9809 e63b
000002b0: 3044 c13e fec6 073c 6b3e 5abe a48d 423e
000002c0: c214 c0be e59b cf3e 7da2 1a3e a331 673e
000002d0: adda 113e 3b18 cf3e d5c8 023e a93a 96bc
000002e0: 957f d2bb 6162 45be 7902 8e3e cfb2 603d
000002f0: 0c87 69be 4d94 96be fbd9 b73e 0dd7 be3e
00000300: 1e1d 08bb 27db d13d 7b25 59be 7d51 9ebe
00000310: 57ec a03e 15e7 cfbe f5af 643d c134 b23e
00000320: 378e be3e 9d6d 863e f14c f4bd 9e44 9bbd
00000330: aa31 c2be cb57 56bc 8046 efbe 606a c23d
00000340: ba2a cc3e 4f3e 5e3d f35f 913e 79f0 b0be
00000350: b0cc d1be 5955 febc 28ef 093e 659b 7c3e
00000360: 97d2 3dbd 42b3 8cbe 064e cabd 4663 6f3e
00000370: 98da f3bd 999f c13e a6a5 55be 0989 d8be
00000380: 0cb7 13be d880 d8bd 3dcb a33c 17bf c53e
00000390: 5f88 923d ddff d7bc 9c3f a8be 0e78 9bbd
000003a0: c051 903d 1a03 79be e4ae b3be 0099 4f3d
000003b0: 9291 51be cec2 96be cd21 32be 7000 7fbd
000003c0: 034f 8b3e 9ed6 4d3e 7b17 213d 70f3 a6bd
000003d0: 4624 80be e645 9c3e 9aa7 0abf 7d6c 293f
000003e0: 1a77 75bc a8d1 9b3c 1df6 043e 4af8 d93d
000003f0: ada7 33be 703d 8f3e 3278 273e f665 da3e
-0.31944814 0.083343506 -0.15445791 -0.06413673 -0.46029112 -0.35545954 -0.09958793 -0.13262253
-0.074628554 0.104439996 -0.2707168 -0.1291334 0.08697524 -0.10819757 0.28332987 -0.5055916
-0.25222075 -0.2094347 0.3764668 0.30985877 0.17769457 0.5143665 -0.008321338 0.31614634
-0.09880621 0.07110467 -0.27620697 -0.36366856 0.4399771 -0.15140267 -0.34336087 -0.17028262
-0.1095148 0.36266068 0.26101616 0.1170514 0.05106584 0.28713593 -0.17338908 -0.28096855
0.026136957 0.16766594 0.17403968 -0.03805432 -0.30504712 -0.34841576 0.49884182 -0.32319316
-0.050141275 0.03997976 0.35004264 -0.019398464 -0.09421349 -0.39188048 0.27718168 -0.40412632
0.20491287 -0.33288422 -0.028399263 -0.19186363 0.14084835 -0.3252761 0.066969186 -0.3456245
-0.2561183 -0.16328396 -0.10638488 0.32408977 0.2669172 -0.16361392 0.11133717 0.003504409
-0.31839746 -0.13996139 0.27886674 -0.07583612 -0.14355889 0.37725556 0.0021041525 0.4731975
-0.1818822 -0.10097073 -0.47696474 0.13547838 -0.36058253 -0.23140231 0.08371874 -0.21090448
-0.31875905 -0.24979526 -0.12480617 0.15651387 -0.02567831 -0.33673579 0.12453499 -0.04676327
0.5012952 -0.03917289 -0.19983935 0.23819855 -0.08804378 -0.24863246 -0.08868919 0.037664503
-0.15395206 -0.19594413 0.11209703 0.42779732 -0.32669702 0.0073967227 0.11651155 -0.12782653
-0.29543248 0.38867846 0.21468066 0.26190767 0.09923881 0.4139612 0.03329479 0.19066468
-0.3030586 -0.103010125 -0.22614677 -0.35869387 -0.23601574 -0.17182325 0.11005 0.31997025
0.41625002 -0.12690766 0.1912121 0.09398627 -0.07160367 -0.48908603 0.5069323 0.4647452
-0.16931418 -0.0024341305 0.2890504 0.113638155 -0.2824286 0.329921 0.2145524 -0.056326177
0.16706166 0.06263568 0.11890743 -0.3933139 -0.12789798 0.14796166 0.19994982 -0.2406094
-0.016243076 -0.409935 -0.37839144 -0.09657922 0.0012482703 0.28556612 0.1313863 0.17022495
-0.3063995 0.28972402 -0.11111707 -0.063279964 -0.12126006 0.25420377 0.23046155 0.24542502
-0.3958309 0.35455355 0.4457802 0.0070201866 0.37747335 0.0082871895 -0.21312873 0.18999344
-0.37515837 0.40548626 0.15101047 0.22577529 0.14243574 0.40448174 0.12771924 -0.018338518
-0.0064239004 -0.1927581 0.2773626 0.054858025 -0.22805423 -0.2941002 0.35908493 0.37273446
-0.0020769308 0.10246878 -0.21205704 -0.30921546 0.31430313 -0.4060599 0.05583187 0.34805873
0.37217876 0.26255503 -0.11928738 -0.07581447 -0.37928516 -0.013082455 -0.46733475 0.09492946
0.39876348 0.05425864 0.28393516 -0.34558466 -0.40976477 -0.031046556 0.13470137 0.24668653
-0.046343412 -0.27480513 -0.09878163 0.23377714 -0.11906928 0.37817076 -0.20863971 -0.4229205
-0.14425296 -0.1057145 0.019994373 0.38622352 0.07154917 -0.026367122 -0.3286103 -0.07591258
0.070468426 -0.2431759 -0.35094368 0.05068302 -0.20465687 -0.294455 -0.17395706 -0.062256277
0.2720872 0.20101401 0.039329033 -0.08151901 -0.25027674 0.30522078 -0.5416199 0.66181165
-0.014982009 0.01902087 0.1298451 0.106430605 -0.17544432 0.2797656 0.16354445 0.42655915

demo_encoder.0.bias f4 [32]
00000000: 552f 163d 186e 0f3e d472 04be 8686 66be
00000010: ab1f 983e 48d6 bf3d 0219 4b3d 27cd c3be
00000020: 1886 d3bb 4678 e1bd af89 6dbe 6166 adbd
00000030: 346a 833e ff85 923e 5cf2 7bbe eaa5 83be
00000040: 174d f63b 08ad 833e e83a cdbd 2787 40bd
00000050: 8728 c13e 674f 60be 1d42 933e cade bd3e
00000060: 1f52 823e e193 5cbe d4d9 6fbe bf7f 023e
00000070: c688 a33d 545a b93d af0e 943e 57cf 4d3d
0.036666233 0.14006841 -0.12934428 -0.22512254 0.2971166 0.09367043 0.049584396 -0.38242456
-0.006455194 -0.110092685 -0.23197053 -0.08466793 0.25666964 0.28617856 -0.24604172 -0.2571252
0.007516514 0.2571795 -0.10021001 -0.04700389 0.37726232 -0.2190529 0.28761378 0.37084037
0.25453278 -0.21540786 -0.23422939 0.12744044 0.07985072 0.09050432 0.28917453 0.050246563

demo_encoder.2.weight f4 [32, 32]
00000000: 323a c93c 96b8 8dbe c526 dabd a580 1dbe
00000010: 28a0 0b3e 6df6 c13c be16 23be b7be 2fbe
00000020: 2ef4 18be 4433 c6bd b1fd af3d 2ff2 503d
00000030: 5c48 b13d bb91 0bbc a4d2 4cbc 66e2 9b3d
00000040: e6b1 7fbd 5f7c d93d 1d4b e6bd 74f9 9dbd
00000050: 87be 26be a871 f4bd 39a1 8a3d 1e8f ecbd
00000060: 5c46 58bd 7f77 4e3e 67b8 183e 080d c13d
00000070: 41ae 2ebd 0bba 90bd 7b87 6f3e d670 40bd
00000080: 89e5 973e 3e52 36bd db1d 723e 3106 e43d
00000090: 6b15 d1bd 0b1a 43be 8dba 37be 020c 79bd
000000a0: 07bd ab3e e756 593e 371d 823e f9d1 473e
000000b0: 283e eb3d 3fa9 623d f39e 6a3e 4ef6 83bc
000000c0: 7438 f8bd c53b f43d 05f3 5c3e ca1c c13d
000000d0: ca5f 7ebd 9671 b03e 91e9 633e 4959 2b3e
000000e0: 6bd1 8fbd 5f24 c93a 9980 593e dc33 84be
000000f0: 683f 7e3e ff0d 343e e1f0 24be e270 323e
00000100: d00e 113e dab1 54ba d976 e43d 0fb9 133e
00000110: f2fc 233e 07ff f83d 5108 f4bd d066 dcbd
00000120: fc19 ab3d bddd 5c3e 0296 1ebe 90ba 12bd
00000130: 0505 af3d 94d8 493e 63cd 583e 95b7 4c3e
00000140: 4581 23be 2bcb 2f3e 8d28 13be 9c89 d83d
00000150: d5d6 623d 5a1d 723e fa00 573e 7b3e 3e3e
00000160: 486a 7e3e e659 d33c 609a 58be 0dfa c33e
00000170: f55e 3b3e 7eb8 a93d b46d a93e b388 5d3e
00000180: f60e d7bc e1d0 213e c793 813d 8e0f 40be
00000190: 44b1 49bd 4096 593e ae8e 7b3e 917c bf3d
000001a0: 2b3d 553d 3537 07be 5fbf bfbd 4922 a1bd
000001b0: f2f4 2d3e 3368 e13d 4a79 c8be 1990 303d
000001c0: 1b3f b63e 72de 47bd 218d 793e 929e e3bd
000001d0: d30f b53b 0442 eb3d 91e5 d93d 2a85 213e
000001e0: 3273 0bbe 06b2 0e3e 9a53 8c3e a001 a3be
000001f0: 59c1 f83d 16f6 ca3d 3f55 92be b529 b1bb
00000200: 8582 ca3d 705d 2abe 91e1 203e af22 f3bd
00000210: d701 34bc 92c4 21be 8628 11be f9a3 07be
00000220: 23c1 bcbd 0659 14be 39da f03b 6f3f 453d
00000230: 156e 823d 5d37 5bbd 2ae5 b1bd 3c4d 0f3e
00000240: 8edb 1fbe 023d 3cbd 4336 b2bd fc07 fcbd
00000250: aff1 31be 27f3 023d 0ee0 2dbd 37fb f03d
00000260: d4ba 87bd 1bfc c23d b18c 08bd a9d3 29bd
00000270: 150b 163e a3e6 1fbe b05e a33d e51a 463e
00000280: bdf5 a8be c0fc 82be e036 123d 9248 e6be
00000290: e740 99be b301 1cbe f7e5 b6bd 054b 8f3d
000002a0: de01 ab3d 4671 98bd 3542 07be 1ec9 75be
000002b0: f683 4cbc 44d8 d0bb f58c 8cbe e9fd 63be
000002c0: 2ed1 9c3e 1926 45bc 3926 043d 2272 99be
000002d0: 48b3 6bbe b793 2bbe b5e6 5cbe cba7 3a3e
000002e0: eb52 72be ff9f 863e 7294 573c 39bf cbbe
000002f0: 7426 313d e55a 9cbd b428 a53d 9f07 4b3e
00000300: 848b a73e dc30 37ba feb5 723d 7223 1d3e
00000310: 93a4 603d 34c4 48bd 51b1 88bc 1fcd c2bd
00000320: 97b7 813e 1ec2 abbc 82d5 e53d f2d7 7e3c
00000330: 60c8 76bd 02a8 d83d 311f 803e 6fb4 893e
00000340: b5b6 4fbe 0254 a13d ee2f d13d e145 413e
00000350: 7e9e 9f3d 0a2b a03d c593 a43d 9029 e4bc
00000360: 366b 853c cd01 8bbe 0e11 50bd 12c3 94bd
00000370: 7fde b4bd 004e ecbd fcfc 1ebe b6e2 15be
00000380: 48af e9bd c05f 963d f3a3 943d 358d 8cbd
00000390: 6c58 92be 288e 043d 6499 9c3d 5d61 8cbd
000003a0: 6b8f e53c 3409 8c3d bab7 393d 5124 983d
000003b0: 6da8 72bd be27 7ebe 700e afbe ccd9 743c
000003c0: c820 503d c392 e8bd 2c9d 3e3d d85f c0bd
000003d0: f182 9c3d e2fe 21bd 0d44 8f3d 285a 393e
000003e0: 9a73 633e 483a 89bd 28c4 6c3d a827 4abe
000003f0: c601 2abe 5817 373d 698b 0cbd 5904 b9bd
0.024563882 -0.2767989 -0.10651926 -0.15381105 0.13635314 0.023677075 -0.15926644 -0.17162596
-0.14936897 -0.09677747 0.0859331 0.051012214 0.086563796 -0.008518632 -0.0125013925 0.076115415
-0.062425517 0.10619425 -0.112447955 -0.07713595 -0.16283618 -0.11935741 0.06769032 -0.11550735
-0.052801475 0.20162772 0.14914094 0.09426314 -0.04264665 -0.07066735 0.23391525 -0.04698261
0.2966731 -0.044512026 0.23644201 0.111339934 -0.10209163 -0.19052903 -0.17942257 -0.060802467
0.33542654 0.21224557 0.25412914 0.19513692 0.11486465 0.055337187 0.22912197 -0.016108658
-0.121201426 0.11925463 0.2157708 0.09429319 -0.06210307 0.3446166 0.22257067 0.16733278
-0.07022365 0.0015345922 0.21240462 -0.25820816 0.24828875 0.17583464 -0.16107513 0.17425874
0.14165807 -0.000811366 0.11155481 0.14426063 0.1601446 0.121580176 -0.11915649 -0.107617974
0.083545655 0.21568961 -0.15486911 -0.03582245 0.08545879 0.19711524 0.21172099 0.19991906
-0.15967281 0.17167346 -0.14370938 0.10573122 0.05538066 0.23644009 0.20996466 0.18578522
0.2484523 0.025799703 -0.2115264 0.3827671 0.18297942 0.08287142 0.3309151 0.21634178
-0.026252251 0.15802337 0.063270144 -0.18755934 -0.04924132 0.21248722 0.24566147 0.09349931
0.052060287 -0.13204654 -0.09362673 -0.078678675 0.1698797 0.110062025 -0.39155036 0.043106172
0.3559502 -0.048796125 0.24370243 -0.11114229 0.005525568 0.11487201 0.106394894 0.15773454
-0.13618162 0.13935098 0.27407533 -0.31837177 0.12146253 0.099102184 -0.28580663 -0.005406583
0.09888176 -0.16637206 0.15711047 -0.1187185 -0.010986767 -0.15797642 -0.14175615 -0.13246144
-0.092165254 -0.14487085 0.007350233 0.048156198 0.06368653 -0.053519595 -0.08686288 0.13994306
-0.15611097 -0.04595662 -0.08701756 -0.123062104 -0.17377351 0.03197017 -0.042450003 0.117666654
-0.066274315 0.095207416 -0.0333373 -0.04146162 0.14652665 -0.15615325 0.079770446 0.19346197
-0.32999983 -0.25583458 0.035696864 -0.44977242 -0.2993233 -0.15235023 -0.08930581 0.06996731
0.083499655 -0.0744348 -0.1320885 -0.24002501 -0.012482634 -0.006373437 -0.27451292 -0.22264828
0.3062834 -0.012033009 0.032263014 -0.2996989 -0.23017609 -0.16755567 -0.21572383 0.1822807
-0.23664443 0.26293942 0.013157951 -0.3979433 0.043249562 -0.07634524 0.08064404 0.19827126
0.3272363 -0.00069881766 0.059255593 0.15345553 0.05484445 -0.04901524 -0.016686114 -0.0951178
0.2533538 -0.020966586 0.11222364 0.015554415 -0.060249686 0.1057892 0.25023797 0.26895472
-0.20284541 0.07877351 0.1021422 0.18874313 0.07793902 0.07820709 0.08035997 -0.02785185
0.016286474 -0.2714981 -0.050797515 -0.07263769 -0.088315 -0.11538315 -0.15526193 -0.14637265
-0.11410385 0.073424816 0.07257833 -0.068628706 -0.28583086 0.032362133 0.076464444 -0.06854508
0.028022489 0.06837693 0.04534123 0.07428802 -0.059242655 -0.24819848 -0.34190702 0.014944505
0.050812513 -0.113561176 0.04653661 -0.09393281 0.076421626 -0.039549716 0.069954015 0.18100798
0.22212067 -0.067005694 0.057804257 -0.1974169 -0.16602239 0.044699997 -0.03431264 -0.090340324

demo_encoder.2.bias f4 [32]
00000000: d36e 20bd 99f2 203e 0395 253d a660 8d3e
00000010: e10d 9fbc d07a d6bd 93ef 923c 68c4 be3c
00000020: 0d8d 123c 8440 4d3e 4128 6c3e 7cb0 97bd
00000030: e347 f73d 9628 bbbc 8694 5cbd 2c51 8d3e
00000040: 8915 d1bd c897 d83d c268 29be 5fe1 13be
00000050: e026 58bd e1fd 203d c097 dcbd 8045 0f3e
00000060: 3c04 0f3e 9e87 483d b97c 2bbd 5911 c9bd
00000070: ced7 3f3d b282 793d 2b88 34be 16b7 323e
-0.03916819 0.15717544 0.04042531 0.276128 -0.019415798 -0.104726434 0.017936504 0.023287013
0.008944762 0.20044142 0.2306223 -0.074067086 0.12074258 -0.022846501 -0.05385258 0.27600992
-0.10209186 0.10575825 -0.16543868 -0.14441441 -0.05277145 0.039304618 -0.107711315 0.13991356
0.13966459 0.04895746 -0.04186699 -0.09817762 0.046836667 0.060915656 -0.17630069 0.17452654

gru.weight_ih_l0 f4 [96, 111]
00000000: 3c38 393e f683 e43d d6f3 babc 5eea d53d
00000010: 62f5 eabe aafb 6bbe 3270 81be 5581 1abe
00000020: bb9d 13bc fe02 11be 3658 be3d 4e01 ed3d
00000030: fe13 f23d 8445 e0bc efe0 89bd 2f4b 2a3e
00000040: 22b7 903e ad83 66bc 91c7 78bd aee7 cdbd
00000050: 4e47 07be ca1e 62bd ac89 c8be 1195 b1be
00000060: d6de dc3d 35a1 673e 0d59 96bd 6dc1 a7be
00000070: f569 4abe 4ab4 783e 5e3b 9ebd 6ab8 aebe
00000080: d83e c93d ba76 9b3d 3b49 bbbe 6246 3dbe
00000090: 0098 943d e592 cf3d 3915 71bd 54aa 433d
000000a0: 2b65 b1bd 7227 99bc 4033 c93c fae0 d1bc
000000b0: 8b46 303e 46ed 1c3d 333b 39bc 4726 803d
000000c0: 11f7 b9bd d31b da3c ffcc 883c 34b3 2d3e
000000d0: c031 7b3d 8b67 35be dc7c 48be 4c98 74bd
000000e0: 8681 7cbd cb87 92bc 37c2 4e3c 3773 d2bd
000000f0: 9c0f 163e 2b2e 10be 0328 b93d 83e4 cfbd
00000100: 0103 7bbd 482e f23c 531d 033e d361 01be
00000110: 6c5e 823d 6f79 cdbe 8969 ca3d c307 eb3d
00000120: c4d4 f0bd bdbf 793d f0a7 83be cbdb 253c
00000130: 5157 223e 2636 81be a4ff 2d3e 946c a83d
00000140: 74e7 713e 7dc6 ea3d 3c48 293e 36d4 6cbd
00000150: 4d94 dcbd dac4 82be 9217 5c3e 7bd6 c3bc
00000160: dd10 65bd aa0a 32be 5568 8d3d c2bc 8c3d
00000170: cdf7 24bd b80b 0b3e f112 143d ac9b 37be
00000180: 4126 2e3b 9076 203c b5f1 af3c efe5 41be
00000190: 03cd af3c 8f92 ab3e 30ac a83c c5dd 06bd
000001a0: cc41 17be 42d9 ae3d 7d5c 343c 1fe8 adbd
000001b0: 59e1 00bd 76e6 753e c601 8abd 1a5a 84bc
000001c0: 58bf 9f3b c7ae 303d 1741 5a3e 4a9a 87be
000001d0: f79d 6aba 0861 843d 368d b3bd d743 c5bb
000001e0: 64e5 f9bd 9219 7dbc 7611 87be 7d2f cdbc
000001f0: 47a1 73bd e690 8c3e 126e 82bd 7c36 05bd
00000200: d9d7 66bd 1281 7e3e f92c 4bbd 6cf1 813c
00000210: 7dc3 31bc 7dbf 9ebd 293e 85bd 67ef 9a3d
00000220: 9cc8 31be f317 9a3e 270b 1ebd 3f16 7bbd
00000230: c8e4 21be 83ca 253e aa6d 503b a4c1 ed3d
00000240: 4078 2cbd 799c 813d adeb 0f3e 842f 403d
00000250: df00 68bc 665c 38be 4e53 26be b869 41be
00000260: be78 05be d147 173e e2ed 7bbd ecdd b03d
00000270: 0a6d 7f3e 4376 45bc 4b23 63be 0e95 98bd
00000280: b3e7 5a3e 487c a9bc 87d7 bdbc 2c55 e6bc
00000290: 42e3 3a3e 42e8 743c 8c1f 4a3e 8a83 943e
000002a0: 0f94 493b d980 74bb c733 743d d4a7 3e3b
000002b0: 0431 743e 690c 3e3d 1a3f 373e 9865 393e
000002c0: d85d de3d 3430 a13d f792 e63d b3cd b7bd
000002d0: d411 c3bd d7ec 38be 9023 0d3e 40a2 0bbc
000002e0: 67bb 333e 1790 a7be a4c5 6d3e 942f 69be
000002f0: 8010 b3bc 54cf 82bd be52 a53d 85af 73bd
00000300: 6048 aa3d 15ee cdbc 0e80 b4bd 276f 1d3d
00000310: d1ab 123e 1870 7fbc 49fb 8a3c c492 c23d
00000320: 2c9a 30be 6ef5 263d 1a0f de3d 482d 513d
00000330: ece7 c13b c4c9 b03d 1d4e 19bd 28f3 373e
00000340: 3c44 953d fb0c 9ebe 7abe 923d 4634 493d
00000350: 50fd 813e 609c de3b 6e1f f8bb fd8a 80be
00000360: fc4b 983d a530 b9be 3b7a 6b3e 9da2 8d3d
00000370: 7783 19be c0c7 df3d 6904 90bd 9a3a 873d
00000380: b31a 3d3e 76ad 623d 13d6 9f3e d1ff 473e
00000390: 5283 adbe 4b70 8dbd 3466 b93d b5e0 8f3a
000003a0: f82b 293d 577d 38be 0448 08be 28b9 e2bd
000003b0: 0997 6e3d f65e 14be 2c50 ca3d 4d16 1f3d
000003c0: 18a6 953d 6aee b73e 295c 90bd 7882 7c3d
000003d0: 3e66 05bd 0f45 543e c50e 943d 105a 893e
000003e0: a7ed 5e3e 4b86 c1bd 0532 b03d e8ab a33e
000003f0: aa28 143e 5558 3cbd c171 073e ef75 85bd
0.18087858 0.11157982 -0.022821348 0.104450926 -0.45890337 -0.23045221 -0.2528091 -0.15088399
-0.009009774 -0.14161298 0.09294169 0.115725145 0.118202195 -0.027376898 -0.06732356 0.16630243
0.2826472 -0.01406948 -0.060737196 -0.10053955 -0.13210794 -0.055205144 -0.39167535 -0.3468404
0.1078469 0.2262009 -0.07341204 -0.3276476 -0.19766982 0.24287525 -0.07726167 -0.34125072
0.098264396 0.07591005 -0.36579308 -0.1848388 0.07255554 0.1013544 -0.05885813 0.04776986
-0.086618744 -0.018695567 0.02456057 -0.025619972 0.1721441 0.03831222 -0.011305618 0.06257301
-0.09080327 0.026624596 0.016699312 0.16962892 0.061326742 -0.1771528 -0.1957888 -0.059715554
-0.06164696 -0.017887017 0.012619547 -0.10275882 0.14654392 -0.14080112 0.09040835 -0.10151007
-0.06128216 0.029563084 0.12804155 -0.12634973 0.06365666 -0.4013171 0.098834105 0.1147609
-0.11759332 0.06097387 -0.25714064 0.0101232035 0.15853621 -0.25236624 0.1699205 0.08223835
0.23623449 0.1146364 0.16531461 -0.057819568 -0.10770474 -0.2554081 0.21493366 -0.023905983
-0.055924285 -0.1738688 0.069046654 0.0687194 -0.040275384 0.13578689 0.036150876 -0.17930478
0.0026573094 0.0097938925 0.02147756 -0.18935369 0.021460062 0.33510253 0.020589918 -0.03292634
-0.14771193 0.085375324 0.011008379 -0.08491539 -0.03146491 0.24013695 -0.067386195 -0.016156245
0.004875105 0.04313543 0.21313892 -0.264849 -0.000894993 0.0646382 -0.08767168 -0.00602005
-0.12201956 -0.015447991 -0.2638051 -0.025047058 -0.059479978 0.274543 -0.063686505 -0.032522663
-0.056358192 0.24853924 -0.049603436 0.01586219 -0.010849831 -0.07751367 -0.06505997 0.075651936
-0.17361683 0.30096397 -0.038584854 -0.061300512 -0.1580993 0.16190533 0.0031803646 0.116092
-0.042106867 0.06328673 0.14054747 0.046920314 -0.014160364 -0.18003997 -0.16242716 -0.18887985
-0.1303434 0.1477349 -0.06150616 0.08636078 0.24943939 -0.012052122 -0.22181432 -0.07450305
0.21377449 -0.020689145 -0.02317406 -0.028116785 0.18250754 0.014947953 0.19738597 0.29006606
0.0030758416 -0.0037308245 0.05961969 0.0029091733 0.23846823 0.046398554 0.17895165 0.18105161
0.10857743 0.07870522 0.112585 -0.08974781 -0.09524885 -0.18059097 0.13783097 -0.00852257
0.17551957 -0.3272712 0.23219925 -0.22772056 -0.021858454 -0.06387201 0.080724224 -0.05949356
0.08314586 -0.02513794 -0.08813487 0.03843608 0.14323355 -0.01559069 0.016965525 0.095006496
-0.17246312 0.040761404 0.10842724 0.051068574 0.00591754 0.08632234 -0.03742801 0.1796385
0.07288405 -0.30869278 0.07165237 0.049122117 0.25388575 0.0067935437 -0.007572106 -0.2510604
0.07436368 -0.36169925 0.22995846 0.06915782 -0.14991556 0.10926771 -0.07032091 0.06602974
0.18467216 0.055341206 0.31218013 0.1953118 -0.33889252 -0.06906184 0.09052697 0.0010977002
0.041301697 -0.18016563 -0.13308722 -0.11070472 0.058249507 -0.1448935 0.09878573 0.038839627
0.073070705 0.35924083 -0.07048828 0.061647862 -0.03256821 0.20729469 0.072293796 0.26826525
0.21770345 -0.094494425 0.086032905 0.31967092 0.14468637 -0.045982677 0.13226987 -0.06516635

gru.weight_hh_l0 f4 [96, 32]
00000000: 3ec1 3dbe 8646 1a3c c947 c9bd 56d9 003e
00000010: 8e30 97bc cefe 5cbe 9ad3 003e ad78 a73d
00000020: 2cda 53be b417 51be ac05 aebd 074c 3dbe
00000030: 44f0 123e 44dd b0bd aa43 1d3d a9a6 873e
00000040: 7b3c 793c 1a2e 113e bdbb e5bd 05cb e5bd
00000050: 47f1 29bc 5f8b 9dbd a6e5 17be 8542 f73d
00000060: a040 05bd 602d 9b3e cc8e 24be cea1 3b3e
00000070: deb8 42bd a548 fa3d 35b3 813e 491a d8bc
00000080: 5c2f e23c 3683 92bd 8f2d fe3d 9fed 26be
00000090: 7568 5e3e 22e6 143d 5679 fe3c 920b b13d
000000a0: 2400 1cbe 5db6 003e 3862 1cbd 240f 96bd
000000b0: fde6 843d c187 85be fa15 85be bd50 01bc
000000c0: 8073 d7b7 9ba1 663d fd76 dc3d 1f04 723e
000000d0: a770 063e ab00 e0bd e239 d53d 11a4 9bbc
000000e0: 3df4 d43d c191 c33d 550b 16bd 1a74 8e3e
000000f0: 80f8 313d 3afd 77bd c9c7 f83d 859d babd
00000100: 2242 84bd 6835 02be 82db 713c e9a0 89bd
00000110: 544b 72bc 6c6b 243d e800 423e 8114 11bd
00000120: ac3c 78be ed01 8c3d ebb5 5d3c 09cb 97be
00000130: 2a01 b3bd f953 35bd 562a ffbd 6baf 3d3e
00000140: 772a b43d ec54 cdbd 443b 1ebc 9e66 ecbb
00000150: 4d88 50be 5b52 873e 347f 043b 6958 4bbe
00000160: f84d adbd 98cc 43be dd0c 043e a409 e13d
00000170: bcb0 51bd a7a1 39be 9e7c 773c eaed 3cbc
00000180: e3b1 23bd 82e7 eabd 5c31 2c3d 2928 cabd
00000190: 0629 033e 4e5a 52be 3878 f53c a4b4 88bd
000001a0: 2439 42be 0c7c af3d 948e 63bd fbcd 85be
000001b0: eb8d afbc bf99 b93a f080 dfbc 3c28 0f3e
000001c0: a836 5bbe 887e ee3d 66a9 633e 8c8f 6f3e
000001d0: da53 4dbe 9f5e 073e 638c b9bc 483f 273d
000001e0: 76d2 d23d d75c 07be 698d 0b3d a79c 55be
000001f0: a29b 0c3e f495 793d 559e 453d 36d0 3bbd
00000200: e861 003e 4518 a5bd 571b 443e 92ea 9cbe
00000210: f249 95bc c676 07be fb08 713d b373 4abe
00000220: bcd5 18be 1c92 b43c 88c7 63bb 5993 5fbe
00000230: 33b5 76bd b100 ae3c bdb0 ff3c c242 20be
00000240: 4d98 0fbe 80dc 653e 0de1 f43d e46b f7bd
00000250: 8b4d 85be dbe0 923e 39f3 6f3d b57b 99be
00000260: 5143 f6bb fa59 823b 08b1 e0bd 46cf debd
00000270: 671a 7d3e 47af ce3d fbce 9ebc 9d5e 61be
00000280: a431 82bd 1580 8c3c c08d 833e f83d 0fbe
00000290: 7c56 a13d a36e 59bd ebf0 813e ca60 09be
000002a0: 93cc e9bb e897 86be 8dc5 333e 7c32 e2ba
000002b0: 854e 07bd d7ac b6bd fc8f 37bd 0cbd a43d
000002c0: 3572 9dbd c50f 233e 9989 6b3d 6806 b33d
000002d0: d633 c2be 6118 ad3d 6743 01be f80c 99bd
000002e0: d9ca afbd 797d a0bd d78e e83d 48e4 f63d
000002f0: ff82 37bd ef31 53bd 78da 02bd 2576 f6bd
00000300: 620c f9bd eed9 873d 237a 72bd 11c9 e23d
00000310: 54ee 393e 35c9 2d3e a9b8 1dbd af24 863d
00000320: 1bc1 54be 25ca f13d 7b90 c03d a34d 323e
00000330: 3735 e43c cb60 7f3e c24f 9dbd 72f1 a83b
00000340: 6338 0cbe 1275 5abe 288c 04be 71ea 8cbd
00000350: f472 4d3d 0db0 403d 5653 9abd 7bbd 243e
00000360: dded cc3d fa46 2c3e bbb2 2a3d bd94 3dbe
00000370: d542 5d3e 21c9 66be 8b46 abbd 08d7 14bd
00000380: 5318 3f3d 7db3 aabd 9855 373e 61b2 debd
00000390: 762f b7bc 6c52 a33c f3b2 ce3d ce16 3e3e
000003a0: adef 17be 52e8 193e db60 a43d fb7e 9dbc
000003b0: 86b7 34be 2726 79bd 6997 693d e10e 4ebe
000003c0: e6d1 68bd 9123 57be d008 8f3e 6dea 133e
000003d0: 3c0d 303e 66ef 0fbe 9d06 ecbd d777 163d
000003e0: d4f6 a43d 27df bc3b 09f8 4d3e 9b24 b1bb
000003f0: 6dc3 903e 318c d5bc f0b1 873d 5a34 183d
-0.18530747 0.009416228 -0.09828145 0.12582907 -0.01845577 -0.21581575 0.1258072 0.08177314
-0.20688695 -0.20419198 -0.084971756 -0.18486033 0.14349467 -0.08635953 0.038394608 0.2649434
0.015212174 0.14177743 -0.11217449 -0.112203635 -0.010372466 -0.076925986 -0.14833698 0.120732345
-0.032532334 0.30308056 -0.16070098 0.18323442 -0.047539584 0.12220887 0.25332037 -0.026379721
0.027610473 -0.07153933 0.12411033 -0.16301583 0.21719535 0.036352284 0.031063717 0.08644785
-0.15234429 0.12569566 -0.038179606 -0.073271066 0.0648937 -0.26080135 -0.2599333 -0.007892785
-2.5683781e-05 0.056306463 0.10764883 0.23634385 0.13128911 -0.109376274 0.10411431 -0.018999131
0.10398147 0.09549285 -0.0366319 0.27822953 0.04344988 -0.06054423 0.12147481 -0.09112076
-0.06457926 -0.12715685 0.014761807 -0.06720144 -0.014788467 0.040141508 0.18945658 -0.035419945
-0.24241894 0.06836305 0.013532142 -0.2964709 -0.087404564 -0.044269536 -0.12459247 0.18523948
0.08797162 -0.10025963 -0.009657685 -0.0072143814 -0.20364495 0.2643002 0.002021742 -0.19857945
-0.08462137 -0.19121015 0.12895532 0.10988167 -0.051193938 -0.18128072 0.015105395 -0.0115313325
-0.039964568 -0.11469938 0.04203926 -0.09870941 0.12808618 -0.20542261 0.029964551 -0.066750795
-0.1896711 0.08568582 -0.055555895 -0.26133713 -0.021429976 0.00141602 -0.027283162 0.13980192
-0.21407568 0.11645228 0.22232589 0.23394603 -0.20051518 0.13219689 -0.02264995 0.040831834
0.102940485 -0.1321901 0.034070406 -0.2086054 0.13731244 0.060934022 0.0482467 -0.045852862
0.12537348 -0.0806127 0.19151054 -0.30647713 -0.018223736 -0.13228902 0.058846455 -0.19770698
-0.14925283 0.022042327 -0.003475638 -0.21833552 -0.0602314 0.021240564 0.031212205 -0.15650466
-0.14022942 0.22447395 0.119569875 -0.120811254 -0.26035723 0.28687176 0.058581565 -0.29977193
-0.007515349 0.003978011 -0.10971266 -0.10879378 0.24717103 0.10092025 -0.019385805 -0.22008748
-0.063571244 0.017150918 0.25694084 -0.13988483 0.07877824 -0.053084027 0.25379118 -0.13415828
-0.007134983 -0.2628777 0.17555828 -0.0017257477 -0.033033866 -0.08919685 -0.04481505 0.0804387
-0.07687799 0.15923984 0.05750427 0.08741456 -0.37930173 0.084519155 -0.12623368 -0.07473177
-0.08583612 -0.07836432 0.113553695 0.1205526 -0.044802662 -0.051561292 -0.03194663 -0.12034253
-0.12160565 0.06633364 -0.05919851 0.110735066 0.18157321 0.16971286 -0.038506184 0.065499656
-0.20776789 0.11806134 0.094025575 0.17412429 0.027857406 0.24939267 -0.07681228 0.0051557356
-0.13693385 -0.21333721 -0.1294409 -0.06880654 0.050158456 0.047042895 -0.07535426 0.16087906
0.10006306 0.1682395 0.041674357 -0.1851377 0.21607526 -0.22537662 -0.083630644 -0.036337882
0.046654057 -0.08335016 0.17903745 -0.10873867 -0.022361498 0.019936763 0.100927256 0.18563387
-0.14837523 0.1503003 0.08026286 -0.019225588 -0.17648134 -0.0608274 0.05702916 -0.20122863
-0.0568408 -0.21009661 0.2793641 0.14444895 0.17192549 -0.14056167 -0.11524699 0.036735382
0.08054891 0.0057639065 0.20114149 -0.005405975 0.28274098 -0.026067825 0.06625736 0.0371593

gru.bias_ih_l0 f4 [96]
00000000: f22c 80bd 0367 36bd dbd7 053e 0878 803d
00000010: 188f acbd 004a 07be 4335 0f3d a566 9abd
00000020: ab84 3e3d e661 803e ee2c d53d a0bb ca3d
00000030: 4b19 5e3e abbc 1c3e f54b 043d 9451 d43d
00000040: ca95 66bd 0127 213e 491d f0bd 433d c63d
00000050: c603 afbc 9be0 8a3d 1e33 0cbc 1cf4 893d
00000060: f27f bbbd d042 2e3d 6075 c0bc 1db0 ce3d
00000070: e920 f03d fc89 cbbd e08a aabd ef62 f43c
00000080: 5c92 e73d 05a5 353d 8da2 653e d64d 86bd
00000090: 12cc 04be fd4f f9bd e1c8 0f3e 6915 2dbe
000000a0: 3be5 0f3d bb56 343d a39a 543e 564d 2abe
000000b0: e060 443d 9c02 14be 72cd febd 0a17 943d
000000c0: 0a99 32bb dd4c 343e 3ffb 30be d593 473e
000000d0: 6416 243e c439 a23d 98dd bdbd b58e 14be
000000e0: 0228 913c 83fa 643e e9f2 86bd 5bed e23d
000000f0: a2fe 12bc 5f5b dd3d 757c 033e ee0b 2c3e
00000100: 8d95 46be a488 4f3c d232 97bd 8656 83bd
00000110: ccef 5bbe 8348 83bd f8b2 8a3d f245 20bd
00000120: c079 f6bc 2d93 55be a36e 0bbe 03b4 6fbe
00000130: ea54 6cbc 26ad 35be 951d 8dbd 6f2d 19be
00000140: c605 2e3d 0082 f83c f18c f23d 1bc1 233e
00000150: 5692 cfbd 6419 e8bd 1c45 893e c602 20bd
00000160: be1d d3bc 18ec fdbd 8cc0 ccbb 3181 2d3e
00000170: ce24 debc ddfa 703d 9249 d1bd b502 10be
-0.06258573 -0.044531833 0.13070624 0.06272894 -0.084257305 -0.13211823 0.034962904 -0.07539109
0.04651324 0.2507469 0.1040896 0.09899068 0.21689336 0.15306346 0.032299 0.10367122
-0.056295194 0.15737535 -0.11724336 0.096796535 -0.021364104 0.06781121 -0.008557109 0.06736013
-0.09155263 0.042544186 -0.023493469 0.10092185 0.11725027 -0.09938428 -0.083272696 0.029832331
0.11307213 0.044346828 0.2242529 -0.06557815 -0.12968472 -0.1217346 0.14041473 -0.16902699
0.03513072 0.044028025 0.20762114 -0.16631064 0.04794395 -0.1445412 -0.12441529 0.07230957
-0.0027251863 0.17607446 -0.17283343 0.19489987 0.16024166 0.07921174 -0.09270781 -0.14507563
0.017719273 0.22361188 -0.065893 0.11080428 -0.008971842 0.10808443 0.12840445 0.16801426
-0.19392987 0.012666855 -0.0738274 -0.064129874 -0.21478194 -0.06410315 0.06772417 -0.039129205
-0.030087352 -0.20856924 -0.13616423 -0.23408513 -0.014424542 -0.17741832 -0.06890408 -0.14958738
0.042485975 0.030335426 0.11843289 0.15991633 -0.10135333 -0.11332968 0.2681054 -0.039065145
-0.025771018 -0.12398547 -0.0062485393 0.16943814 -0.02711716 0.058832992 -0.102191105 -0.14063533

gru.bias_hh_l0 f4 [96]
00000000: ab59 4b3d 7685 abbd ce02 3dbd 2b8b efbd
00000010: edef 4dbe 0234 e2bd 15d7 da3d 3f77 c0bd
00000020: 5108 0e3e 9b36 0a3e fdcc 7fbb 36fe 5dbd
00000030: f9fa 193e b530 073e 1486 7e3d 244a 59bc
00000040: 6f43 193d 0266 ebbd 9faf f43d cc34 98bc
00000050: fbf0 94bc c708 cb3d c9b7 04bd d24c 9d3d
00000060: 9b0b 7b3d f853 1fbc 34cb 3d3e 7790 a73d
00000070: 3752 a03d 999a 7cbd bd37 98bc a261 09be
00000080: 9f4a 1bbe 4b14 dfbd 6682 e13d 7730 003e
00000090: 2d00 02be 3222 493d cc4c 27bd d5c4 143e
000000a0: 761a f9bb 59e8 b33d 3660 8a3d a849 62bd
000000b0: 81e3 433e 3588 2d3c 4041 09be 58cf 263e
000000c0: e9b5 a9bc 0ef4 d73d b4dd 28be 2a4c 66bd
000000d0: d092 e83d 91d5 0cbe 5200 423c 9e9d 5bbd
000000e0: 45f2 27bc b711 b93c d49d 403e 1c46 3abc
000000f0: b67e 32bd 0b4f b13d 6058 cf3c 0028 f43c
00000100: 2ee1 98bd b999 183d 4fc3 8f3d e442 8e3d
00000110: 4f2c 27be e2d1 33be 9f1c 133d 62d1 0d3e
00000120: 2865 803e 6aed 873d 180f 87bd f9b2 1b3d
00000130: 1a7b 0cbe 6ca3 f03d cd0d ed3c 6126 5abd
00000140: 6a05 0cbe 4f51 2c3e bfcd 983d a909 333e
00000150: 6e53 3bbd 0338 7f3c 63ff 153d 0a9f f13d
00000160: 16bb 513c 1eac f93c 1785 a0ba 96ed ee3d
00000170: 9f47 ff3d d312 4bbd e209 41be d6d3 f63d
0.04964606 -0.08375065 -0.046145253 -0.11696466 -0.20111056 -0.11045076 0.10685555 -0.093977444
0.1387036 0.13497393 -0.0039032095 -0.054197513 0.15037145 0.13202174 0.062139586 -0.013262305
0.037417825 -0.11494066 0.119475596 -0.018579863 -0.018181315 0.099137835 -0.032401834 0.07680668
0.061290365 -0.00972461 0.18534547 0.08181851 0.07828181 -0.061670873 -0.018581266 -0.1341615
-0.15165184 -0.108925425 0.110112 0.12518488 -0.1269538 0.049104877 -0.040844724 0.1452821
-0.0076020313 0.08784551 0.06756632 -0.055246025 0.19129755 0.010591556 -0.13403797 0.16290033
-0.020716624 0.105445966 -0.16490823 -0.05622498 0.11356127 -0.13753344 0.011840897 -0.053617112
-0.010250633 0.022591455 0.18810207 -0.011369254 -0.043577872 0.086576544 0.025310695 0.02980423
-0.074648246 0.037255976 0.07019674 0.06946352 -0.16325496 -0.17560533 0.035915967 0.13849404
0.25077176 0.0663708 -0.06594676 0.03801248 -0.13718835 0.1174992 0.028937245 -0.053259257
-0.1367394 0.16827892 0.07461118 0.17484154 -0.04573386 0.015577319 0.03662051 0.117979124
0.012800952 0.03047758 -0.0012246695 0.1166641 0.124648325 -0.0495785 -0.18851426 0.12052123

output_layer.weight f4 [2, 32]
00000000: bd42 b9bd 8dd2 36be e095 7d3e 24af 6bbe
00000010: f69f 993d fa94 08be 2ee6 0e3e 7252 04bd
00000020: a8b3 e43d 9e7c abbd f7e8 37be 16bd 2fbe
00000030: e915 a7bd 8094 3fbe 0230 c83c bba4 bf3c
00000040: 497a 57be ad3b 5c3e 56f2 1d3e baaa 2b3e
00000050: 4319 2abe d74c a1bb 1b4a 7b3e ea89 e5bd
00000060: 56c0 053e c40d 9f3d 652d b0bd 2576 203d
00000070: 2312 4f3e 15de e23d 8245 2d3e b3e1 33be
00000080: 547f 8d3e 3fcc 413e edf9 9b3d 8fea 483e
00000090: eb92 31be cb43 593d 09d9 15be 3277 593e
000000a0: 985f b4bb 2dd2 8e3e f546 923e 02d7 acbd
000000b0: eff1 753e 96b0 523d 2bf6 553e 9b24 4abe
000000c0: 23a8 9b3d e78a 9abd efc7 18be bddf b5bd
000000d0: 4671 7a3e 7729 77be b489 15bc f582 f63d
000000e0: f76f 1c3d 0372 83bd 47f3 643e bb75 76be
000000f0: ea46 0bbe c2ad 43be ec86 95be 9239 543e
-0.090459324 -0.17853756 0.24764204 -0.2301603 0.07501213 -0.1333808 0.13954994 -0.03230519
0.11167079 -0.08373378 -0.17959963 -0.17161974 -0.08158476 -0.18708992 0.024436954 0.02339398
-0.21042742 0.2150714 0.15424475 0.16764346 -0.16611199 -0.00492249 0.24539988 -0.11207946
0.13061652 0.077662975 -0.08602408 0.03917517 0.20221762 0.11077515 0.16921046 -0.17566566
0.27636206 0.1892557 0.07616029 0.19620727 -0.17341201 0.053043168 -0.14633574 0.21236876
-0.0055045597 0.27894726 0.2856976 -0.08439447 0.24018072 0.051437937 0.20894687 -0.19740526
0.07600429 -0.07546025 -0.14920019 -0.08880565 0.24457273 -0.24136911 -0.009127069 0.12036697
0.038192715 -0.064182304 0.22358428 -0.24068348 -0.1360127 -0.19109252 -0.292045 0.20725086

output_layer.bias f4 [2]
00000000: 6cc1 123e b734 eabd
0.14331597 -0.11435836
