ipnets_output/split_2/checkpoint.pt (torch, 71458 bytes, 12 tensors)

single_channel_interp.kernel f4 [37]
0	0xbedd7846	-0.43255824
1	0xbd604874	-0.054756597
2	0x3db114c8	0.08646542
3	0x3e2f1c92	0.17100742
4	0x3d42d32d	0.047564674
5	0xbf094cf4	-0.53633046
6	0xbdefaea7	-0.11703234
7	0x3f2c1069	0.6721254
8	0xbe8454eb	-0.25846037
9	0x3e29b0cb	0.16571347
10	0xbdd62c16	-0.104576275
11	0xbe197f14	-0.14989883
12	0xbdffed20	-0.124964
13	0xbec74221	-0.3891764
14	0xbd80c62a	-0.06287797
15	0xbe636eee	-0.22210285
16	0xbda6e624	-0.081493646
17	0xbe781693	-0.24227361
18	0x3df61d6f	0.12017333
19	0xbdb91ac8	-0.09038311
20	0x3d905c9b	0.07048913
21	0xbe679039	-0.2261361
22	0xbe51d13c	-0.20489973
23	0xbd0d9d30	-0.034573734
24	0xbe4b10a1	-0.19830562
25	0xbe6edf39	-0.2332734
26	0x3dc603f3	0.09668722
27	0xbe41779e	-0.18893287
28	0xbc7cb514	-0.015424032
29	0x3e2ebbdf	0.17063855
30	0x3e38bdf1	0.18041207
31	0x3e30f4e2	0.17280915
32	0x3edcc76d	0.431209
33	0x3ea320db	0.31861004
34	0x3eaba545	0.33524528
35	0x3c71a8c5	0.01474971
36	0x3dedab66	0.11604957

cross_channel_interp.cross_channel_interp f4 [37, 37]
0	0x3f83cc76	1.0296772
1	0x3d884d15	0.06655327
2	0x3c9af1ae	0.01891407
3	0x3d7892ed	0.060686994
4	0xbc4cbf9e	-0.012496857
5	0xbdb5ab62	-0.08870579
6	0xbd251c6c	-0.04031031
7	0xbde2819f	-0.110598795
8	0xbd749053	-0.05970795
9	0x3d77e76c	0.060523435
10	0x3b708b80	0.0036704242
11	0x3ba17f7c	0.0049285274
12	0xba58168e	-0.0008243107
13	0x3c6d25a0	0.0144743025
14	0x3d9acf2b	0.075590454
15	0xbd281523	-0.041035783
16	0x3cc8fee8	0.024535611
17	0xbd7ec0e0	-0.06219566
18	0xbbaac4a1	-0.0052114283
19	0x3cf121d0	0.029435068
20	0xbd2d3c5f	-0.042293902
21	0xbc92262e	-0.017840471
22	0x3d21a60a	0.039464988
23	0xbc6d3ca1	-0.014479787
24	0x3db82ebe	0.0899329
25	0xbda1b32f	-0.07895505
26	0x3d2d4310	0.042300284
27	0x3d5a4345	0.05328681
28	0x3c3d5b2c	0.011557382
29	0x3ddcb840	0.107773304
30	0x3dca77b4	0.09886113
31	0x3d45aed8	0.048262447
32	0xbd2b1482	-0.041767605
33	0x3a207bc2	0.0006121957
34	0x3d0f6404	0.03500749
35	0xbca3c41d	-0.019990975
36	0x3cf01fb7	0.029311998
37	0xbd6bcbf6	-0.05756756
38	0x3f8b69c3	1.0891651
39	0xbd56bd09	-0.05242637
40	0x3e22fcb9	0.15916719
41	0x3bfbe504	0.007687213
42	0x3e1f2177	0.1554011
43	0x3e769ac3	0.24082474
44	0xbe0bc59e	-0.13649604
45	0xbdbb07f0	-0.09132373
46	0x3e1412d1	0.14460303
47	0x3e391eb7	0.18078123
48	0xbe530796	-0.20608363
49	0x3df8fb8e	0.12157355
50	0xbe1a1385	-0.15046509
51	0xbd944dab	-0.072413765
52	0x3d3a325d	0.045458186
53	0x3dce86b6	0.10084288
54	0x3e042b2a	0.12907091
55	0xbe10e7e5	-0.1415096
56	0x3ebd51e3	0.36976537
57	0x3e0492f2	0.1294668
58	0x3d79c48b	0.060978454
59	0xbdbb7d07	-0.091547064
60	0xbe317052	-0.17328003
61	0xbe2abfd4	-0.16674739
62	0xbe0e446e	-0.13893291
63	0x3e419da0	0.18907785
64	0xbc119c6b	-0.008887391
65	0x3d071f63	0.032988917
66	0xbc92c30f	-0.017915277
67	0xbe90e87f	-0.2830238
68	0xbdacf5eb	-0.08445343
69	0xbe4856ac	-0.19564313
70	0xbd3f03fe	-0.046634667
71	0xbe3b541c	-0.18293804
72	0x3e208af9	0.15678014
73	0x3a54be8c	0.0008115552
74	0xbe425f60	-0.18981695
75	0x3e4bedb9	0.19914903
76	0x3f6c6842	0.92346585
77	0x3eddf599	0.4335144
78	0xbd9f36ae	-0.07774101
79	0x3d47ab41	0.048747305
80	0x3de2e910	0.110796094
81	0xbdc7d312	-0.09757055
82	0x3c462882	0.012094619
83	0x3d7be696	0.0614992
84	0x3dec34e8	0.115335286
85	0xbd78c327	-0.060732987
86	0x3d926640	0.07148409
87	0xbce94680	-0.028476
88	0xbced7c17	-0.028989835
89	0x3d17080d	0.036872912
90	0xbc8845af	-0.01663479
91	0x3d621e3c	0.055204615
92	0xbd62897a	-0.05530689
93	0x3e3ee354	0.18641406
94	0xbc8365f4	-0.016039826
95	0x3e8c8ef3	0.27452812
96	0x3d08bf1c	0.03338538
97	0x3b44018a	0.0029908144
98	0x3dd61d29	0.104547806
99	0xbd859d72	-0.06524171
100	0xbddf5bb5	-0.109061636
101	0xbc306a43	-0.010767522
102	0x3dcba4ed	0.099435665
103	0xbd0c50a7	-0.034256604
104	0x3c8de026	0.017318796
105	0xbc80b710	-0.015712291
106	0xbca50826	-0.020145487
107	0x3d73ac02	0.05949021
108	0xbdd41d85	-0.10357193
109	0x3dd06423	0.101753496
110	0xbd23e16b	-0.040009897
111	0xbe259793	-0.16171102
112	0x3e6bf1cf	0.23041461
113	0x3ecd7015	0.40124574
114	0x3f86d72d	1.0534416
115	0xbd64a846	-0.05582454
116	0x3c774667	0.015092469
117	0x3e13eab2	0.14444998
118	0xbd0faaa7	-0.035074856
119	0x3b38013f	0.0028076915
120	0x3dff05ef	0.124523036
121	0x3d78172b	0.06056897
122	0xbd705a70	-0.058679998
123	0x3dc53f35	0.096311964
124	0xbd9a355a	-0.07529707
125	0xbd8606ce	-0.06544267
126	0x3d846f77	0.06466573
127	0x3cc433b3	0.023950433
128	0x3dc309ee	0.09523378
129	0xbd2bceeb	-0.04194538
130	0x3e221577	0.158285
131	0xbd9d59e5	-0.07683162
132	0x3e60b34c	0.21943396
133	0x3dc9e3b4	0.09857884
134	0x3d00a179	0.031403992
135	0x3d8853f0	0.06656635
136	0xbe13b877	-0.14425837
137	0xbd81041e	-0.062996134
138	0x3c5bb7fa	0.013410563
139	0x3d8d30f0	0.068941
140	0xbd10b601	-0.035329822
141	0x3d6fbe70	0.058531225
142	0xbd0341cb	-0.032045167
143	0xbd52b16a	-0.051438726
144	0xbd0c2f3e	-0.03422474
145	0xbdeef3d5	-0.11667601
146	0x3d76625b	0.060152393
147	0xbcf008ed	-0.029301131
148	0x3e8b76e1	0.27239135
149	0xbe9f6141	-0.31128886
150	0x3e034139	0.12817849
151	0xbdc2f924	-0.09520176
152	0x3f8611b1	1.0474149
153	0xbeb246e4	-0.3481971
154	0xbeb5e0cd	-0.35523072
155	0x3e0d102d	0.13775702
156	0x3e212116	0.15735278
157	0xbd12ba25	-0.035822053
158	0xbea9f12e	-0.33191818
159	0x3ea7af2e	0.3275084
160	0xbe199115	-0.1499675
161	0x3d8a5a94	0.06755558
162	0xbd9afceb	-0.075677715
163	0xbe8e020d	-0.2773594
164	0x3e04ef8d	0.12982006
165	0xbe838c4c	-0.25692976
166	0x3dde0e10	0.10842526
167	0xbea75abc	-0.32686412
168	0xbde402e4	-0.11133364
169	0x3ce57862	0.028011505
170	0x3ecabb2a	0.3959592
171	0x3e0dfbf9	0.13865651
172	0x3d2797e8	0.040916353
173	0x3e5d6b2d	0.21622916
174	0xbd8e753f	-0.06955957
175	0x3e182096	0.1485618
176	0xbe4d73d8	-0.20063722
177	0x3e33591a	0.17514458
178	0x3e88a562	0.26688677
179	0x3e9004ed	0.28128758
180	0x3e289d16	0.16466174
181	0x3c7013a9	0.014653125
182	0x3ec7e6d3	0.39043292
183	0xbea16e5d	-0.31529513
184	0xbe28149d	-0.16414113
185	0xbb3af3f4	-0.0028526755
186	0x3e074871	0.13211228
187	0xbc9f2250	-0.019425541
188	0xbddb5e57	-0.10711353
189	0xbd3ede49	-0.046598706
190	0x3f81fc7d	1.0155178
191	0x3d79cf05	0.060988445
192	0xbd1ddb5e	-0.038539283
193	0x3efabdc4	0.48972905
194	0xbe7f89bd	-0.24954887
195	0x3dd04e72	0.10171212
196	0xbe1d4c1f	-0.15361069
197	0x3dabf91f	0.083971255
198	0xbe9eb4ce	-0.30997318
199	0x3e18f81c	0.14938396
200	0xbd9df5d4	-0.077129036
201	0x3e4570a8	0.19281256
202	0x3dc2de24	0.09515026
203	0x3cc8133c	0.024423234
204	0x3c887428	0.01665695
205	0x3e9f88a2	0.3115893
206	0xbe8c4b8a	-0.27401382
207	0xbe9a5968	-0.30146337
208	0xbe2b4f68	-0.1672951
209	0xbdb218b4	-0.08696118
210	0x3d6c6811	0.057716433
211	0xbe7939a9	-0.24338402
212	0xbe94d81e	-0.29071134
213	0x3debe31c	0.11517927
214	0x3b194fdd	0.002339355
215	0x3cb03588	0.0215099
216	0xbdbd0493	-0.09229388
217	0xbd5850af	-0.05281132
218	0x3bb94173	0.005653554
219	0xbe0fab93	-0.14030294
220	0x3dd9c2ef	0.10632884
221	0x3d585057	0.052810993
222	0xbda3de27	-0.080013566
223	0x3e8aca04	0.2710725
224	0x3c38548d	0.011250627
225	0x3e2a4aab	0.16630046
226	0xbc76f7fa	-0.015073771
227	0x3ea0b850	0.3139062
228	0x3f6f3bb0	0.9345045
229	0xbdc71471	-0.09720696
230	0x3e07a8f8	0.1324805
231	0x3c01dd92	0.007926362
232	0x3e40c847	0.188264
233	0xbe59f5cb	-0.21285169
234	0x3d0bd3e0	0.034137607
235	0xbeaf7335	-0.34267583
236	0x3d84ec7c	0.06490418
237	0x3b8cfd00	0.004302621
238	0xbd875f3e	-0.06609963
239	0x3e52b33a	0.20576182
240	0xbe9d3d02	-0.30710608
241	0x3e664ff6	0.2249144
242	0x3e5e0dd1	0.21684958
243	0x3b546b4a	0.0032412582
244	0xbe6189a4	-0.22025162
245	0xbd1b387d	-0.03789567
246	0xbe8fed67	-0.2811081
247	0xbe8b15e7	-0.27165148
248	0x3c5a9756	0.013341745
249	0xbe8a57ac	-0.27020013
250	0xbd3b9368	-0.045794874
251	0xbdf9f7c5	-0.122054614
252	0xbe17c458	-0.14820993
253	0xbe58672c	-0.21133107
254	0xbde0634c	-0.109564394
255	0xbe312891	-0.17300631

demo_encoder.0.weight f4 [32, 8]
0	0xbe785b8f	-0.24253677
1	0x3ea38bc3	0.31942567
2	0x3e6093c9	0.21931376
3	0x3e030b1e	0.1279721
4	0x3dbc1bbb	0.09184977
5	0x3ea82ac9	0.32845142
6	0xbe6294bb	-0.22127049
7	0x3d9c637b	0.07636162
8	0xbc7faa4e	-0.015604569
9	0xbd402f3c	-0.046920046
10	0x3dafcb97	0.085837536
11	0x3e2121f2	0.15735605
12	0x3e97f95f	0.29682443
13	0xbd04e499	-0.03244457
14	0xbe8bfc3f	-0.27340886
15	0xbd3dd15c	-0.04634224
16	0x3e3b94fe	0.18318555
17	0x3e6d25ee	0.23159
18	0x3dc05774	0.0939168
19	0x3ef2d56f	0.47428462
20	0xbd39f832	-0.045402713
21	0x3e9c8aa1	0.30574515
22	0x3eb79468	0.35855412
23	0xbe30d0fd	-0.17267223
24	0xbe939e78	-0.2883184
25	0xbe896c76	-0.26840562
26	0xbe48cf71	-0.19610383
27	0xbe4cf36c	-0.20014733
28	0xbe1fedff	-0.15618132
29	0x3dd4866a	0.103772
30	0xbddcb890	-0.1077739
31	0x3ebc4441	0.36770824
32	0x3e9d12fe	0.30678552
33	0xbe4eef58	-0.2020849
34	0x3e56a306	0.20960626
35	0xbdabbc5f	-0.08385538
36	0xbe898fee	-0.26867622
37	0xbea51e4e	-0.32249683
38	0x3eaf4d0e	0.34238476
39	0x3f074f06	0.52854955
40	0x3cba8703	0.022769457
41	0xbd96c918	-0.07362574
42	0x3da11f27	0.0786727
43	0xbcc59d63	-0.0241229
44	0xbddf2136	-0.10895006
45	0x3e5235bf	0.20528315
46	0xbdc9667c	-0.098340005
47	0x3d5f4a28	0.05451408
48	0x3d17878e	0.03699451
49	0x3ea1f275	0.31630293
50	0xbe9fc0b7	-0.31201717
51	0xbc0b072e	-0.0084855985
52	0xbb28ea89	-0.002577456
53	0xbe0c967f	-0.13729285
54	0x3e76c782	0.24099544
55	0x3dc6bfaf	0.097045295
56	0x3df4cd30	0.11953199
57	0x3e12f4d8	0.14351213
58	0x3e2804d7	0.16408096
59	0xbe750081	-0.23925973
60	0xbec6c64d	-0.38823166
61	0xbea6147d	-0.32437506
62	0x3e55a8a5	0.20865114
63	0x3dc354d4	0.09537664
64	0x3e8750fb	0.2642897
65	0xbe29e517	-0.16591297
66	0x3ddaddba	0.10686822
67	0x3e86d08b	0.2633098
68	0xbeddb824	-0.4330455
69	0x3dbef0ce	0.093232736
70	0xbb1c29cb	-0.0023828621
71	0xbd99f206	-0.075168654
72	0xbe9eee4e	-0.31041187
73	0xbe09c2f7	-0.1345328
74	0x3c874725	0.016513417
75	0x3dda1411	0.106483586
76	0xbe6289de	-0.22122905
77	0x3e999d41	0.30002788
78	0x3e1f75b5	0.15572245
79	0x3edd61b8	0.43238616
80	0xbe2675c5	-0.16255863
81	0x3b6f27bf	0.0036492196
82	0x3eab97bb	0.335142
83	0xbe6e40b1	-0.23266865
84	0x3e8eb603	0.2787324
85	0x3df02f38	0.11727756
86	0xbd6ce6cd	-0.057837296
87	0x3c7d378a	0.015455136
88	0xbe4c507d	-0.19952579
89	0xbd30d79b	-0.043174367
90	0xbea79fdd	-0.32739154
91	0xbec413a1	-0.38296226
92	0x3de642fc	0.11243245
93	0xbea16b97	-0.31527397
94	0xbec3ebed	-0.38265935
95	0x3e34b29c	0.17646259
96	0xbe815f96	-0.2526824
97	0xbdb5f5e9	-0.08884794
98	0xbe9ac4ca	-0.30228263
99	0x3e866172	0.2624622
100	0x3df2ef8f	0.118620984
101	0xbe4efed5	-0.20214398
102	0x3e7366df	0.23769711
103	0xbe045454	-0.12922794
104	0x3e97d5b8	0.29655242
105	0x3e1c47e2	0.15261796
106	0xbe3ad16a	-0.18243948
107	0xbd8df5d7	-0.06931656
108	0xbec013be	-0.37515062
109	0xbe290d84	-0.16509062
110	0xbea82f21	-0.32848457
111	0x3e096a53	0.13419466
112	0xbee77f8f	-0.45214507
113	0xbc5c7333	-0.0134552
114	0x3ea9d593	0.33170757
115	0xbd5430fa	-0.05180452
116	0xbe1624db	-0.14662497
117	0xbc5782af	-0.013153716
118	0x3e096f66	0.13421401
119	0x3eab671c	0.33477104
120	0x3e9c35bd	0.3050975
121	0x3dd439f6	0.10362618
122	0xbec581ea	-0.3857568
123	0x3de9b127	0.11410742
124	0x3e8edbb7	0.27902004
125	0x3e544bd0	0.20732045
126	0xbf0ab099	-0.54175717
127	0x3e87a166	0.26490325
128	0xbd463908	-0.048394233
129	0xbe2f9f79	-0.17150678
130	0xbe164641	-0.14675237
131	0x3cd3ff70	0.025878638
132	0xbea1f89d	-0.3163499
133	0x3e27cd4e	0.16386911
134	0x3bb8ba00	0.0056374073
135	0xbe82efa4	-0.25573456
136	0x3dbc91d1	0.092075
137	0xbea59048	-0.3233664
138	0xbd1c2a8f	-0.038126525
139	0x3ee41d45	0.4455358
140	0xbed5be96	-0.41746968
141	0x3f0c0580	0.5469589
142	0xbe8c1471	-0.27359346
143	0x3e913e94	0.28368056
144	0x3e3d1cfd	0.1846809
145	0x3ea797a9	0.32732895
146	0xbe543b47	-0.20725738
147	0x3e4cf74f	0.20016216
148	0xbe8f6277	-0.2800481
149	0xbe71a0e4	-0.23596531
150	0x3da5accd	0.080896
151	0x3e3ace2d	0.18242712
152	0x3d6b38b8	0.057427138
153	0x3e99a361	0.3000746
154	0x3d75b563	0.059987437
155	0xbea3bad2	-0.3197847
156	0xbef13ea9	-0.47118118
157	0xbd8fb874	-0.070176035
158	0xbee3f684	-0.44524014
159	0x3ddc6ae5	0.10762576
160	0x3e6dabbd	0.23210044
161	0xbe4b8959	-0.19876613
162	0xbe113bb7	-0.14182936
163	0x3e80f257	0.2518489
164	0x3c99c290	0.018769532
165	0xbe5630da	-0.20917073
166	0x3e831fd3	0.25610217
167	0x3f1b52c3	0.6067316
168	0x3ed3c89d	0.41363993
169	0xbe4232b8	-0.1896466
170	0x3d95330f	0.07285129
171	0xbe84f906	-0.2597124
172	0x3d9f9243	0.07791569
173	0x3e7919b3	0.2432621
174	0x3e5ff2cf	0.21869968
175	0xbe93b629	-0.28849915
176	0x3e5e2a10	0.21695733
177	0xbdb97d16	-0.090570614
178	0x3e9a84c4	0.30179417
179	0xbe41fd1c	-0.1894421
180	0x3c5e56fb	0.013570542
181	0xbea5d844	-0.3239156
182	0xbe939157	-0.28821823
183	0x3e2f2028	0.1710211
184	0x3e198c94	0.14995033
185	0x3e5bf1bb	0.21478932
186	0xbea20429	-0.316438
187	0xbec706f6	-0.38872498
188	0x3e9531d0	0.29139566
189	0xbed72fbf	-0.42028615
190	0xbebe50f9	-0.37171152
191	0x3f037d8f	0.5136346
192	0x3ee17a4b	0.44038615
193	0x3ebe1858	0.37127948
194	0x3d8208e0	0.06349349
195	0xbe300ff5	-0.17193587
196	0x3e5ac2aa	0.21363321
197	0x3e10aa91	0.14127566
198	0x3e7e587c	0.24838442
199	0xbe29521f	-0.16535233
200	0xbd674d3e	-0.05647015
201	0xbe56bccc	-0.20970458
202	0x3d164f72	0.03669686
203	0x3ea6afd4	0.3255602
204	0xbd27dab7	-0.040980067
205	0x3ed259c5	0.41084114
206	0xbde5d475	-0.112221636
207	0x3e84b004	0.2591554
208	0x3ecb1379	0.39663294
209	0x3e6f018a	0.23340431
210	0x3d4a8852	0.04944641
211	0x3ebfc765	0.37456813
212	0x3dfb4ff5	0.1227111
213	0xbef3a145	-0.47583976
214	0x3bc95fc0	0.0061454475
215	0xbe349a65	-0.17637022
216	0x3e2c6e8c	0.16839045
217	0x3c9d5b64	0.019208618
218	0x3d2837ce	0.041068844
219	0x3e4b0eda	0.19829884
220	0xbcc970db	-0.024589946
221	0xbe9a97da	-0.3019398
222	0x3d65930e	0.056048445
223	0x3ee50fd6	0.44738644
224	0xbe94bd80	-0.29050827
225	0x3e9d2ad7	0.30696747
226	0x3e98b2f7	0.2982404
227	0xbb529da1	-0.0032137411
228	0x3e39ee8e	0.18157408
229	0x3ede8d7c	0.4346732
230	0xbe4e1832	-0.20126417
231	0x3d270a5f	0.040781375
232	0xbe9192e3	-0.28432378
233	0x3e6cd696	0.23128733
234	0xbd81cb42	-0.063375965
235	0x3dce926c	0.100865215
236	0x3e5621f2	0.20911387
237	0x3df2f9d0	0.11864054
238	0xbd71f2df	-0.05906951
239	0x3c969396	0.018380921
240	0xbe722037	-0.23645101
241	0x3e51bba7	0.2048174
242	0x3eae74a2	0.3407336
243	0x3da48fd4	0.080352455
244	0x3e800be5	0.25009075
245	0xbe96934a	-0.29409248
246	0x3eac4766	0.33648223
247	0xbeafb4f8	-0.34317756
248	0xbe23ef25	-0.16009195
249	0x3e8823d9	0.2658985
250	0x3d586f46	0.052840494
251	0xbecf507b	-0.4049109
252	0xbed48414	-0.41507018
253	0x3e214754	0.15749866
254	0xbe2227e9	-0.15835537
255	0x3ebe5b76	0.37179154

demo_encoder.0.bias f4 [32]
0	0xbdab07c8	-0.083510935
1	0x3e88d6e5	0.26726452
2	0xbd891a38	-0.06694454
3	0xbc984d1e	-0.01859146
4	0x3ea097f5	0.31365934
5	0xbeb0baf8	-0.34517646
6	0xbd115cce	-0.035488896
7	0x3e9e42d8	0.30910373
8	0x3be03710	0.0068425015
9	0x3d962c8b	0.07332715
10	0xbe3581bf	-0.17725275
11	0x3e0061d5	0.1253732
12	0xbe25860e	-0.16164419
13	0xbe16bed5	-0.14721234
14	0xbd90ff3f	-0.07079934
15	0x3d80f4aa	0.06296666
16	0xbeaba94d	-0.33527604
17	0x3e8b9aec	0.27266634
18	0x3e5615d4	0.20906764
19	0xbe4e39b7	-0.20139204
20	0x3cae98bb	0.021313062
21	0x3ee9dcf1	0.45676377
22	0x3d1ad250	0.037798226
23	0xbe43e7b7	-0.19131361
24	0x3e0ac854	0.13552982
25	0xbde091bf	-0.10965299
26	0xbe9ba70b	-0.3040088
27	0xbdff862b	-0.124767624
28	0x3ec8fa1e	0.39253324
29	0x3ea482b7	0.32130978
30	0x3ca8fc13	0.02062801
31	0xbe5cddf5	-0.21569045

demo_encoder.2.weight f4 [32, 32]
0	0x3e43d593	0.19124441
1	0xbe34a8f4	-0.17642576
2	0x3da044f1	0.078256495
3	0x3bcb1730	0.0061978325
4	0xbc37b631	-0.011212871
5	0x3a4855aa	0.00076421595
6	0xbe395566	-0.18098983
7	0xbe07aef3	-0.13250332
8	0xbd74efdd	-0.059799064
9	0xbcdbea38	-0.026845083
10	0xbe102ee8	-0.14080393
11	0xbdf9f41b	-0.122047625
12	0x3dff6839	0.12471051
13	0xbe9631f3	-0.29334983
14	0x3e435025	0.19073541
15	0xbe3d3703	-0.18478017
16	0x3bc42c00	0.0059866905
17	0xbdc9c461	-0.098519094
18	0xbdd907b7	-0.105971746
19	0x3d82b493	0.06382098
20	0xbd9dd6b0	-0.07706964
21	0x3e264b5a	0.16239682
22	0xbe74252c	-0.23842305
23	0xbeb7abc8	-0.35873246
24	0x3dcc8ab9	0.09987397
25	0xbdc2ac5a	-0.0950553
26	0xbd3ff610	-0.046865523
27	0xbe79ddbb	-0.2440099
28	0x3da80e52	0.082058564
29	0x3cb9dd80	0.022688627
30	0x3d6b80e7	0.057495978
31	0xbd63e224	-0.055635586
32	0x3e9a3397	0.30117485
33	0x3d3995b0	0.04530877
34	0xbd84c29b	-0.064824305
35	0x3d313646	0.04326465
36	0xbd0eddc8	-0.034879476
37	0xbe0ca5d1	-0.13735129
38	0x3d623bac	0.05523269
39	0x3da0d6c4	0.07853463
40	0xbd7eb822	-0.06218732
41	0x3e7d1088	0.24713337
42	0x3e8a1603	0.2696992
43	0x3e30e450	0.17274594
44	0x3e3b5847	0.18295394
45	0xbe91bef9	-0.28466013
46	0x3e2380b0	0.15967059
47	0xbdcf4088	-0.1011973
48	0xbddd917a	-0.10818763
49	0x3e239796	0.15975794
50	0x3e292e5e	0.16521594
51	0xbd541e6a	-0.051786818
52	0xbdd14d10	-0.10219777
53	0xbd8aedec	-0.06783661
54	0x3d44ad9d	0.048017133
55	0x3ceb71ac	0.028740726
56	0x3dabe84d	0.08393917
57	0x3daea980	0.08528423
58	0xbeab8b2f	-0.33504626
59	0xbe223add	-0.15842767
60	0x3e34ee3f	0.17669009
61	0x3e83d340	0.25747108
62	0x3d37a06e	0.044830732
63	0x3d050cc3	0.032482874
64	0xbe882a82	-0.2659493
65	0xbe0a8125	-0.13525827
66	0x3e1b24f2	0.15150812
67	0xbdd68cd3	-0.10476079
68	0x3ebca6ee	0.36846107
69	0xbd868a47	-0.06569343
70	0xbde04ca2	-0.109521165
71	0x3e367135	0.17816623
72	0x3d9e5ea3	0.07732894
73	0xbd050a12	-0.032480307
74	0xbc101fe6	-0.008796668
75	0xbe70a2fb	-0.23499672
76	0xbe034a92	-0.12821415
77	0x3e27ea2b	0.16397922
78	0x3e3805e0	0.17970991
79	0xbdf6f3a0	-0.120581865
80	0xbdae390f	-0.08506977
81	0x3cba28b2	0.022724483
82	0x3d07082c	0.032966778
83	0xbe15ae41	-0.14617254
84	0x3e4a9480	0.19783211
85	0x3dcf10c3	0.10110619
86	0x3e25cda0	0.16191721
87	0xbdf69618	-0.12040347
88	0x3c4280c8	0.011871524
89	0x3dac13fa	0.08402248
90	0x3ddebb0e	0.108755216
91	0x3e8675f4	0.26261866
92	0x3df1e187	0.11810594
93	0x3d83e850	0.064407945
94	0x3e64e6a2	0.22353604
95	0x3e00a23b	0.12561886
96	0xbe4afe48	-0.19823563
97	0xbdfdcad3	-0.12392201
98	0xbeaed860	-0.34149456
99	0xbe94cbb8	-0.29061675
100	0x3e607206	0.21918496
101	0x3dab13a9	0.08353359
102	0x3e553c40	0.20823765
103	0x3c79a2cd	0.015236569
104	0xbe102105	-0.14075096
105	0xbdf023d5	-0.117255844
106	0x3c51867a	0.012788409
107	0xbc8f8d4f	-0.017523436
108	0x3dabf12c	0.08395609
109	0x3e711fe2	0.23547319
110	0xbe40a266	-0.1881195
111	0x3e83ef36	0.2576844
112	0xbd8f880d	-0.070083715
113	0xbdebaecb	-0.115079485
114	0x3cae89fe	0.021306034
115	0x3dda5479	0.10660643
116	0xbc9baecd	-0.01900425
117	0xbe0170ff	-0.12640761
118	0xbda07bf6	-0.07836144
119	0x3d31444b	0.04327802
120	0x3d89132d	0.066931106
121	0xbe84feff	-0.25975797
122	0x3e0839a6	0.13303241
123	0x3e9e0564	0.30863488
124	0xbe73f833	-0.23825149
125	0xbdbea9ac	-0.09309706
126	0x3d7d16b4	0.06178923
127	0xbdd85b30	-0.10564268
128	0xbe162fdb	-0.14666693
129	0xbd5d2334	-0.05398865
130	0x3e29ef8e	0.16595289
131	0x3cc0a508	0.023516193
132	0xbe17d8d0	-0.14828801
133	0xbe2218b9	-0.15829743
134	0xbde569af	-0.11201798
135	0xbe1d4b6d	-0.15360804
136	0xbd8afaf8	-0.0678615
137	0xbe4200b9	-0.18945588
138	0xbdc991c3	-0.09842255
139	0x3c648653	0.013948041
140	0xbe0e7147	-0.139104
141	0xbead1316	-0.33803624
142	0xbd8b1d1d	-0.06792662
143	0xbe1a6b10	-0.15079904
144	0x3cbf35b0	0.02334103
145	0x3b1b5a2c	0.002370487
146	0x3d9d3256	0.076756164
147	0xbe85de37	-0.261461
148	0xbd887518	-0.06662959
149	0xbdf9e93a	-0.122026876
150	0xbd902eff	-0.07040214
151	0xbc9d939e	-0.019235428
152	0xbe3721f0	-0.1788404
153	0xbe5bc187	-0.21460544
154	0xbdb5688c	-0.08857831
155	0x3dadf2e9	0.08493597
156	0xbe23c86d	-0.15994425
157	0x3d763782	0.06011153
158	0xbcfc5fba	-0.030807365
159	0xbde5d651	-0.11222518
160	0xbe5a6cc6	-0.21330556
161	0xbe29b10d	-0.16571446
162	0xbc1b5245	-0.009480064
163	0xbe1145d3	-0.14186792
164	0x3dfb519c	0.12271425
165	0xbd815db2	-0.06316699
166	0xbe27aeb0	-0.16375232
167	0xbd10cefb	-0.035353642
168	0x3e67c8a8	0.22635138
169	0x3dd8239c	0.10553667
170	0x3e4089c9	0.18802561
171	0xbc3af11d	-0.011410025
172	0x3dbdffae	0.09277283
173	0xbd1fabb9	-0.038982127
174	0xbe76b898	-0.24093854
175	0xbe07cf06	-0.13262567
176	0xbe2044f4	-0.15651304
177	0x3e899156	0.26868695
178	0x3daa8cfc	0.08327672
179	0xbd81630b	-0.06317719
180	0x3cab9efd	0.020949835
181	0x3e50334d	0.2033207
182	0x3dacc472	0.084359065
183	0x3d928394	0.07154003
184	0x3db9bf45	0.09069685
185	0x3dca6233	0.09882011
186	0xbdc15069	-0.09439165
187	0x3b88f58e	0.004179663
188	0xbc05f1a1	-0.008175285
189	0x3d8f9675	0.07011119
190	0xbd54e0e3	-0.05197228
191	0x3d5fceaf	0.05464047
192	0xbe151ebf	-0.1456251
193	0x3e152540	0.14564991
194	0x3bf8f6a2	0.0075977603
195	0xbd93b256	-0.07211749
196	0xbe6bf8c2	-0.23044112
197	0xbdf9ffc2	-0.12206985
198	0x3d43ae20	0.04777348
199	0xbe21cb91	-0.1580031
200	0x3e1c17a6	0.15243396
201	0xbd4a1c0f	-0.049343165
202	0x3d4aaaf6	0.049479447
203	0xbe89c360	-0.26906872
204	0x3d028776	0.031867467
205	0xbd8a9ecd	-0.0676857
206	0x3e091da4	0.13390213
207	0x3ab79834	0.0014007152
208	0x3e1207af	0.14260744
209	0xbd86c600	-0.06580734
210	0xbe3b2931	-0.18277432
211	0xbcd30db0	-0.025763363
212	0x3b9a7aae	0.0047143316
213	0xbe0a7360	-0.13520575
214	0xbdc2fddb	-0.09521075
215	0xbecd2ac7	-0.400717
216	0xbdba9b0b	-0.09111603
217	0x3da3c0fb	0.079957925
218	0xbe001a96	-0.12510142
219	0xbe947a00	-0.2899933
220	0x3d95fc58	0.073235214
221	0x3e12da63	0.1434112
222	0xbd86485e	-0.06556772
223	0xbe453b35	-0.19260867
224	0xbdade221	-0.08490396
225	0xbe181d61	-0.14854957
226	0x3d3cf3ab	0.046130817
227	0x3e9324a0	0.2873888
228	0xbdd31441	-0.103065975
229	0xbca392c0	-0.019967437
230	0x3ce9e8f2	0.02855346
231	0x3e0b6e2b	0.13616244
232	0xbd85b2d7	-0.065282516
233	0xbdc92dcf	-0.098231904
234	0x3e626c32	0.22111586
235	0x3e5a0431	0.21290661
236	0x3d17942b	0.03700654
237	0xbe7139d7	-0.2355722
238	0x3e6a1bd5	0.2286218
239	0xbe069db5	-0.13146098
240	0x3deb1226	0.11478071
241	0xbcb771af	-0.022393076
242	0x3b1069c0	0.0022035688
243	0x3e097611	0.13423945
244	0x3ca0d6cc	0.019633673
245	0xbe12e216	-0.14344057
246	0x3e5f3b01	0.21799852
247	0x3ec321af	0.38111636
248	0xbdb46570	-0.0880841
249	0xbd8e4d1b	-0.069483005
250	0xbe8b723c	-0.2723559
251	0xbda048db	-0.07826396
252	0x3e608c28	0.21928465
253	0x3e343ff5	0.17602523
254	0x3dcf9b7e	0.1013708
255	0x3e570e99	0.21001662

demo_encoder.2.bias f4 [32]
0	0xbdd4d1a5	-0.10391549
1	0x3e54d1de	0.20783183
2	0x3dbbf503	0.09177592
3	0xbde35b01	-0.11101342
4	0x3d8b4168	0.067995846
5	0xbd3bb770	-0.045829237
6	0xbcdf7ac0	-0.027280211
7	0xbe08c5c5	-0.13356693
8	0xbe46ca2e	-0.19413063
9	0xbceaf6a4	-0.02868206
10	0xbbf16c22	-0.0073676268
11	0x3d966e22	0.07345225
12	0x3bf89f9c	0.0075873863
13	0xbde9c4b8	-0.11414474
14	0x3e615a77	0.22007166
15	0xbe16a82f	-0.14712594
16	0x3cda2afe	0.026631828
17	0x3e5add04	0.21373373
18	0xbe7bf240	-0.2460413
19	0x3d828165	0.06372336
20	0x3e1d1a19	0.15341987
21	0x3c78302b	0.015148203
22	0xbd527b8a	-0.051387347
23	0x3c8a382b	0.016872486
24	0x3dc52d30	0.096277595
25	0xbe15af0c	-0.14617556
26	0xbbe51770	-0.0069913194
27	0xbdc88a67	-0.09792023
28	0x3d7f3fc3	0.062316667
29	0x3e895967	0.2682602
30	0x3ddf83ed	0.10913835
31	0x3d97309b	0.07382318

gru.weight_ih_l0 f4 [96, 111]
0	0xbc54de68	-0.012992479
1	0xbd853ebe	-0.06506108
2	0x3e42d1bc	0.1902532
3	0x3e9b6c59	0.303561
4	0x3d2464e0	0.040135264
5	0x3e561b11	0.20908763
6	0xbd061ed9	-0.032744262
7	0x3e4625d0	0.19350362
8	0x3e526df7	0.20549761
9	0x3dcd6d1b	0.10030576
10	0x3e8a18e7	0.26972124
11	0x3dede64a	0.1161619
12	0x3e10e27c	0.14148897
13	0x3d3f9983	0.04677726
14	0xbd60947c	-0.054829106
15	0x3df4f76b	0.11961254
16	0x3d36f2d2	0.044665165
17	0x3d89e5ad	0.0673326
18	0xbdec79b4	-0.115466505
19	0xbec328f6	-0.38117188
20	0x3cb19ff9	0.021682726
21	0xbe40c37a	-0.18824568
22	0x3dbefd64	0.09325674
23	0xbd88f6d3	-0.06687703
24	0x3d8cbbf1	0.068717845
25	0x3dc6b581	0.09702588
26	0xbdebb73c	-0.115095586
27	0x3e105c16	0.14097628
28	0x3df023be	0.11725567
29	0xbc910dc7	-0.017706765
30	0xbcbf9035	-0.023384193
31	0xbdad3f4e	-0.0845934
32	0xbe2b79d1	-0.16745688
33	0x3e59e1fa	0.2127761
34	0xbdbc4270	-0.091923594
35	0x3bf5fd17	0.0075069773
36	0x3b87a8e3	0.004140006
37	0x3e94f5a9	0.29093674
38	0xbde2d8d8	-0.11076516
39	0xbd889b66	-0.06670265
40	0xbe01b24a	-0.12665668
41	0xbd5e96b9	-0.05434296
42	0xbd534930	-0.05158347
43	0xbdb9f96c	-0.090807766
44	0x3da4bf20	0.08044267
45	0x3cf5dd5b	0.030012777
46	0x3e3c56df	0.18392514
47	0x3e840bc0	0.25790215
48	0xbcc244d8	-0.023714468
49	0xbe16c354	-0.1472295
50	0x3db230ac	0.0870069
51	0x3c38c270	0.011276826
52	0xbd6b8d0d	-0.057507563
53	0xbe2acc90	-0.16679597
54	0xbd2d7951	-0.042352024
55	0x3db8422a	0.08996995
56	0x3c0bbe78	0.008529298
57	0x3bd83d79	0.006599125
58	0xbe0466ab	-0.1292979
59	0x3d1d4923	0.038399827
60	0xbc952382	-0.018205408
61	0x3ba11bcf	0.004916645
62	0xbcd5d741	-0.026103618
63	0x3e1818be	0.14853188
64	0x3e2604c5	0.16212757
65	0x3dcd1161	0.100130804
66	0x3dd83d71	0.10558594
67	0x3e0b74dd	0.13618799
68	0x3d3ee900	0.046608925
69	0xbd19b737	-0.037528243
70	0x3e10ebbe	0.14152429
71	0x3c377851	0.011198119
72	0x3e003dce	0.12523577
73	0x3df14411	0.11780561
74	0x3eadb6db	0.3392857
75	0x3d927992	0.07152094
76	0xbde2e80b	-0.11079415
77	0xbdabc56d	-0.08387265
78	0x3ec9c14a	0.3940528
79	0x3cbd969a	0.023143101
80	0xbce5536e	-0.027993884
81	0xbd1d2a3a	-0.03837035
82	0xbe0cde79	-0.13756742
83	0xbd7da026	-0.061920308
84	0x3ac61772	0.0015113188
85	0xbd98a920	-0.07454133
86	0xbe85820c	-0.2607578
87	0xbd2e5764	-0.04256381
88	0xbdbc5017	-0.091949634
89	0xbe04e579	-0.12978162
90	0x3e03da0d	0.12876149
91	0xbdefb8e7	-0.11705189
92	0xbe215b3b	-0.15757458
93	0x3e04374b	0.12911718
94	0x3e271692	0.16317204
95	0xbe1d2263	-0.15345149
96	0xbe1b2384	-0.15150267
97	0xbbec014c	-0.007202303
98	0x3c1f4d2b	0.009722988
99	0xbd3f364b	-0.046682637
100	0xbc4665a2	-0.012109192
101	0x3e18c1ed	0.14917727
102	0xbe33b71c	-0.1755032
103	0xbe21ffe7	-0.15820275
104	0xbd8cb552	-0.068705216
105	0xbe505e99	-0.20348586
106	0xbe15b6bf	-0.14620493
107	0x3dfda702	0.1238537
108	0xbe4f2bc9	-0.20231546
109	0xbd958ede	-0.073026404
110	0xbdfc14c0	-0.12308645
111	0xbe58c49a	-0.21168748
112	0xbe05368a	-0.13009086
113	0x3df581c4	0.119876415
114	0x3ea27dae	0.3173651
115	0xbd28488e	-0.04108482
116	0x3ce278f2	0.027645562
117	0x3e06c9ef	0.13162969
118	0x3cdde33e	0.027085897
119	0xbe31f03a	-0.17376795
120	0x3bb1bb1e	0.0054239174
121	0x3e81afe1	0.25329497
122	0x3e17897d	0.14798541
123	0xbd6e98dc	-0.058251247
124	0xbe2e0f6c	-0.1699807
125	0x3db33f20	0.087522745
126	0xbe37a31d	-0.17933317
127	0x3ead084c	0.33795393
128	0x3e171c91	0.14756991
129	0x3cbfefef	0.023429839
130	0xbe937e33	-0.2880722
131	0x3cb8a093	0.022537505
132	0xbeca465d	-0.39506808
133	0xbe08b0b5	-0.13348658
134	0xbe807f3f	-0.2509708
135	0xbe6a9b0a	-0.22910705
136	0x3c901cb8	0.01759182
137	0xbe53e79b	-0.20693819
138	0xbe151862	-0.14560083
139	0xbe91d28c	-0.28480947
140	0xbe3a7d6f	-0.18211912
141	0xbe077674	-0.1322878
142	0x3db39d67	0.087702565
143	0x3e9d0335	0.3066651
144	0x3e99e2bf	0.30055806
145	0xbe952e6b	-0.29136977
146	0xbe4b1f84	-0.19836241
147	0xbd30e4dd	-0.04318701
148	0xbe0993d1	-0.13435294
149	0xbda6abb7	-0.08138221
150	0x3d426f13	0.04746921
151	0x3da036b4	0.07822934
152	0xbdec5af7	-0.11540788
153	0x3cfd564a	0.030924935
154	0xbd3f65c6	-0.046727918
155	0x3e5b6dc0	0.21428585
156	0xbe0b091a	-0.1357769
157	0x3db13d66	0.08654289
158	0x3be22347	0.006901178
159	0xbdc0985e	-0.09404062
160	0xbc0d8b1c	-0.008639123
161	0xbdc6a58e	-0.09699546
162	0x3d69b982	0.05706168
163	0xbdd7b53d	-0.10532615
164	0xbd8117b7	-0.06303351
165	0xbe977510	-0.295815
166	0x3da45142	0.08023311
167	0x3de08587	0.10962968
168	0x3d619acb	0.055079263
169	0x3dac2f8d	0.08407507
170	0xbe2dfb39	-0.16990365
171	0xbd9b4935	-0.075823225
172	0xbd07e508	-0.033177406
173	0x3c720f07	0.014774091
174	0x3d293a1c	0.041315183
175	0xbe04c811	-0.12966944
176	0x3e16f7be	0.14742944
177	0xbe69be3d	-0.22826476
178	0x3df7c0f5	0.120973505
179	0xbe44aa45	-0.19205578
180	0x3e673e20	0.22582293
181	0xbe51b381	-0.20478632
182	0xbd4fdb67	-0.050746348
183	0xbc4d128d	-0.01251663
184	0xbe194932	-0.14969328
185	0x3e36a496	0.17836222
186	0xbc78984b	-0.015173028
187	0xbebddcfd	-0.37082663
188	0xbe2e2db0	-0.17009616
189	0x3e8afa30	0.27144003
190	0xbcbbddd4	-0.022932924
191	0x3d57bfbd	0.05267309
192	0x3c6d0051	0.0144654075
193	0xbd626559	-0.055272434
194	0x3d8316ba	0.06400819
195	0xbdfee05d	-0.12445138
196	0xbd9259c2	-0.07146026
197	0xbda5419e	-0.08069156
198	0x3e2c0b64	0.1680122
199	0xbe1d8b61	-0.153852
200	0xbe4f882f	-0.20266794
201	0x3b257938	0.0025249254
202	0x3d9cb31f	0.07651352
203	0x3e0eb81e	0.13937423
204	0x3e91d6ab	0.2848409
205	0x3e05d3f6	0.13069138
206	0xbd8a7cef	-0.067621104
207	0xbd65b670	-0.05608219
208	0x3e321e37	0.17394339
209	0x3e35b9d8	0.17746675
210	0x3c9b75d0	0.018977076
211	0xbdc1293d	-0.09431694
212	0x3e2ae687	0.16689502
213	0x3d8249a8	0.06361705
214	0x3c844701	0.016147139
215	0xbd8bab21	-0.068197496
216	0x3e7aba1c	0.24485058
217	0xbeb26a0d	-0.34846535
218	0x3d507995	0.0508972
219	0xbd8d9807	-0.069137625
220	0x3e843c14	0.25827086
221	0x3e9d6f5f	0.30749032
222	0xbc2952fb	-0.0103347255
223	0x3e0c1aa1	0.13682033
224	0x3db22d4c	0.08700046
225	0x3e7cd4d3	0.24690561
226	0xbd388bc7	-0.045055177
227	0x3d904155	0.07043711
228	0x3c99cebe	0.01877534
229	0x3bb8b78a	0.005637114
230	0xbe5977bc	-0.21237081
231	0x3e301f3b	0.17199413
232	0x3d595ea8	0.053068787
233	0xbdc6c0ba	-0.097047284
234	0xbe2fc6c0	-0.17165661
235	0xbd765a18	-0.060144514
236	0xbd7018ee	-0.058617525
237	0xbd41824d	-0.047243405
238	0xbd19abf6	-0.03751751
239	0x3e1c7b36	0.15281376
240	0xbc6cb3e4	-0.014447186
241	0x3e9b2de7	0.30308458
242	0xbe4a55df	-0.1975932
243	0xbcc4fbf3	-0.02404592
244	0x3d5e9447	0.054340627
245	0xbd8b8158	-0.0681178
246	0xbd056af7	-0.032572713
247	0x3dd78775	0.10523883
248	0x3c16c33d	0.009201822
249	0xbb7c7ddb	-0.0038527164
250	0x3e5601ca	0.2089912
251	0x3e390bdc	0.1807093
252	0xbdf7ffbc	-0.12109324
253	0x3e352218	0.17688787
254	0xbe83042e	-0.25589126
255	0x3bb5609d	0.005535199

gru.weight_hh_l0 f4 [96, 32]
0	0x3d7f165b	0.06227718
1	0xbdefe1a0	-0.117129564
2	0xbdb3d391	-0.087805875
3	0xbd464011	-0.048400942
4	0xbda3c621	-0.079967745
5	0xbd5dcbca	-0.054149427
6	0xbdbcc613	-0.09217467
7	0x3e8a572e	0.27019638
8	0x3dc330a5	0.095307626
9	0xbda41406	-0.08011632
10	0x3c9bd5a0	0.019022763
11	0xbc3237e9	-0.010877588
12	0xbc735f95	-0.0148543315
13	0x3da1833c	0.07886359
14	0x3c238312	0.00997998
15	0xbdcf771d	-0.10130141
16	0x3d147fa2	0.036254533
17	0x3d839e40	0.06426668
18	0xbdbcf72c	-0.09226832
19	0x3c74460e	0.01490928
20	0x3df4948f	0.11942398
21	0x3e04c26d	0.12964793
22	0xbe62e37c	-0.22157091
23	0x3df53d60	0.11974597
24	0xbd47a016	-0.048736654
25	0x3e346691	0.17617251
26	0xbe3cd4ca	-0.18440548
27	0x3d4c76b3	0.049917888
28	0xbe5d451b	-0.21608393
29	0x3c43b6b6	0.011945417
30	0xbc340c17	-0.010989211
31	0x3e402cba	0.18767062
32	0xbafeac1a	-0.0019429952
33	0x3decba76	0.11559002
34	0xbdeae174	-0.11468783
35	0x3cf90c7d	0.030401463
36	0x3d20001f	0.039062615
37	0xbde06b10	-0.109579206
38	0x3b54239f	0.0032369865
39	0xbd022ae9	-0.031779204
40	0x3d475125	0.04866137
41	0x3e2dc430	0.16969371
42	0x3e2eca7c	0.17069429
43	0x3d8d0b5b	0.068869315
44	0xbcaa67db	-0.020801475
45	0xbc222631	-0.009896801
46	0x3e9f5df8	0.3112638
47	0xbd0d8d7b	-0.034558754
48	0xbd6dd86b	-0.05806772
49	0x3dd6da85	0.10490898
50	0xbe189600	-0.1490097
51	0xbd748d6d	-0.059705187
52	0xbc2337bf	-0.009962021
53	0x3dab2849	0.08357293
54	0xbe2c68b7	-0.1683682
55	0x3b39c58a	0.0028346502
56	0xbe922f74	-0.2855183
57	0xbe6d4af1	-0.23173119
58	0x3d8c821d	0.06860755
59	0x3db35830	0.08757055
60	0xbd4c07ad	-0.049812008
61	0x3e388c1f	0.18022202
62	0xbdf11da1	-0.117732294
63	0x3a1a03d1	0.00058752025
64	0xbdf36375	-0.11884204
65	0xbba0c02a	-0.0049057202
66	0x3dda66fc	0.10664174
67	0x3dbcab62	0.09212376
68	0x3e1e4307	0.15455256
69	0x3c65bb7e	0.014021752
70	0xbea0356d	-0.3129076
71	0xbdbd2fe5	-0.09237651
72	0x3e44d044	0.19220072
73	0xbe2f864b	-0.17141072
74	0xbd5aa530	-0.05338019
75	0xbc67454e	-0.014115645
76	0x3d8a3b17	0.06749552
77	0x3d92f89d	0.071763255
78	0x3d2d5c4c	0.04232435
79	0x3e64de0c	0.22350329
80	0x3e496d50	0.19670606
81	0x3e23779c	0.15963596
82	0xbe4b26cf	-0.19839023
83	0x3e23c01b	0.15991251
84	0x3df8d016	0.12149064
85	0xbd6e479e	-0.05817377
86	0x3d87b687	0.06626611
87	0xbdc16783	-0.094435714
88	0xbe541251	-0.20710112
89	0x3e3741b1	0.17896153
90	0xbe839090	-0.2569623
91	0x3de79e79	0.11309523
92	0x3cc3eea8	0.023917511
93	0x3d3cd287	0.046099212
94	0x3e0c7806	0.1371766
95	0xbe3623f7	-0.17787157
96	0x3b99adb1	0.004689895
97	0x3d3c90cd	0.04603653
98	0x3d9fb186	0.07797532
99	0x3cf2fa44	0.029660352
100	0x3c127dda	0.008941138
101	0xbdfa07d8	-0.12208527
102	0xbdf37272	-0.11887063
103	0xbe333b05	-0.17502983
104	0xbd955d24	-0.07293156
105	0xbdf2b1b9	-0.11850304
106	0xbe44483f	-0.19168185
107	0xbe49db3d	-0.19712539
108	0x3df0e25f	0.11761927
109	0x3e2d04e1	0.16896392
110	0xbd5402d4	-0.05176051
111	0x3d8189b8	0.06325096
112	0xbe349409	-0.17634596
113	0x3db589b3	0.08864155
114	0xbda3479e	-0.07972644
115	0x3d4acdb8	0.049512595
116	0xbe6b7f61	-0.2299781
117	0x3d859da9	0.06524212
118	0xbc7ff690	-0.01562275
119	0x3df987d2	0.12184109
120	0x3b8be879	0.0042696563
121	0x3e2f4ec1	0.17119886
122	0xbd2cb4aa	-0.042164482
123	0xbdf30d8b	-0.118678175
124	0xbdd25afa	-0.10271259
125	0xbe44d6e9	-0.19222607
126	0xbd60362f	-0.054739174
127	0x3cfac702	0.030612472
128	0xbd995175	-0.0748624
129	0x3dc14dd3	0.09438672
130	0xbd934281	-0.07190419
131	0xbe520e27	-0.20513211
132	0x3e0c9ec0	0.13732433
133	0xbe074f0e	-0.1321375
134	0xbde63e9e	-0.11242412
135	0x3db2420b	0.08704003
136	0x3e30dec5	0.1727248
137	0xbd1b658e	-0.037938647
138	0x3e1113ca	0.14167705
139	0x3dd92055	0.1060187
140	0xbd110214	-0.035402372
141	0xbdfbdbe6	-0.12297802
142	0xbd3d81a6	-0.04626622
143	0x3d122316	0.03567799
144	0x3cb33eea	0.021880586
145	0x3d70e228	0.05880943
146	0x3d12688e	0.035744242
147	0xbd91771a	-0.07102795
148	0xbddf36b5	-0.108991064
149	0xbdcd6914	-0.10029808
150	0x3d00cefb	0.031447392
151	0xbd55ea4f	-0.052225407
152	0xbddab99e	-0.10679935
153	0xbdf43d20	-0.11925721
154	0xbd18a9a7	-0.037271168
155	0x3d91837b	0.07105156
156	0x3ddc7c09	0.10765845
157	0x3de92ea2	0.11385848
158	0xbd9bdbb8	-0.076102674
159	0xbdcf4bbd	-0.10121868
160	0x3e4d47d3	0.2004693
161	0x3e2a420f	0.16626762
162	0x3c1866b3	0.009301829
163	0x3d6670fb	0.05626009
164	0x3d81ba49	0.06334359
165	0x3d967237	0.073460035
166	0xbe41b512	-0.18916729
167	0xbd011acd	-0.0315197
168	0xbe57661b	-0.21035044
169	0xbe7deaf5	-0.2479666
170	0xbe1d6ee9	-0.1537434
171	0x3e0772d3	0.13227396
172	0x3d4078f3	0.046990346
173	0xbd8173fb	-0.0632095
174	0x3dea025a	0.1142623
175	0x3e10dce7	0.14146768
176	0x3c7f4e7f	0.01558268
177	0x3d2b8ba1	0.041881207
178	0x3d45631b	0.048190217
179	0x3d944c15	0.07241074
180	0x3d2f50be	0.04280161
181	0xbe327713	-0.17428236
182	0x3e42b8ad	0.1901576
183	0xbd9abf0d	-0.07555971
184	0xbe44aefd	-0.19207378
185	0x3db5aee2	0.08871247
186	0xbe2425fb	-0.16030113
187	0xbe5b34ed	-0.21406908
188	0x3d932e1d	0.0718653
189	0x3d95ae00	0.073085785
190	0x3e0431c8	0.12909615
191	0x3da3f21e	0.080051646
192	0xbe3cdc13	-0.18443327
193	0xbdaca0ca	-0.084291056
194	0x3e44dbbb	0.19224446
195	0x3e28e2a9	0.16492714
196	0x3e0323fc	0.12806696
197	0xbe3aa5c4	-0.18227297
198	0xbd8a768f	-0.067608945
199	0x3e28dfcb	0.1649162
200	0xbe0141b8	-0.12622726
201	0xbdb3b80d	-0.08775339
202	0x3dd1c2a6	0.10242204
203	0xbcdb57f0	-0.02677533
204	0xbe0c3e3d	-0.13695617
205	0x3e465365	0.1936775
206	0x3e18a71c	0.14907497
207	0xbc416e4d	-0.011806083
208	0x3b840f9f	0.0040301825
209	0xbd18b843	-0.0372851
210	0xbccb1be9	-0.024793582
211	0xbe3608cf	-0.17776798
212	0x3dc724c8	0.09723812
213	0x3d71bd9a	0.05901871
214	0xbe85bf76	-0.26122636
215	0xbde03707	-0.10947996
216	0xbc0ab5ba	-0.008466179
217	0xbd9ff718	-0.07810801
218	0xbe0488fc	-0.1294288
219	0xbd9d9a30	-0.076954246
220	0x3dc95970	0.09831512
221	0x3d82cb77	0.06386464
222	0xbe01c3c3	-0.12672333
223	0x3dfba6cd	0.12287674
224	0x3d337748	0.043814927
225	0xbe02d9f2	-0.12778452
226	0xbd9d1557	-0.07670086
227	0xbd5a336a	-0.05327169
228	0x3e07eace	0.13273165
229	0xbe568960	-0.20950842
230	0x3de06bab	0.10958036
231	0x3e0b23b4	0.13587838
232	0x3e329972	0.17441347
233	0x3d77c005	0.06048586
234	0xbc67fc0a	-0.014159212
235	0x3e07ccd2	0.13261726
236	0xbddaa6a5	-0.10676316
237	0x3e3bba78	0.18332851
238	0xbe2075ec	-0.15669984
239	0x3d96ce3d	0.073635556
240	0xbdfc6448	-0.12323815
241	0xbe1a790b	-0.15085237
242	0x3d6241de	0.055238597
243	0x3d8e2166	0.06939964
244	0x3d103a42	0.03521181
245	0xbc30adc5	-0.010783617
246	0xbd21435c	-0.03937088
247	0xbdd66df5	-0.104701914
248	0xbde47200	-0.11154556
249	0xbe253fe3	-0.16137652
250	0x3e2c6066	0.16833648
251	0x3d5e2c67	0.054241564
252	0x3e3ecd20	0.18632936
253	0x3dac0c9c	0.084008425
254	0xbe8702de	-0.26369375
255	0x3e1d4e82	0.1536198

gru.bias_ih_l0 f4 [96]
0	0xbdab128f	-0.08353149
1	0x3c86ec65	0.016470144
2	0x3db5a740	0.08869791
3	0x3db103f2	0.08643331
4	0xbdbcf6da	-0.09226771
5	0xbd5b5c39	-0.053554747
6	0x3d701ef0	0.058623254
7	0x3e0dc7a4	0.13845688
8	0x3e00c171	0.12573792
9	0x3e7c5018	0.24639928
10	0x3e095b8a	0.13413826
11	0x3c2a9aae	0.010412855
12	0x3d6ebaa4	0.058283463
13	0xbd8036f9	-0.06260485
14	0x3e3d46a6	0.18483981
15	0x3e162066	0.14660797
16	0x3cd5f371	0.026117058
17	0x3e24af75	0.16082557
18	0x3e19eee0	0.1503253
19	0xbd9b725e	-0.07590173
20	0xbc1915bd	-0.009343562
21	0x3d7cfbc3	0.061763536
22	0xbdd9e5a2	-0.10639502
23	0x3e0edbb5	0.13950999
24	0xbe3c048c	-0.1836111
25	0x3cac05c4	0.020998843
26	0xbe3011f6	-0.17194352
27	0xbe3cf7cc	-0.18453902
28	0x3db632ae	0.08896385
29	0xbdb5fe84	-0.08886436
30	0x3dd16f1d	0.10226271
31	0x3e215e83	0.1575871
32	0x3db13fb3	0.08654728
33	0xbd8fe070	-0.0702523
34	0x3e3d2ebd	0.1847486
35	0x3d13d28f	0.036089476
36	0x3e84d62c	0.2594465
37	0x3d8968ff	0.067094795
38	0x3e9784ff	0.29593655
39	0x3e2bc370	0.16773772
40	0xbcd2fd4f	-0.025755553
41	0xbdfc78c3	-0.12327721
42	0xbd8fae09	-0.070156164
43	0xbdfa758b	-0.12229451
44	0x3e0b8417	0.13624607
45	0xbce2eb64	-0.027700134
46	0x3d8487b3	0.06471195
47	0x3e4d394d	0.2004139
48	0x3e30a64c	0.17250937
49	0xbe50c9a3	-0.20389418
50	0x3e9cec56	0.3064906
51	0x3df6b303	0.120458625
52	0x3d8bd31a	0.06827374
53	0xbca9e278	-0.020737872
54	0x3e8c83ce	0.2744431
55	0x3e82b6ed	0.25530186
56	0xbda12625	-0.078686036
57	0x3d80ff65	0.06298713
58	0x3d827226	0.06369428
59	0x3e049410	0.12947106
60	0x3c3ee5e8	0.011651494
61	0x3e84da4d	0.259478
62	0x3e1834c9	0.14863886
63	0x3e4abeaa	0.19799295
64	0x3d58412e	0.052796535
65	0xbd625a5e	-0.055261962
66	0xbdaa5f70	-0.083189845
67	0xbe1cd613	-0.15316038
68	0xbe8bd5da	-0.27311593
69	0x3d8f7024	0.07003811
70	0xbe2e578e	-0.17025587
71	0xbe124826	-0.14285335
72	0x3e523358	0.20527399
73	0x3c9c4e91	0.019080432
74	0x3d03045f	0.03198659
75	0x3d61567d	0.055014122
76	0x3d2e3b90	0.042537272
77	0x3e466fb4	0.19378549
78	0x3de042d2	0.10950245
79	0xbdffedec	-0.12496552
80	0x3da58ae5	0.08083133
81	0xbd495d87	-0.04916146
82	0xbd85090b	-0.064958654
83	0xbda664a9	-0.08124668
84	0xbdf57c80	-0.11986637
85	0xbd04a1c2	-0.032380827
86	0x3e37552e	0.17903587
87	0xbd0a1921	-0.03371537
88	0xbd335d45	-0.04379012
89	0xbe2fb686	-0.17159471
90	0xbcb7dcd7	-0.022444172
91	0x3dd1906c	0.102326244
92	0xbe118c81	-0.14213754
93	0xbe2b9bd5	-0.16758664
94	0xbd69ab0e	-0.057047896
95	0x3ddaf51d	0.10691283

gru.bias_hh_l0 f4 [96]
0	0xbe0a0a6d	-0.1348054
1	0xbd600df8	-0.05470082
2	0xbd614cf7	-0.05500504
3	0xbe02c3cc	-0.12770003
4	0x3e5c0fd9	0.2149042
5	0x3cd0acb6	0.02547298
6	0x3ca396a1	0.019969286
7	0x3d90d6db	0.070722304
8	0x3e075067	0.13214265
9	0x3b6aa9b8	0.0035806727
10	0x3cd6cec7	0.026221646
11	0x3d144f46	0.036208414
12	0x3c28d896	0.010305544
13	0x3d75dec0	0.060026884
14	0xbd69d377	-0.057086434
15	0xbd442049	-0.047882352
16	0x3c3318cd	0.010931206
17	0xbc0d49a8	-0.008623518
18	0x3dd6f365	0.104956426
19	0xbdb7a626	-0.08967237
20	0xbe04b4f1	-0.12959649
21	0x3e7499f5	0.23886855
22	0xbd5cf44a	-0.05394391
23	0x3e03fb3a	0.12888804
24	0xbd8fe1f0	-0.07025516
25	0x3d528915	0.051400263
26	0xbe471a33	-0.19443588
27	0xbe1e9690	-0.15487123
28	0xbd4c0ea7	-0.04981866
29	0x3dc480fb	0.095949136
30	0xbe1cab1b	-0.15299647
31	0xbdbf4f41	-0.09341288
32	0x3d255c7c	0.040371403
33	0x3e2d194c	0.16904181
34	0x3dfd3d5f	0.12365221
35	0x3db671df	0.08908438
36	0xbd4337d1	-0.047660653
37	0x3ded8565	0.115977086
38	0x3e7d510c	0.24737948
39	0x3e51bf3e	0.2048311
40	0x3e26957f	0.16267966
41	0x3dcb93ee	0.09940325
42	0x3dd810d4	0.10550085
43	0x3d83eb0e	0.064413175
44	0x3e49afa0	0.19695902
45	0x3d7fdcd4	0.062466457
46	0xbd8924d5	-0.06696478
47	0xbde3955e	-0.11112474
48	0x3d90f833	0.0707859
49	0xbdcbe1ee	-0.09955202
50	0x3e4771a7	0.19476949
51	0xbc01a7ec	-0.007913571
52	0xbd078969	-0.03309003
53	0x3ddd7bfa	0.10814662
54	0x3e90919f	0.282361
55	0x3bd3ab9d	0.006459667
56	0xbd4950fb	-0.049149495
57	0x3d78c3cb	0.060733598
58	0x3ddd789b	0.10814019
59	0x3d37ed12	0.044903822
60	0x3e4b798d	0.19870587
61	0x3ca4ee45	0.020133147
62	0xbd69a95e	-0.057046287
63	0x3e66a4ac	0.22523755
64	0xbd10834e	-0.035281472
65	0xbda12a00	-0.07869339
66	0xbc7f2697	-0.015573165
67	0x3dd66c17	0.10469835
68	0xbe601946	-0.21884641
69	0xbd118ec9	-0.03553656
70	0x3df1ed72	0.11812867
71	0xbde5db96	-0.11223523
72	0x3e682277	0.22669397
73	0x3e11109d	0.14166494
74	0x3e13b2bc	0.1442365
75	0xbabf8acc	-0.0014613508
76	0xbe72d0f9	-0.23712529
77	0xbdd71ffe	-0.10504149
78	0x3dc89633	0.09794273
79	0x3df8a27c	0.121403664
80	0xbe70234d	-0.23450966
81	0x3d141c9c	0.036160097
82	0xbe0347af	-0.12820314
83	0xbdd5a607	-0.10432058
84	0xbd1c4125	-0.038148064
85	0xbd5c41f6	-0.053773843
86	0x3a6d2900	0.0009046942
87	0x3c1c0e80	0.009524941
88	0x3d03bc37	0.032161918
89	0xbda69471	-0.08133782
90	0x3da162f5	0.07880203
91	0xbd550704	-0.052008644
92	0x3c95436d	0.018220628
93	0xbd94e24f	-0.072697274
94	0x3d6957c9	0.056968484
95	0xbd375eee	-0.044768266

output_layer.weight f4 [2, 32]
0	0x3da4a00d	0.0803834
1	0x3e3b55f2	0.18294504
2	0xbd91016a	-0.07080348
3	0xbe28dda3	-0.16490798
4	0xbbbb4468	-0.005714942
5	0xbe606d4e	-0.21916696
6	0x3d143196	0.0361801
7	0x3d5c6bad	0.053813625
8	0x3e3106c1	0.17287733
9	0x3de9e5eb	0.114208065
10	0x3e188192	0.14893177
11	0x3ca4a6ff	0.020099161
12	0xbe8b7b37	-0.27242443
13	0x3ddea87e	0.10871981
14	0x3e1c9656	0.15291724
15	0xbdfe6521	-0.124216326
16	0xbe039ecc	-0.12853545
17	0x3d3e88f8	0.046517342
18	0xbd2a5067	-0.041580584
19	0xbdfab622	-0.1224177
20	0xbe8b748e	-0.27237362
21	0x3e53fc3a	0.20701686
22	0x3c4a6d92	0.012355225
23	0x3e395c5f	0.18101643
24	0xbe621415	-0.22077973
25	0xbd4b0697	-0.04956683
26	0xbe02d910	-0.12778115
27	0xbe04f7d4	-0.12985164
28	0xbe06c7e2	-0.13162187
29	0x3d26acf3	0.04069228
30	0xbe11bae0	-0.14231443
31	0x3e97044c	0.29495466
32	0xbe6ea391	-0.23304583
33	0xbd63cbf0	-0.05561441
34	0x3e79c668	0.24392092
35	0x3def9516	0.11698358
36	0xbead8d20	-0.33896732
37	0x3d3d4ccc	0.046215817
38	0x3e3c1dd7	0.18370758
39	0xbe2b6f49	-0.1674167
40	0xbd48c326	-0.049014233
41	0xbe87465c	-0.26420867
42	0xbe50100e	-0.20318624
43	0xbe3d960a	-0.18514267
44	0x3e174f29	0.14776291
45	0xbd0a5a60	-0.033777595
46	0xbe817442	-0.2528401
47	0x3e7f058a	0.24904457
48	0x3e330437	0.17482077
49	0x3e6d3fb2	0.23168829
50	0xbd8862b1	-0.06659449
51	0x3e7c06a0	0.24611902
52	0x3dac59b0	0.08415544
53	0xbd60244a	-0.054722108
54	0x3e6634d7	0.22481094
55	0xbe2be144	-0.16785151
56	0x3d4f4617	0.050603952
57	0x3e8bdba7	0.2731602
58	0x3e0395b3	0.12850074
59	0xbe22e550	-0.15907788
60	0x3d4c9fb9	0.04995701
61	0xbd469a69	-0.0484871
62	0x3db2f136	0.087374136
63	0xbda272b6	-0.079320356

output_layer.bias f4 [2]
0	0x3e1c1a8e	0.15244505
1	0xbdb19955	-0.08671824
