grud_output/split_1/checkpoint.pt (torch, 410402 bytes, 22 tensors)

rnn.cell.kernel_z f4 [128, 37]
0.47859785 -0.41800162 0.0529934 0.072779514 0.39760426 0.10708281 -0.2165403 0.22758204
-0.13527317 0.070530705 -0.38329887 0.059781514 -0.0047317934 0.9966487 -0.08168945 -0.4319417
0.6674165 0.1123263 -0.13844973 0.14269745 0.6411565 -0.00994537 -0.041508194 0.15643726
-0.8057374 0.47635525 0.13997406 -0.014226565 -0.69161713 -0.08569462 0.32622153 0.24590683
-0.06512959 0.55645686 0.27116224 0.07463883 0.41791677 0.08652687 0.13754217 -0.7039888
-0.4550854 -0.3508997 -0.101716414 0.05299034 -0.0954826 -0.4365505 -0.07597674 0.122822374
0.2396054 -0.3571652 0.4633414 0.112331316 0.06458435 -0.01655433 -0.5312143 -0.15511744
0.08628324 -0.07984689 -0.007948238 0.26583567 -0.11896511 0.11746561 0.54176944 -0.30819204
0.03831395 0.06881368 -0.59301776 -0.36115533 0.27685735 0.25945053 0.16547334 0.109209135
0.14837512 -0.40561867 0.69434506 -0.06463119 -0.04124299 0.35011795 0.33864433 0.5377589
-0.22516029 -0.3344239 -0.31606078 -0.17004785 -0.26749727 -0.7678639 -0.0538162 0.014526996
-0.11253071 -0.1253334 0.033573166 -0.3509135 0.049464457 0.039912194 -0.042791914 0.16945086
0.2723406 -0.00826834 -0.34881318 0.87901145 0.084380165 -0.14019217 -0.56462973 0.38780716
0.40824565 -0.13069192 -0.35035157 -0.03211261 -0.29274085 0.26354182 -0.44454333 -0.44582063
-0.29474524 -0.3171648 -0.27103522 0.085053936 1.4817818 0.8790043 0.7249319 -0.06970813
-0.37271234 1.1984811 -4.2977223 1.7562762 -0.27999863 0.07229503 0.30909783 -0.0289076
1.3763404 0.21569863 0.13650739 -0.8097548 0.55046105 -0.18813045 -0.2794824 1.0155268
-1.139212 0.68305546 -1.8133566 0.049056195 -0.5315703 -0.39328292 -0.14071643 -0.42640352
-0.0138939265 -1.4241247 1.3016449 -0.1938599 -0.20805588 -0.6017615 -0.49843132 -0.26761144
-0.10485533 0.13231055 -0.79198605 -0.48026225 -0.02639414 -0.001764038 -0.102243535 -0.47329423
0.008534694 0.06756645 -0.07771929 0.0249847 -0.25274146 0.26063487 0.20154172 -0.077781945
-1.1481851 -0.9546047 -0.6043402 0.40972403 0.07640824 0.15175235 -0.43762234 -0.16230613
0.23083684 -0.072660804 0.16884585 0.14038157 -0.32320648 0.12822104 -0.29291493 0.06103699
0.06554847 -0.23973879 -0.9121322 -0.8656355 -0.31347305 0.018469306 0.5855615 -0.7649557
-0.25235462 0.81799245 -0.9522619 1.2708902 0.7317081 0.3192797 -0.42505443 1.1186148
-0.29768318 1.5908809 -0.085319094 -0.78915024 0.06895584 -0.0736532 0.20216787 -0.40674153
-0.3384291 -0.15562657 -0.8431939 -0.26582026 0.5220341 -0.86000913 0.28228655 -1.5266887
0.5195735 -0.15447667 0.5165855 -1.1969002 -0.30536154 -0.9094753 -0.12723576 0.12521876
-0.20046882 -0.44485638 -0.49676067 0.86004484 0.5900326 0.10540035 0.3578543 -0.18302718
-0.91469514 0.9902656 -0.21658239 0.58155596 -0.41717133 0.72634995 -0.10686159 -0.30894285
-0.71774375 -0.18441723 -0.15122528 0.48354673 0.5234307 0.718189 -0.15448311 0.89065653
0.22352399 -0.27683073 -0.777923 0.01256927 0.33733496 0.3835675 0.23049535 -0.51037014
00000000: c70a f53e 4f04 d6be 9b0f 593d 6d0d 953d
00000010: c992 cb3e 3b4e db3d bebc 5dbe 440b 693e
00000020: 0d85 0abe 6772 903d c03f c4be 76dd 743d
00000030: 290d 9bbb 5f24 7f3f cc4c a7bd 7627 ddbe
00000040: cfdb 2a3f 550b e63d c4c5 0dbe 481f 123e
00000050: d522 243f e8f1 22bc 7f04 2abd 1731 203e
00000060: ce44 4ebf d6e4 f33e 5c55 0f3e 8a16 69bc
00000070: d20d 31bf a980 afbd 8206 a73e 00cf 7b3e
00000080: aa62 85bd f573 0e3f c7d5 8a3e 3edc 983d
00000090: 30f9 d53e 0035 b13d dbd7 0c3e 9c38 34bf
000000a0: f400 e9be 20a9 b3be b250 d0bd 660c 593d
000000b0: 628c c3bd 8c83 dfbe b199 9bbd 4c8a fb3d
000000c0: 1e5b 753e 5bde b6be 153b ed3e f60d e63d
000000d0: cd44 843d f29c 87bc a9fd 07bf 1bd7 1ebe
000000e0: 44b5 b03d c486 a3bd 5439 02bc 9d1b 883e
000000f0: fba3 f3bd cf91 f03d 67b1 0a3f 59cb 9dbe
00000100: 17ef 1c3d 30ee 8c3d 03d0 17bf 5ae9 b8be
00000110: 3fc0 8d3e b3d6 843e d871 293e 0aa9 df3d
00000120: a6ef 173e 40ad cfbe 99c0 313f 5b5d 84bd
00000130: 69ee 28bd a942 b33e ca62 ad3e 91aa 093f
00000140: 6b90 66be 9c39 abbe b8d2 a1be 0621 2ebe
00000150: 67f5 88be bb92 44bf 606e 5cbd a302 6e3c
00000160: 8076 e6bd 6657 00be 0484 093d efaa b3be
00000170: 3e9b 4a3d f87a 233d 9346 2fbd 8784 2d3e
00000180: 3a70 8b3e ee77 07bc a497 b2be e506 613f
00000190: 82cf ac3d 898e 0fbe 938b 10bf a98e c63e
000001a0: 9305 d13e 1ad4 05be 4861 b3be 8388 03bd
000001b0: 21e2 95be f4ee 863e 2f9b e3be 9a42 e4be
000001c0: d9e8 96be 6d63 a2be 21c5 8abe c230 ae3d
000001d0: 07ab bd3f 6d06 613f 2395 393f 23c3 8ebd
000001e0: 27d4 bebe d467 993f f186 89c0 a9cd e03f
000001f0: fb5b 8fbe 6b0f 943d 1242 9e3e a2cf ecbc
00000200: ec2b b03f 1ae0 5c3e 98c8 0b3e 174c 4fbf
00000210: 04eb 0c3f 45a5 40be 5118 8fbe c8fc 813f
00000220: b3d1 91bf b9dc 2e3f 121c e8bf 26ef 483d
00000230: fe14 08bf 615c c9be f817 10be 9051 dabe
00000240: 5aa3 63bc b849 b6bf 4d9c a63f 3683 46be
00000250: 9a0c 55be 0b0d 1abf 6432 ffbe 5e04 89be
00000260: 64be d6bd 6b7c 073e 99bf 4abf efe4 f5be
00000270: 8638 d8bc 4b37 e7ba 0f65 d1bd 9f53 f2be
00000280: 1ad5 0b3c 4760 8a3d 4b2b 9fbd b7ac cc3c
00000290: 5467 81be ef71 853e f460 4e3e 244c 9fbd
000002a0: bbf7 92bf f960 74bf 0ab6 1abf 59c7 d13e
000002b0: ec7b 9c3d f864 1b3e 0910 e0be 9433 26be
000002c0: 7e60 6c3e 30cf 94bd ede5 2c3e 30c0 0f3e
000002d0: 527b a5be 604c 033e f2f8 95be ec01 7a3d
000002e0: 473e 863d 167e 75be 7f81 69bf 4a9a 5dbf
000002f0: 8a7f a0be f14c 973c 5ce7 153f 23d4 43bf
00000300: a034 81be f467 513f 70c7 73bf 88ac a23f
00000310: 3951 3b3f a178 a33e bca0 d9be c52e 8f3f
00000320: ee69 98be fca1 cb3f c7bb aebd c005 4abf
00000330: b838 8d3d 7dd7 96bd 1805 4f3e 6d40 d0be
00000340: 9446 adbe 925c 1fbe 8edb 57bf 9819 88be
00000350: 07a4 053f 8f29 5cbf dd87 903e 896a c3bf
00000360: c502 053f 222f 1ebe f33e 043f 0734 99bf
00000370: 5958 9cbe 60d3 68bf 174a 02be 5939 003e
00000380: b347 4dbe 37c4 e3be 6a57 febe e62b 5c3f
00000390: 600c 173f 24dc d73d ae38 b73e 7a6b 3bbe
000003a0: 7629 6abf 0c82 7d3f c6c7 5dbe dae0 143f
000003b0: 7b97 d5be 12f2 393f 40da dabd c22d 9ebe
000003c0: 0ebe 37bf dfd7 3cbe cdda 1abe 7093 f73e
000003d0: 8eff 053f 3cdb 373f d230 1ebe 1102 643f
000003e0: 79e3 643e c2bc 8dbe f625 47bf 57ef 4d3c
000003f0: 2bb7 ac3e f662 c43e f906 6c3e 9ea7 02bf

rnn.cell.kernel_r f4 [128, 37]
-0.19724518 1.4054332 -0.86496633 -0.18589978 -0.25948006 0.9987818 1.2151386 -0.543601
0.13560447 -0.83337456 -0.48583794 -0.5327048 -0.45644155 -0.2738214 -0.1893752 -1.0039622
-0.11826782 -0.019506615 0.9389358 -0.07797733 1.0318877 -0.7910601 0.56571513 -0.5486253
0.022428807 -0.22866157 0.43293428 0.46007425 -1.6865623 -0.46352676 0.61117554 -1.1323969
-0.03287526 1.189595 -0.3493582 -0.09877901 -0.45193505 0.1998928 0.48291004 0.041507255
-0.07924299 -0.2574212 -0.2679202 -0.030408243 -0.065699585 0.28840432 -0.22945815 0.05568939
0.003241217 -0.4053641 0.08681503 -0.08780969 0.109664895 0.037289955 0.04102584 0.054539748
0.18805772 -0.10079706 0.03146581 -0.04205507 0.045088865 0.18583274 0.07037223 0.41785476
-0.32652646 0.10897134 0.019267904 0.14431262 -0.99527776 0.13420326 0.010173624 0.06064083
-0.17938259 -0.1472421 0.25665545 0.8366288 -0.86469114 -0.89855146 -0.5076828 0.39839494
0.095709436 0.07361042 0.9258393 0.24583533 0.7160229 0.37930644 -0.16208969 0.34298846
-0.2832786 1.1572267 0.64518386 -0.84295815 0.12067426 -0.17282878 0.61449087 -0.34284508
0.19735028 -0.5033467 -2.2006996 0.50687677 -0.42564052 -0.48314658 0.36177433 -0.0508891
-1.0566903 0.10356607 0.5540409 -0.31087682 0.47441533 0.28355268 0.8116707 -0.34210265
-0.33119574 -0.03792247 -0.44645885 0.39580688 0.29974285 -0.7087882 0.09217237 -0.46576068
-0.3051903 -0.75370836 0.014800259 0.07343523 -0.14103004 0.053229973 0.5634841 -0.28068194
-0.7321261 0.25533107 0.0069354475 -0.7247329 -0.08756851 -0.4326596 0.5383359 0.26071402
-0.11173942 -0.47733176 0.33654663 0.21286674 -0.3495517 0.019752914 0.046984795 0.7703833
-0.4419337 -0.2615923 -0.3893262 0.3823462 -0.011248198 -0.18059184 -0.095255725 0.13248034
0.12389072 -0.9157926 -0.23180303 0.3813038 -0.60595816 0.8981484 -0.12996918 0.22610718
0.7561817 0.7289515 -0.35687935 -0.370228 0.05838781 0.1837048 0.5123682 -0.07533359
-0.72366905 1.2158768 1.8361617 1.0935836 0.82105917 0.07187949 0.726353 -0.9251636
-0.38165376 1.0898117 1.0475724 0.60784394 -0.64166677 1.2845922 0.3216202 -0.06487586
0.6094909 0.019452503 0.02268764 0.39645806 0.62641996 0.5710347 -0.43278518 -1.2295063
0.31553438 -0.311275 -0.38159472 0.44714567 0.73094124 0.32552683 0.33559978 -0.6608621
-0.0059076142 -0.052104034 0.0786476 0.16837515 0.16146708 -0.117556915 0.24249052 0.36876932
0.2207074 0.16146275 0.97827584 0.009892309 -0.21747859 0.019155297 0.29194617 -0.29606313
0.02588728 -0.14358374 0.029281888 -0.606539 -0.16965409 -0.26499173 0.50382924 -0.80696255
1.2566116 1.2393022 0.52273685 -0.1813779 -0.30469647 -0.08734625 0.10298025 1.5839199
1.457575 0.32089064 -0.66960937 0.5507876 0.7148941 0.34380677 -0.12305908 -0.067566946
-0.011094919 -0.0346632 0.34987938 0.18765749 0.3381771 -0.35877427 -0.04326568 -1.012087
-0.4563815 0.8258098 0.6241009 -1.43823 1.3006626 0.113502786 -0.5747349 -0.7482955
00000000: a4fa 49be 3ce5 b33f 6f6e 5dbf 835c 3ebe
00000010: 92da 84be 2ab0 7f3f a989 9b3f 6f29 0bbf
00000020: e6db 0a3e 0958 55bf c0bf f8be 575f 08bf
00000030: b5b2 e9be 5232 8cbe 93eb 41be d581 80bf
00000040: 6636 f2bd 56cc 9fbc 195e 703f 94b2 9fbd
00000050: e514 843f ea82 4abf b5d2 103f b572 0cbf
00000060: 9ebc b73c 4226 6abe 90a9 dd3e da8e eb3e
00000070: 46e1 d7bf 6153 edbe 0076 1c3f 62f2 90bf
00000080: 35a8 06bd a644 983f 14df b2be a64c cabd
00000090: 0864 e7be b3b0 4c3e fc3f f73e 8303 2a3d
000000a0: 264a a2bd b6cc 83be d62c 89be b51a f9bc
000000b0: 818d 86bd bba9 933e 14f7 6abe 8f1a 643d
000000c0: 996a 543b e28b cfbe 14cc b13d 91d5 b3bd
000000d0: fd97 e03d 5abd 183d b60a 283d 1265 5f3d
000000e0: 3492 403e b06e cebd 4be2 003d f041 2cbd
000000f0: 1aaf 383d f04a 3e3e 511f 903d 0ff1 d53e
00000100: 7a2e a7be 5e2c df3d b9d7 9d3c b0c6 133e
00000110: 86ca 7ebf 946c 093e 46af 263c 8562 783d
00000120: 12b0 37be a2c6 16be 5868 833e 4e2d 563f
00000130: 665c 5dbf 7807 66bf 80f7 01bf 6cfa cb3e
00000140: 4f03 c43d 0fc1 963d ce03 6d3f 42bc 7b3e
00000150: 474d 373f 7434 c23e d7fa 25be 2f9c af3e
00000160: e509 91be 0120 943f c52a 253f 1bcc 57bf
00000170: 1124 f73d 07fa 30be 464f 1d3f 6489 afbe
00000180: 3116 4a3e 54db 00bf 43d8 0cc0 adc2 013f
00000190: 8eed d9be fd5e f7be 7c3a b93e 1771 50bd
000001a0: a141 87bf 731a d43d a0d5 0d3f 3f2b 9fbe
000001b0: 91e6 f23e d12d 913e a7c9 4f3f 1428 afbe
000001c0: 7d92 a9be 9854 1bbd 4196 e4be 33a7 ca3e
000001d0: e577 993e 2573 35bf dec4 bc3d 2f78 eebe
000001e0: e741 9cbe 08f3 40bf c97c 723c 3665 963d
000001f0: 2e6a 10be ac07 5a3d 7e40 103f 8bb5 8fbe
00000200: 9e6c 3bbf c1ba 823e c042 e33b 1888 39bf
00000210: 1e57 b3bd 8f85 ddbe 62d0 093f 4f7c 853e
00000220: a3d7 e4bd d464 f4be d74f ac3e bdf9 593e
00000230: 71f8 b2be ddd0 a13c 2173 403d d737 453f
00000240: 2245 e2be 6def 85be c455 c7be e2c2 c33e
00000250: 5d4a 38bc 11ed 38be 6f15 c3bd eda8 073e
00000260: 6bba fd3d 6271 6abf c65d 6dbe 403a c33e
00000270: 1320 1bbf 0eed 653f a416 05be a488 673e
00000280: 2095 413f 919c 3a3f e4b8 b6be 868e bdbe
00000290: 0e28 6f3d 1c1d 3c3e 902a 033f 7f48 9abd
000002a0: 6042 39bf daa1 9b3f 5907 eb3f 8cfa 8b3f
000002b0: ef30 523f 8e35 933d 45f2 393f 86d7 6cbf
000002c0: 1f68 c3be f37e 8b3f da16 863f a99b 1b3f
000002d0: 4644 24bf 846d a43f 67ab a43e a3dd 84bd
000002e0: 9807 1c3f db5a 9f3c 6edb b93c 8dfc ca3e
000002f0: 0f5d 203f 552f 123f 0596 ddbe 7660 9dbf
00000300: b98d a13e 705f 9fbe 6260 c3be 47f0 e43e
00000310: f71e 3b3f 74ab a63e bcd3 ab3e 422e 29bf
00000320: a994 c1bb 0a6b 55bd fe11 a13d 896a 2c3e
00000330: a057 253e aec1 f0bd 6f4f 783e 55cf bc3e
00000340: 1f01 623e 7e56 253e 4970 7a3f 5a13 223c
00000350: b5b2 5ebe 92eb 9c3c f879 953e 9695 97be
00000360: 9011 d43c 9e07 13be 92e0 ef3c 2446 1bbf
00000370: cdb9 2dbe ffac 87be f4fa 003f 1995 4ebf
00000380: a6d8 a03f 74a1 9e3f 15d2 053f 21bb 39be
00000390: 2d01 9cbe 97e2 b2bd 4fe7 d23d e3bd ca3f
000003a0: d191 ba3f c74b a43e 856b 2bbf 6b00 0d3f
000003b0: 4d03 373f 7107 b03e 6606 fcbd 8a60 8abd
000003c0: 77c7 35bc 00fb 0dbd 6423 b33e 4929 403e
000003d0: 8d25 ad3e 43b1 b7be 5b37 31bd 118c 81bf
000003e0: d6aa e9be 4568 533f 14c5 1f3f ec17 b8bf
000003f0: 1d7c a63f 2674 e83d d421 13bf 4b90 3fbf

rnn.cell.kernel_h f4 [128, 37]
-0.028521083 0.28172532 0.2219528 0.3916731 -0.41701695 -0.080998346 -0.043284774 -0.3102968
0.051651794 0.078658305 -0.006314952 -0.325919 0.21327652 0.068644136 0.11200065 -0.23562081
0.4131918 0.34371096 0.07113694 -0.017428547 -0.43699884 0.02342801 -0.115556106 -0.39147052
-0.34026626 -0.6057476 0.05776198 0.67983913 0.29120207 0.011786969 0.16731766 -0.08283978
0.051015478 0.24093877 -0.6520815 0.32282186 -0.12316555 -0.22766866 1.17413 1.1169951
1.2039781 0.50382406 0.49093738 0.6289093 -0.45751318 -0.17966765 -0.39607096 1.3539062
-0.86449754 -0.07255662 -1.2856529 0.8824829 1.0856909 -1.3503578 0.017048227 -1.5249301
-0.1603312 -0.29318416 -0.62108266 -0.7664324 -0.6928395 -0.4615412 0.62745374 -0.9899442
0.016471012 0.71854556 -0.95873386 -1.7977512 -0.04667844 -0.80184406 -0.49268007 -1.3960571
0.8967295 0.31768295 0.8480129 0.12383706 1.4072223 0.49812546 0.23718432 0.018476536
0.6885392 -0.2651128 -0.27497247 0.26584515 -1.0413332 -0.059279602 0.43441275 -0.7085469
-0.34213263 0.102030426 -0.41981074 0.25577772 0.32412747 -0.15943466 0.028232524 0.7208621
-0.06422023 0.26163355 0.56749743 -0.73624337 0.66192675 -0.54143375 -0.17039672 -0.5086518
0.44282466 0.41095924 0.50679934 -1.016444 -0.054518625 -1.2960694 -0.12084653 0.044891156
0.29564843 -0.42580462 -0.571285 1.679451 -1.3793547 -0.7161342 0.045012206 -1.6681882
0.5254092 -0.96908134 2.0116124 -0.77239066 0.51245564 0.90279233 -0.5946191 -1.4572842
-0.64748156 -0.406687 0.065749794 0.15290402 0.35522604 -0.110803254 0.37006837 -0.16819298
-0.042853232 -0.22003184 -0.19238588 -0.81869227 1.183256 -0.6663985 1.0352929 -0.18521903
0.53950834 -0.07687272 -1.5792685 -0.12852259 -0.039105486 0.061016638 -0.2749426 -0.21579194
0.078066446 0.19034956 -0.579075 0.04422369 0.07278125 -0.13977897 -0.19803357 -0.0673676
0.2370747 -0.06847181 0.0041259727 -0.12311675 -0.09654756 -0.04466659 -0.13219538 0.09992188
0.23918925 -0.012219498 0.14048629 -0.06212087 0.13727474 -0.30966645 0.050530903 -0.2084993
-0.010846844 0.25798807 0.2341454 0.22833315 0.09249339 -0.20305735 0.12521195 0.16678347
0.1047466 0.10667688 0.6162674 -0.41189623 -0.09214943 0.15368755 0.118568935 0.35291418
-0.04322384 0.17292044 -0.14051348 0.11826835 1.0785193 0.42954192 0.3618417 -0.38697723
-0.22485869 -0.16575578 0.3121867 0.010400248 -0.005773172 -0.11162745 0.06426977 -0.27836287
-0.08641134 0.14748727 0.45657915 -0.006103789 -0.1175226 0.58649284 -0.49844253 -0.019285185
-0.017106725 -0.10225791 0.30224872 -0.2829319 0.27265346 0.9297054 -0.04659009 -0.229064
-0.12847984 -0.46306393 0.3821517 0.22181258 0.7860963 0.222209 0.21693112 -0.1001187
0.24484374 -0.078504935 -0.01606215 0.2490426 -0.20802952 0.22836773 -0.07583112 -0.2411121
0.20490308 0.17047799 -0.37670144 -0.48766586 -0.32208622 -0.2711206 0.46402577 -0.28594506
-0.25663072 -0.19150288 0.24644755 -0.17918545 0.24933523 -0.033709396 0.0631475 -0.1645171
00000000: 0ca5 e9bc 4d3e 903e 9847 633e 6089 c83e
00000010: 3f83 d5be 76e2 a5bd 604b 31bd 39df 9ebe
00000020: d590 533d 9b17 a13d a8ed cebb dbde a6be
00000030: 2965 5a3e 4c95 8c3d 9960 e53d 9546 71be
00000040: e08d d33e e2fa af3e 3eb0 913d 50c6 8ebc
00000050: 50be dfbe 19ec bf3c aea8 ecbd d36e c8be
00000060: 6137 aebe 4612 1bbf d397 6c3d f009 2e3f
00000070: 7018 953e 221e 413c 5255 2b3e e7a7 a9bd
00000080: 9bf5 503d a7b8 763e d0ee 26bf e848 a53e
00000090: 383e fcbd f921 69be e449 963f b2f9 8e3f
000000a0: f41b 9a3f 9dfa 003f 255c fb3e 3300 213f
000000b0: 2b3f eabe ccfa 37be d0c9 cabe cc4c ad3f
000000c0: b64f 5dbf 9198 94bd 4690 a4bf 66ea 613f
000000d0: ebf7 8a3f 86d8 acbf b9a8 8b3c e930 c3bf
000000e0: dd2d 24be 3c1c 96be 46ff 1ebf ea34 44bf
000000f0: ee5d 31bf 214f ecbe cfa0 203f fc6c 7dbf
00000100: 37ee 863c 9af2 373f 956f 75bf b61c e6bf
00000110: e431 3fbd a745 4dbf 9040 fcbe 00b2 b2bf
00000120: 1190 653f 57a7 a23e 6017 593f 499e fd3d
00000130: dc1f b43f 4d0a ff3e 72e0 723e 1b5c 973c
00000140: 1b44 303f ddbc 87be 31c9 8cbe db1c 883e
00000150: 684a 85bf 2bcf 72bd 596b de3e 5463 35bf
00000160: 022c afbe 54f5 d03d 6ff1 d6be 4cf5 823e
00000170: 09f4 a53e d742 23be e547 e73c 6b8a 383f
00000180: e585 83bd d5f4 853e 8347 113f 727a 3cbf
00000190: 0874 293f 679b 0abf 7a7c 2ebe 0137 02bf
000001a0: eab9 e23e 4069 d23e 9abd 013f d61a 82bf
000001b0: ec4e 5fbd 9ae5 a5bf 637e f7bd cadf 373d
000001c0: 3b5f 973e 1003 dabe bc3f 12bf 40f8 d63f
000001d0: b28e b0bf 9254 37bf b85e 383d 3187 d5bf
000001e0: 3881 063f b715 78bf 42be 0040 65bb 45bf
000001f0: 4b30 033f 661d 673f f538 18bf 4a88 babf
00000200: 5ac1 25bf 4739 d0be d4a7 863d df92 1c3e
00000210: 30e0 b53e d1ec e2bd 9a79 bd3e c83a 2cbe
00000220: df86 2fbd 0750 61be ce00 45be d195 51bf
00000230: ef74 973f 1899 2abf 7a84 843f 0faa 3dbe
00000240: 381d 0a3f 726f 9dbd 7825 cabf 6d9b 03be
00000250: 132d 20bd 95ec 793d 47c5 8cbe 90f8 5cbe
00000260: 4de1 9f3d ffea 423e 423e 14bf e623 353d
00000270: 560e 953d 3822 0fbe 50c9 4abe 06f8 89bd
00000280: b6c3 723e f33a 8cbd 2b33 873b a224 fcbd
00000290: baba c5bd 50f4 36bd 3a5e 07be d8a3 cc3d
000002a0: 07ee 743e 4a34 48bc a3db 0f3e 7472 7ebd
000002b0: c091 0c3e 9a8c 9ebe 7ef9 4e3d d780 55be
000002c0: f6b6 31bc 0317 843e d0c3 6f3e 2ad0 693e
000002d0: 2d6d bd3d 44ee 4fbe 9037 003e 49c9 2a3e
000002e0: 6385 d63d 6879 da3d b3c3 1d3f 10e4 d2be
000002f0: d7b8 bcbd 4560 1d3e 45d4 f23d 2bb1 b43e
00000300: 7b0b 31bd 0e12 313e c4e2 0fbe ad36 f23d
00000310: ec0c 8a3f ebec db3e 5143 b93e e121 c6be
00000320: 5b41 66be e2bb 29be efd6 9f3e cd65 2a3c
00000330: e02c bdbb ef9c e4bd df9f 833d 9485 8ebe
00000340: 6ef8 b0bd e706 173e bec4 e93e 4b02 c8bb
00000350: b0af f0bd 6524 163f dc33 ffbe f7fb 9dbc
00000360: 6723 8cbc 986c d1bd 58c0 9a3e 73dc 90be
00000370: 3c99 8b3e 2c01 6e3f 40d5 3ebd c18f 6abe
00000380: 3890 03be b716 edbe 63a9 c33e d622 633e
00000390: 9b3d 493f c28a 633e 3123 5e3e 080b cdbd
000003a0: 51b8 7a3e 32c7 a0bd c594 83bc 0605 7f3e
000003b0: b105 55be 3bd9 693e 594d 9bbd 17e6 76be
000003c0: 1dd2 513e c891 2e3e 03df c0be 57af f9be
000003d0: 7ce8 a4be 52d0 8abe c994 ed3e 6467 92be
000003e0: 1a65 83be 5519 44be bf5c 7c3e 647c 37be
000003f0: bc51 7f3e dd12 0abd 7a53 813d 2c77 28be

rnn.cell.recurrent_kernel_z f4 [128, 128]
0.7064767 -0.35870972 -0.87540203 -0.23330562 0.17915206 -0.056586012 -0.13812202 0.8136431
-0.29799312 -0.3874992 -0.10444603 0.026965063 -1.068217 0.23780276 -0.32431623 1.1776701
-0.7427829 -0.016221358 0.29696995 -0.11459559 -0.33542132 -0.120611556 0.19751112 0.012307512
0.078961834 -0.995536 -0.039413046 0.31121454 0.7909032 0.8975014 0.5332615 0.39939594
-0.34798715 -0.82741815 0.09628763 0.77032524 0.26945767 -0.03902613 -0.2556429 -0.054720577
-0.63819927 0.26181322 -0.8957594 -0.8905432 -0.09562469 0.041845847 -0.78759533 -0.40773776
-0.17684956 -0.546288 -0.21324752 1.3913596 -0.34080526 0.38529295 0.8325323 -0.20999013
0.18782482 -0.7507439 0.666838 0.75231826 -0.12512065 -0.48653036 -0.6214643 -0.38555926
-0.57801104 0.3933698 -0.7193053 0.6148673 -0.06187737 0.17394052 -0.0048510428 1.0302163
0.5603802 0.5864493 0.6458027 -0.46084067 -0.22642136 0.35977185 -0.43247285 1.1586877
-0.5042262 0.121076696 0.89336175 -0.35336155 1.1316856 -0.09236358 -0.34565672 -0.22100814
0.47947958 0.9351285 0.35371333 0.16783535 -0.7491412 -0.05090351 0.35178664 0.73787045
-0.3298251 0.841365 -0.18702435 0.34801304 0.8611318 -0.74873585 0.93811363 -0.0048402953
0.2723989 -0.05340618 0.05985194 -0.24168347 0.07440014 0.38101274 1.046781 -0.30796474
-0.7875722 0.62484777 0.4806463 0.16637716 1.2407607 -0.11254267 -0.5947885 -0.53539884
0.75790584 -0.2765857 0.013586252 0.4027401 0.42377132 -0.36892733 -1.0918053 0.5253193
0.029344577 0.25349307 -0.666669 0.09922922 0.31138688 -0.15826175 0.24542238 -0.08780915
0.2141091 -0.3288012 -0.08381956 -0.5650562 -0.020022877 -0.35861924 -0.00022781339 0.15787
0.29895467 0.4902956 0.113911316 -0.5498815 0.07168231 -0.11310766 -0.3897292 0.021758534
-0.0040846723 0.039542332 0.26862568 -0.055726387 0.079346776 0.10881713 0.55014 0.19609338
-0.17508204 -0.07987723 0.1543052 -0.09663056 -0.34259298 0.40873954 -0.06682746 0.064252235
0.42371 0.37283567 0.15191527 -0.37673151 0.27537325 -0.08018097 0.18529302 -0.32142836
0.1761981 0.24266584 0.2027847 -0.13267446 0.5567603 0.27664632 -0.014899937 -0.17157255
0.23503609 -0.08336891 -0.061116118 0.00895297 -0.8713411 -0.013887533 -0.018307686 -0.3067642
-0.27090698 -0.04681947 -0.05655042 0.42900637 0.40781662 0.3396369 -0.31782553 0.060837682
0.007180485 -0.20675987 -0.17527625 0.35148847 0.16125202 0.20701976 0.25048238 -0.0020541656
0.18629919 0.078295514 0.33441705 0.39280993 -0.21268949 -0.004876916 0.24693465 -0.33864188
0.59837526 0.27915245 0.16379231 0.27618095 -0.09585086 0.11498177 0.28727278 0.37330207
-0.27605578 0.4003961 -0.3171018 0.39880398 -0.32646453 -0.23579259 0.20846894 0.48781732
0.042813383 0.25244 -0.017583812 -0.89581364 0.14497317 0.75366443 0.06508635 -0.11214998
-0.23723839 0.31166455 0.536561 -0.012619278 0.20895052 -0.058756206 0.67639244 0.32778737
0.2534061 0.22546628 0.05793082 -0.0005246791 0.2355979 -0.26245952 0.16070737 0.14543273
00000000: a8db 343f cda8 b7be 591a 60bf abe7 6ebe
00000010: a373 373e bcc6 67bd dc6f 0dbe ea4a 503f
00000020: 8e92 98be 4c66 c6be cde7 d5bd d6e5 dc3c
00000030: 56bb 88bf 9182 733e c70c a6be e5bd 963f
00000040: 0527 3ebf a7e2 84bc 720c 983e 18b1 eabd
00000050: 58bc abbe 3103 f7bd 5b40 4a3e 72a5 493c
00000060: beb6 a13d 73db 7ebf 936f 21bd 8357 9f3e
00000070: a278 4a3f a7c2 653f d383 083f a07d cc3e
00000080: 5f2b b2be add1 53bf 7332 c53d 0934 453f
00000090: 5bf6 893e ddd9 1fbd a0e3 82be af22 60bd
000000a0: 0761 23bf 620c 863e 7d50 65bf a4fa 63bf
000000b0: e1d6 c3bd 8d66 2b3d d99f 49bf 01c3 d0be
000000c0: 0d18 35be 88d9 0bbf 8f5d 5abe 1218 b23f
000000d0: 077e aebe 1e45 c53e d620 553f a707 57be
000000e0: 2655 403e c130 40bf e5b5 2a3f ee97 403f
000000f0: a11f 00be 821a f9be 4918 1fbf 0668 c5be
00000100: 88f8 13bf c467 c93e 6424 38bf f267 1d3f
00000110: 2073 7dbd 771d 323e 7ff5 9ebb 21de 833f
00000120: 1475 0f3f 8b21 163f 5353 253f 4ff3 ebbe
00000130: 00db 67be 0434 b83e 156d ddbe e14f 943f
00000140: f814 01bf 0ff7 f73d 5bb3 643f ceeb b4be
00000150: 13db 903f 1e29 bdbd ebf9 b0be f54f 62be
00000160: 597e f53e 9564 6f3f ea19 b53e 08dd 2b3e
00000170: b8c7 3fbf 3380 50bd 611d b43e 14e5 3c3f
00000180: d6de a8be b263 573f 5083 3fbe c42e b23e
00000190: 2273 5c3f 27ad 3fbf 3728 703f 579b 9ebb
000001a0: de77 8b3e 70c0 5abd 4f27 753d df7b 77be
000001b0: 1a5f 983d 1a14 c33e ebfc 853f 8ead 9dbe
000001c0: 559e 49bf 06f6 1f3f 4617 f63e c65e 2a3e
000001d0: 3fd1 9e3f c57c e6bd 0f44 18bf e60f 09bf
000001e0: 1e06 423f a49c 8dbe df98 5e3c f333 ce3e
000001f0: 8ef8 d83e 0be4 bcbe 47c0 8bbf 537b 063f
00000200: 0a64 f03c d8c9 813e d2aa 2abf b038 cb3d
00000210: 1a6e 9f3e 5e0f 22be 0150 7b3e 49d5 b3bd
00000220: 6a3f 5b3e a258 a8be 97a9 abbd 86a7 10bf
00000230: 0407 a4bc f19c b7be 31e1 6eb9 aca8 213e
00000240: 9610 993e 0608 fb3e 564a e93d 09c5 0cbf
00000250: 2dce 923d fda4 e7bd 968a c7be f43e b23c
00000260: b7d8 85bb 24f7 213d 4e89 893e 5a41 64bd
00000270: 9080 a23d 84db de3d fad5 0c3f b4cc 483e
00000280: b548 33be ac96 a3bd 2f02 1e3e 3ee6 c5bd
00000290: 5968 afbe 4f46 d13e d6dc 88bd ad96 833d
000002a0: 84f0 d83e 51e4 be3e ad8f 1b3e f4e2 c0be
000002b0: b9fd 8c3e ec35 a4bd 74bd 3d3e 4292 a4be
000002c0: 466d 343e 657d 783e cba6 4f3e d0db 07be
000002d0: d887 0e3f 96a4 8d3e de1e 74bc b7b0 2fbe
000002e0: 4dad 703e 52bd aabd e554 7abd 7aaf 123c
000002f0: 3610 5fbf 8988 63bc 00fa 95bc 3210 9dbe
00000300: 52b4 8abe c6c5 3fbd 6aa1 67bd b9a6 db3e
00000310: 57cd d03e e3e4 ad3e 07ba a2be ef30 793d
00000320: 464a eb3b dcb8 53be 9e7b 33be 4cf6 b33e
00000330: 401f 253e fdfc 533e 3a3f 803e 2e9f 06bb
00000340: 37c5 3e3e 6659 a03d b638 ab3e 621e c93e
00000350: 46cb 59be 89ce 9fbb 70dc 7c3e 7862 adbe
00000360: 1f2f 193f 12ed 8e3e 2cb9 273e 9767 8d3e
00000370: 754d c4bd 907b eb3d 6b15 933e 7321 bf3e
00000380: 2f57 8dbe b800 cd3e 2b5b a2be 0930 cc3e
00000390: 5c26 a7be 9d73 71be e278 553e 31c3 f93e
000003a0: 165d 2f3d d13f 813e ed0b 90bc 0b54 65bf
000003b0: d973 143e 27f0 403f fe4b 853d e4ae e5bd
000003c0: 9fee 72be 7f92 9f3e 105c 093f 17c1 4ebc
000003d0: 20f7 553e 59aa 70bd 0e28 2d3f bfd3 a73e
000003e0: 72be 813e a2e0 663e de48 6d3d 9e8a 09ba
000003f0: 9340 713e 1861 86be 7990 243e 51ec 143e

rnn.cell.recurrent_kernel_r f4 [128, 128]
0.6944963 -0.1966888 -0.41808385 -0.16170636 -0.13538823 -0.67222077 0.2370699 -0.23137282
-0.43087724 -0.17465141 -0.48392144 0.71919453 -1.2904896 -0.1216127 -0.42998555 0.96194166
-1.0780505 0.46882826 1.2976514 -0.14881372 -0.70600384 -0.50146013 -0.7752535 -1.0425851
1.0016594 -0.6017026 -0.2072913 0.45228675 1.2120907 0.09531204 -0.10853954 -0.96229106
-0.37240645 -1.1644245 0.017141258 0.08177469 0.19410375 -0.021018544 0.63401496 -0.7225111
-0.47602922 0.17883942 -0.80121297 -0.95666504 -0.046949916 -0.3615384 -0.55583334 -0.90424746
-0.8208334 -0.4635463 -1.3750598 1.204454 -0.5271366 -0.87020946 0.4653561 0.06961722
0.19711553 -0.79637134 0.5757018 -0.4947749 -0.46561384 0.1557838 0.10383398 -0.06346934
-0.5812273 -0.2904248 -0.17973365 -0.08815065 -0.050620914 -0.42799962 -0.052901223 1.2307249
-0.32558042 -1.1622305 0.28786463 -0.9312306 0.9207523 0.59172255 -0.07676622 0.9014989
-0.48338932 -0.5609931 0.80314076 -0.11563198 0.36501098 -0.16570173 0.6504925 0.12881416
-1.1650299 0.3574674 1.0125923 0.1412737 -1.1647873 -0.82880723 -0.36635953 -0.22676389
-0.15235907 0.80642486 -0.31575245 -0.12569858 0.38968417 -0.5629266 0.79983944 -1.1633284
-0.4260647 -0.25549117 -0.7429038 -0.010656012 0.23403244 -0.8108066 0.98650783 0.02463136
-1.532386 0.16821009 0.024150163 0.054555204 0.11445064 -0.30604386 -0.37861332 -0.37829337
-0.055949934 -0.6675474 0.2841479 -0.15784082 0.35714972 -0.32223552 -0.21717808 0.22007267
-0.4781335 -0.69916767 0.4880153 0.2566366 0.090753146 0.14419366 0.22630416 -0.19207592
0.1828035 0.047119685 0.08659325 -0.11037564 -0.20212045 0.11160804 0.46531165 -0.21639164
0.10172303 -0.22613709 -0.19178152 0.011502674 0.0018347399 -0.11073621 -0.22359408 0.3157099
0.057003427 0.09492422 -0.00012242666 -0.0006548526 -0.07181118 0.076999284 0.2570831 -0.050097074
0.080562145 0.086576074 -0.20843609 -0.48875535 -0.1465694 0.33508173 -0.3964425 0.47301
-0.48230278 0.4883213 0.04681823 0.06670971 0.17123078 0.21510836 0.17960024 0.29856363
-0.44221908 -0.045840595 -0.12594792 0.038452763 0.37165213 -0.40440717 -0.22424941 0.5216345
-0.3053342 0.25452453 -0.10438653 0.2770502 -0.41384286 -0.07514547 -0.25890473 0.1194101
0.34350276 0.08364866 0.2476159 0.4370754 -0.25734216 -0.2508444 0.15198065 0.10462734
0.06056152 -0.52728266 -0.2299263 0.28449625 -0.20563453 -0.21328466 0.11285245 -0.29876
-0.06295574 0.15424816 -0.20590101 -0.032282334 -0.102282 0.25649473 -0.17254978 -0.1719181
0.4945328 -0.06428107 -0.00026951442 -0.113526665 -0.58213276 0.036258526 -0.3527656 -0.28876615
0.21284392 0.280582 0.09300719 0.284393 -0.01570759 -0.22333118 0.06264474 0.15831788
-0.45430356 -0.17685772 0.12742732 -0.2975874 0.33113995 0.2350836 -0.2983191 -0.47391284
0.3233273 -0.3121283 0.39547893 0.21313544 -0.16759631 0.19209892 0.30101362 0.14739445
-0.15792513 0.0014106765 0.05925928 0.08476681 0.15963677 0.07412038 -0.09429206 -0.23336133
00000000: 82ca 313f ca68 49be 160f d6be 5a96 25be
00000010: 36a3 0abe a916 2cbf 74c2 723e ffec 6cbe
00000020: f19b dcbe d2d7 32be 8dc4 f7be 221d 383f
00000030: c32e a5bf 1410 f9bd 1127 dcbe cf41 763f
00000040: 8ffd 89bf 420a f03e 7119 a63f a062 18be
00000050: abbc 34bf b15f 00bf 0377 46bf 6e73 85bf
00000060: 6036 803f 2e09 1abf 2c44 54be 2192 e73e
00000070: ca25 9b3f f532 c33d fa49 debd b558 76bf
00000080: 0fac bebe dd0b 95bf d36b 8c3c 7d79 a73d
00000090: 22c3 463e 152f acbc ce4e 223f 7df6 38bf
000000a0: 1aba f3be ae21 373e 4b1c 4dbf 00e8 74bf
000000b0: 8e4e 40bd 901b b9be 184b 0ebf c37c 67bf
000000c0: 2322 52bf f155 edbe f601 b0bf 8c2b 9a3f
000000d0: 6df2 06bf 0cc6 5ebf 2843 ee3e 7993 8e3d
000000e0: a7d8 493e fede 4bbf 3161 133f 2353 fdbe
000000f0: f064 eebe ca85 1f3e e9a6 d43d 37fc 81bd
00000100: 50cb 14bf 8fb2 94be 190c 38be 5488 b4bd
00000110: e057 4fbd c422 dbbe f4ae 58bd 6588 9d3f
00000120: 7ab2 a6be f8c3 94bf fe62 933e 2165 6ebf
00000130: 6cb6 6b3f 217b 173f 9c37 9dbd a2c8 663f
00000140: ce7e f7be 3e9d 0fbf a29a 4d3f 76d0 ecbd
00000150: b8e2 ba3e b7ad 29be ad86 263f dce7 033e
00000160: b31f 95bf f805 b73e a09c 813f 0eaa 103e
00000170: c017 95bf b62c 54bf 7a93 bbbe cb34 68be
00000180: 0404 1cbe dc71 4e3f 4eaa a1be 21b7 00be
00000190: af84 c73e f51b 10bf 47c2 4c3f f2e7 94bf
000001a0: 2725 dabe bdcf 82be f22e 3ebf 8e96 2ebc
000001b0: 33a6 6f3e 0591 4fbf c78b 7c3f b5c7 c93c
000001c0: 3925 c4bf 443f 2c3e 90d6 c53c 4775 5f3d
000001d0: 1965 ea3d c8b1 9cbe 9bd9 c1be abaf c1be
000001e0: c22b 65bd 63e4 2abf d57b 913e 06a1 21be
000001f0: 54dc b63e 0efc a4be ee63 5ebe bb5a 613e
00000200: eacd f4be a7fc 32bf 24dd f93e df65 833e
00000210: c9dc b93d 81a7 133e 47bc 673e 8daf 44be
00000220: d730 3b3e 9200 413d cd57 b13d a00c e2bd
00000230: aaf8 4ebe c292 e43d 543d ee3e c595 5dbe
00000240: 2a54 d03d 7b90 67be 6062 44be b675 3c3c
00000250: a87b f03a abc9 e2bd d9f5 64be baa4 a13e
00000260: 6d7c 693d a167 c23d a85f 00b9 6aaa 2bba
00000270: bd11 93bd cdb1 9d3d 65a0 833e 9732 4dbd
00000280: c4fd a43d cc4e b13d 4570 55be 243e fabe
00000290: 4a16 16be d58f ab3e 83fa cabe 5e2e f23e
000002a0: 64f0 f6be 4005 fa3e 79c4 3f3d 1a9f 883d
000002b0: 1f57 2f3e 5e45 5c3e 20e9 373e 55dd 983e
000002c0: 8a6a e2be 59c3 3bbd 7ef8 00be a580 1d3d
000002d0: 3049 be3e 750e cfbe a3a1 65be d789 053f
000002e0: c454 9cbe 0a51 823e 9bc8 d5bd 86d9 8d3e
000002f0: 36e3 d3be dee5 99bd 298f 84be 488d f43d
00000300: 98df af3e fd4f ab3d 068f 7d3e 59c8 df3e
00000310: 5ac2 83be ad6e 80be d1a0 1b3e dc46 d63d
00000320: 5b0f 783d fffb 06bf cd71 6bbe 7ea9 913e
00000330: dc91 52be 4b67 5abe 2f1f e73d 12f7 98be
00000340: f0ee 80bd 3bf3 1d3e b7d7 52be 7b3a 04bd
00000350: 3a79 d1bd 4753 833e e4b0 30be 4c0b 30be
00000360: 6733 fd3e cba5 83bd 9d4d 8db9 ab80 e8bd
00000370: a706 15bf d283 143d b19d b4be 28d9 93be
00000380: c2f3 593e 72a8 8f3e 8e7a be3d f69b 913e
00000390: 34ad 80bc eeb0 64be e34b 803d 151e 223e
000003a0: 7a9a e8be 311a 35be 4f7c 023e 605d 98be
000003b0: 2d8b a93e c1b9 703e 48bd 98be b4a4 f2be
000003c0: 288b a53e 48cf 9fbe 377c ca3e 2d40 5a3e
000003d0: 5e9e 2bbe 94b5 443e 751e 9a3e 92ee 163e
000003e0: 20b7 21be 73e6 b83a dcb9 723d 399a ad3d
000003f0: d277 233e 6dcc 973d 321c c1bd 46f6 6ebe

rnn.cell.recurrent_kernel_h f4 [128, 128]
-0.34163538 0.13528335 0.13064347 -0.030035544 0.3351154 -0.23443593 0.20928574 -0.016779928
0.5699322 0.047485843 0.0048232083 0.32097572 0.14836422 0.14159724 0.094367035 0.040489133
0.19055323 0.25072578 0.15880564 0.29080895 -0.713604 -0.07930971 0.007725958 -0.061361257
-0.016653968 0.19986683 -0.088968106 0.17012362 0.24399608 -0.069064096 -0.027323334 0.41532886
-0.055459227 -0.091943614 0.20026825 -0.089872815 -0.20339002 -0.3747734 0.5074882 -0.6488678
0.02513916 -0.32612252 -0.05932299 0.2212243 0.53829306 0.17399412 -0.32478493 -0.45748082
-0.36697805 0.12028285 -0.038886324 0.29440865 0.2833213 -0.1362893 0.5234841 0.38489747
-0.20803821 0.50439817 -0.3566885 0.0025048242 -0.20367868 0.22781003 -0.06485258 -0.68382305
0.71236587 0.0883369 -0.13560924 -0.14531223 -0.1602561 -0.11996315 0.32471636 -0.37612885
0.0019925097 -0.34841508 -0.3118963 -0.03734766 0.30345625 -0.061869886 0.025679884 0.010324674
-0.14319763 0.44436297 -0.13542663 -0.13856398 -0.54642963 -0.22334658 -0.6542857 -0.12748773
0.11606809 0.15179606 -0.0026917094 0.20381819 -0.18383956 -0.04169616 -0.2294706 -0.3008154
0.050046764 0.740542 -0.44610256 -0.05578678 0.006648639 0.16678491 0.5872596 -0.23783489
-0.03872991 0.10695134 0.6485298 -0.05460314 -0.28578347 0.16056214 -0.13362479 0.015196316
0.056326 -0.11497139 -0.36271363 -0.10335359 0.06614354 0.011220906 -0.21626404 -0.08942747
0.30844232 -0.0791771 -0.12609787 0.08491967 0.051727533 0.10742831 -0.21594223 0.21839309
0.22632235 -0.162962 -0.28312334 -0.76082355 0.3752738 1.0650628 0.162497 -0.026077973
-0.353056 0.0002724942 -0.090937585 -0.40374422 -0.81992096 0.23444422 0.053721268 1.9367777
-1.2067393 -0.029301325 -0.3940265 -0.10020055 -0.72297174 0.28314772 0.22904392 0.6106909
-0.09758022 0.9344669 -0.52216685 0.92791295 -0.9284878 -0.23354578 -1.2318765 -0.8181739
-1.2268109 0.14365053 -0.83520925 -0.3543545 0.44521114 -0.9893851 0.7358964 0.14356701
0.3845331 0.93994653 -0.1881723 -0.3829465 -0.44793886 0.3634737 0.060746524 -0.7861935
0.2718458 -0.1592787 -0.6041152 -0.57288915 1.2647358 0.30557585 -0.63391936 -0.3170949
1.4651417 -0.89337426 0.2039231 0.083940156 0.73307884 -0.43770042 1.2296317 -0.5060251
-0.9853193 -0.5743032 -0.32258338 -0.019862449 0.21161593 -0.5573763 0.35765707 -0.1390775
-0.28049278 0.11398163 -0.32460895 0.41742063 0.85964507 -0.54804397 -0.085614175 0.1147918
0.31808254 -0.15789464 -0.039412413 -0.07968438 0.4691027 -0.20838928 0.32737055 0.6037802
0.1917006 0.1484433 -0.26898536 -0.26101023 1.3091633 0.009910272 -1.1477321 0.59750545
0.13780619 0.22657219 -0.12080683 0.17945771 0.745607 -0.5011038 -0.82544637 0.10280688
0.32492065 -0.97996086 0.65387535 -0.28649312 -0.050778694 -0.22677635 0.0668871 -0.0022301269
-0.056186695 0.4701311 -1.0686126 0.24012442 0.46413243 -0.101977155 0.0568532 -0.35853276
0.9628468 -0.020006543 -0.017696956 -0.07413792 -1.8358763 -0.41752827 1.0302383 1.3747876
00000000: d5ea aebe b887 0a3e 67c7 053e 1a0d f6bc
00000010: 3f94 ab3e f90f 70be 004f 563e 0f76 89bc
00000020: 14e7 113f 8480 423d 010c 9e3b ee56 a43e
00000030: caec 173e defe 103e 8143 c13d efd7 253d
00000040: 6320 433e 215f 803e f29d 223e e9e4 943e
00000050: c0ae 36bf 216d a2bd 082a fd3b f155 7bbd
00000060: e76d 88bc e4a9 4c3e e934 b6bd e334 2e3e
00000070: 1cda 793e 7a71 8dbd 2fd5 dfbc fca5 d43e
00000080: 3729 63bd ef4c bcbd 1f13 4d3e 3d0f b8bd
00000090: 7945 50be 4de2 bfbe bfea 013f 331c 26bf
000000a0: a4f0 cd3c 88f9 a6be aafc 72bd 9f88 623e
000000b0: 93cd 093f 842b 323e 364a a6be ed3a eabe
000000c0: 8ce4 bbbe db56 f63d 4447 1fbd bbbc 963e
000000d0: 7d0f 913e 6c8f 0bbe 0e03 063f 4811 c53e
000000e0: f807 55be 3d20 013f e09f b6be fa27 243b
000000f0: 2591 50be 0847 693e 6ed1 84bd 070f 2fbf
00000100: 9c5d 363f fae9 b43d 26dd 0abe bbcc 14be
00000110: 2d1a 24be 3daf f5bd 3941 a63e f693 c0be
00000120: c494 023b 7663 b2be dfb0 9fbe dcf9 18bd
00000130: 9e5e 9b3e 476b 7dbd 9f5e d23c d228 293c
00000140: 66a2 12be 8b83 e33e 47ad 0abe b7e3 0dbe
00000150: d0e2 0bbf f7b4 64be 457f 27bf 258c 02be
00000160: 1bb5 ed3d 6d70 1b3e 6467 30bb b7b5 503e
00000170: 7040 3cbe 98c9 2abd 57fa 6abe 7a04 9abe
00000180: d6fd 4c3d 2994 3d3f 8e67 e4be ae80 64bd
00000190: d4dc d93b aac9 2a3e a556 163f fd8a 73be
000001a0: 41a3 1ebd 4e09 db3d 0d06 263f 8ba7 5fbd
000001b0: 3652 92be 676a 243e f0d4 08be f8f9 783c
000001c0: 17b6 663d 1f76 ebbd 9ab5 b9be 0cab d3bd
000001d0: 4476 873d e4d7 373c 5274 5dbe c025 b7bd
000001e0: 27ec 9d3e 9a27 a2bd cd1f 01be 5dea ad3d
000001f0: 40e0 533d 6003 dc3d f61f 5dbe 70a2 5f3e
00000200: 0cc1 673e 83df 26be 8bf5 90be 55c5 42bf
00000210: e323 c03e fa53 883f 9d65 263e 79a1 d5bc
00000220: c2c3 b4be 8ddd 8e39 7c3d babd 90b7 cebe
00000230: 57e6 51bf 2512 703e d50a 5c3d 55e8 f73f
00000240: 6f76 9abf 5509 f0bc d7bd c9be f235 cdbd
00000250: ad14 39bf bdf8 903e 7d8a 6a3e 3d56 1c3f
00000260: 23d8 c7bd 3939 6f3f baac 05bf b48b 6d3f
00000270: 60b1 6dbf a026 6fbe 21ae 9dbf d873 51bf
00000280: 2408 9dbf 2019 133e 46d0 55bf f46d b5be
00000290: b7f2 e33e 5848 7dbf b563 3c3f 3b03 133e
000002a0: 86e1 c43e 56a0 703f 3db0 40be 9011 c4be
000002b0: 3e58 e5be 3a19 ba3e 59d1 783d fa43 49bf
000002c0: 5f2f 8b3e f519 23be 4ba7 1abf dda8 12bf
000002d0: dde2 a13f 7074 9c3e 8a48 22bf 435a a2be
000002e0: c389 bb3f 2db4 64bf 38d1 503e d1e8 ab3d
000002f0: 0eab 3b3f 451a e0be 9264 9d3f dc8a 01bf
00000300: e33d 7cbf 8905 13bf a629 a5be 93b6 a2bc
00000310: d9b1 583e 37b0 0ebf d41e b73e 556a 0ebe
00000320: c09c 8fbe 336f e93d 2533 a6be 28b8 d53e
00000330: b311 5c3f 9c4c 0cbf 7c56 afbd f717 eb3d
00000340: b7db a23e 22af 21be e96e 21bd 9031 a3bd
00000350: 3b2e f03e 0064 55be 1d9d a73e 5791 1a3f
00000360: 294d 443e 8501 183e 73b8 89be 22a3 85be
00000370: aa92 a73f b25e 223c e3e8 92bf 1ef6 183f
00000380: 111d 0d3e 8a02 683e 9269 f7bd c3c3 373e
00000390: 1ae0 3e3f 5748 00bf 7450 53bf 6a8c d23d
000003a0: 005c a63e b7de 7abf 6064 273f 3aaf 92be
000003b0: 52fd 4fbd 0f38 68be 1bfc 883d 5227 12bb
000003c0: 0524 66bd 06b5 f03e 4cc8 88bf 2de3 753e
000003d0: c4a2 ed3e 66d9 d0bd e7de 683d 9b91 b7be
000003e0: 217d 763f c3e4 a3bc 35f9 90bc 9fd5 97bd
000003f0: fffd eabf 44c6 d5be d9de 833f 0af9 af3f

rnn.cell.bias_z f4 [128]
8.250488 1.979e-42 0.0 0.0 0.0 0.0 0.0 0.0
0.0 0.0 0.0 0.0 0.0 0.0 0.0 0.0
0.0 0.0 0.0 0.0 0.0 0.0 0.0 0.0
0.0 0.0 0.0 0.0 0.0 0.0 0.0 0.0
0.0 0.0 0.0 0.0 0.0 0.0 0.0 0.0
0.0 0.0 0.0 0.0 0.0 0.0 0.0 0.0
0.0 0.0 0.0 0.0 0.0 0.0 0.0 0.0
0.0 0.0 0.0 0.0 0.0 0.0 0.0 0.0
0.0 0.0 0.0 0.0 0.0 0.0 0.0 0.0
0.0 0.0 0.0 0.0 0.0 0.0 0.0 0.0
0.0 0.0 0.0 0.0 0.0 0.0 0.0 0.0
0.0 0.0 0.0 0.0 0.0 0.0 0.0 0.0
0.0 0.0 0.0 0.0 0.0 0.0 0.0 0.0
0.0 0.0 0.0 0.0 0.0 0.0 0.0 0.0
0.0 0.0 0.0 0.0 0.0 0.0 0.0 0.0
0.0 0.0 0.0 0.0 0.0 0.0 0.0 0.0
00000000: 0002 0441 8405 0000 0000 0000 0000 0000
00000010: 0000 0000 0000 0000 0000 0000 0000 0000
00000020: 0000 0000 0000 0000 0000 0000 0000 0000
00000030: 0000 0000 0000 0000 0000 0000 0000 0000
00000040: 0000 0000 0000 0000 0000 0000 0000 0000
00000050: 0000 0000 0000 0000 0000 0000 0000 0000
00000060: 0000 0000 0000 0000 0000 0000 0000 0000
00000070: 0000 0000 0000 0000 0000 0000 0000 0000
00000080: 0000 0000 0000 0000 0000 0000 0000 0000
00000090: 0000 0000 0000 0000 0000 0000 0000 0000
000000a0: 0000 0000 0000 0000 0000 0000 0000 0000
000000b0: 0000 0000 0000 0000 0000 0000 0000 0000
000000c0: 0000 0000 0000 0000 0000 0000 0000 0000
000000d0: 0000 0000 0000 0000 0000 0000 0000 0000
000000e0: 0000 0000 0000 0000 0000 0000 0000 0000
000000f0: 0000 0000 0000 0000 0000 0000 0000 0000
00000100: 0000 0000 0000 0000 0000 0000 0000 0000
00000110: 0000 0000 0000 0000 0000 0000 0000 0000
00000120: 0000 0000 0000 0000 0000 0000 0000 0000
00000130: 0000 0000 0000 0000 0000 0000 0000 0000
00000140: 0000 0000 0000 0000 0000 0000 0000 0000
00000150: 0000 0000 0000 0000 0000 0000 0000 0000
00000160: 0000 0000 0000 0000 0000 0000 0000 0000
00000170: 0000 0000 0000 0000 0000 0000 0000 0000
00000180: 0000 0000 0000 0000 0000 0000 0000 0000
00000190: 0000 0000 0000 0000 0000 0000 0000 0000
000001a0: 0000 0000 0000 0000 0000 0000 0000 0000
000001b0: 0000 0000 0000 0000 0000 0000 0000 0000
000001c0: 0000 0000 0000 0000 0000 0000 0000 0000
000001d0: 0000 0000 0000 0000 0000 0000 0000 0000
000001e0: 0000 0000 0000 0000 0000 0000 0000 0000
000001f0: 0000 0000 0000 0000 0000 0000 0000 0000

rnn.cell.bias_r f4 [128]
8.250977 1.979e-42 0.0 0.0 0.0 0.0 0.0 0.0
0.0 0.0 0.0 0.0 0.0 0.0 0.0 0.0
0.0 0.0 0.0 0.0 0.0 0.0 0.0 0.0
0.0 0.0 0.0 0.0 0.0 0.0 0.0 0.0
0.0 0.0 0.0 0.0 0.0 0.0 0.0 0.0
0.0 0.0 0.0 0.0 0.0 0.0 0.0 0.0
0.0 0.0 0.0 0.0 0.0 0.0 0.0 0.0
0.0 0.0 0.0 0.0 0.0 0.0 0.0 0.0
0.0 0.0 0.0 0.0 0.0 0.0 0.0 0.0
0.0 0.0 0.0 0.0 0.0 0.0 0.0 0.0
0.0 0.0 0.0 0.0 0.0 0.0 0.0 0.0
0.0 0.0 0.0 0.0 0.0 0.0 0.0 0.0
0.0 0.0 0.0 0.0 0.0 0.0 0.0 0.0
0.0 0.0 0.0 0.0 0.0 0.0 0.0 0.0
0.0 0.0 0.0 0.0 0.0 0.0 0.0 0.0
0.0 0.0 0.0 0.0 0.0 0.0 0.0 0.0
00000000: 0004 0441 8405 0000 0000 0000 0000 0000
00000010: 0000 0000 0000 0000 0000 0000 0000 0000
00000020: 0000 0000 0000 0000 0000 0000 0000 0000
00000030: 0000 0000 0000 0000 0000 0000 0000 0000
00000040: 0000 0000 0000 0000 0000 0000 0000 0000
00000050: 0000 0000 0000 0000 0000 0000 0000 0000
00000060: 0000 0000 0000 0000 0000 0000 0000 0000
00000070: 0000 0000 0000 0000 0000 0000 0000 0000
00000080: 0000 0000 0000 0000 0000 0000 0000 0000
00000090: 0000 0000 0000 0000 0000 0000 0000 0000
000000a0: 0000 0000 0000 0000 0000 0000 0000 0000
000000b0: 0000 0000 0000 0000 0000 0000 0000 0000
000000c0: 0000 0000 0000 0000 0000 0000 0000 0000
000000d0: 0000 0000 0000 0000 0000 0000 0000 0000
000000e0: 0000 0000 0000 0000 0000 0000 0000 0000
000000f0: 0000 0000 0000 0000 0000 0000 0000 0000
00000100: 0000 0000 0000 0000 0000 0000 0000 0000
00000110: 0000 0000 0000 0000 0000 0000 0000 0000
00000120: 0000 0000 0000 0000 0000 0000 0000 0000
00000130: 0000 0000 0000 0000 0000 0000 0000 0000
00000140: 0000 0000 0000 0000 0000 0000 0000 0000
00000150: 0000 0000 0000 0000 0000 0000 0000 0000
00000160: 0000 0000 0000 0000 0000 0000 0000 0000
00000170: 0000 0000 0000 0000 0000 0000 0000 0000
00000180: 0000 0000 0000 0000 0000 0000 0000 0000
00000190: 0000 0000 0000 0000 0000 0000 0000 0000
000001a0: 0000 0000 0000 0000 0000 0000 0000 0000
000001b0: 0000 0000 0000 0000 0000 0000 0000 0000
000001c0: 0000 0000 0000 0000 0000 0000 0000 0000
000001d0: 0000 0000 0000 0000 0000 0000 0000 0000
000001e0: 0000 0000 0000 0000 0000 0000 0000 0000
000001f0: 0000 0000 0000 0000 0000 0000 0000 0000

rnn.cell.bias_h f4 [128]
8.251465 1.979e-42 0.0 0.0 0.0 0.0 0.0 0.0
0.0 0.0 0.0 0.0 0.0 0.0 0.0 0.0
0.0 0.0 0.0 0.0 0.0 0.0 0.0 0.0
0.0 0.0 0.0 0.0 0.0 0.0 0.0 0.0
0.0 0.0 0.0 0.0 0.0 0.0 0.0 0.0
0.0 0.0 0.0 0.0 0.0 0.0 0.0 0.0
0.0 0.0 0.0 0.0 0.0 0.0 0.0 0.0
0.0 0.0 0.0 0.0 0.0 0.0 0.0 0.0
0.0 0.0 0.0 0.0 0.0 0.0 0.0 0.0
0.0 0.0 0.0 0.0 0.0 0.0 0.0 0.0
0.0 0.0 0.0 0.0 0.0 0.0 0.0 0.0
0.0 0.0 0.0 0.0 0.0 0.0 0.0 0.0
0.0 0.0 0.0 0.0 0.0 0.0 0.0 0.0
0.0 0.0 0.0 0.0 0.0 0.0 0.0 0.0
0.0 0.0 0.0 0.0 0.0 0.0 0.0 0.0
0.0 0.0 0.0 0.0 0.0 0.0 0.0 0.0
00000000: 0006 0441 8405 0000 0000 0000 0000 0000
00000010: 0000 0000 0000 0000 0000 0000 0000 0000
00000020: 0000 0000 0000 0000 0000 0000 0000 0000
00000030: 0000 0000 0000 0000 0000 0000 0000 0000
00000040: 0000 0000 0000 0000 0000 0000 0000 0000
00000050: 0000 0000 0000 0000 0000 0000 0000 0000
00000060: 0000 0000 0000 0000 0000 0000 0000 0000
00000070: 0000 0000 0000 0000 0000 0000 0000 0000
00000080: 0000 0000 0000 0000 0000 0000 0000 0000
00000090: 0000 0000 0000 0000 0000 0000 0000 0000
000000a0: 0000 0000 0000 0000 0000 0000 0000 0000
000000b0: 0000 0000 0000 0000 0000 0000 0000 0000
000000c0: 0000 0000 0000 0000 0000 0000 0000 0000
000000d0: 0000 0000 0000 0000 0000 0000 0000 0000
000000e0: 0000 0000 0000 0000 0000 0000 0000 0000
000000f0: 0000 0000 0000 0000 0000 0000 0000 0000
00000100: 0000 0000 0000 0000 0000 0000 0000 0000
00000110: 0000 0000 0000 0000 0000 0000 0000 0000
00000120: 0000 0000 0000 0000 0000 0000 0000 0000
00000130: 0000 0000 0000 0000 0000 0000 0000 0000
00000140: 0000 0000 0000 0000 0000 0000 0000 0000
00000150: 0000 0000 0000 0000 0000 0000 0000 0000
00000160: 0000 0000 0000 0000 0000 0000 0000 0000
00000170: 0000 0000 0000 0000 0000 0000 0000 0000
00000180: 0000 0000 0000 0000 0000 0000 0000 0000
00000190: 0000 0000 0000 0000 0000 0000 0000 0000
000001a0: 0000 0000 0000 0000 0000 0000 0000 0000
000001b0: 0000 0000 0000 0000 0000 0000 0000 0000
000001c0: 0000 0000 0000 0000 0000 0000 0000 0000
000001d0: 0000 0000 0000 0000 0000 0000 0000 0000
000001e0: 0000 0000 0000 0000 0000 0000 0000 0000
000001f0: 0000 0000 0000 0000 0000 0000 0000 0000

rnn.cell.input_decay_kernel f4 [37]
0.0 0.0 0.0 0.0 0.0 0.0 0.0 0.0
0.0 0.0 0.0 0.0 0.0 0.0 0.0 0.0
0.0 0.0 0.0 0.0 0.0 0.0 0.0 0.0
0.0 0.0 0.0 0.0 0.0 0.0 0.0 0.0
0.0 0.0 0.0 0.0 0.0
00000000: 0000 0000 0000 0000 0000 0000 0000 0000
00000010: 0000 0000 0000 0000 0000 0000 0000 0000
00000020: 0000 0000 0000 0000 0000 0000 0000 0000
00000030: 0000 0000 0000 0000 0000 0000 0000 0000
00000040: 0000 0000 0000 0000 0000 0000 0000 0000
00000050: 0000 0000 0000 0000 0000 0000 0000 0000
00000060: 0000 0000 0000 0000 0000 0000 0000 0000
00000070: 0000 0000 0000 0000 0000 0000 0000 0000
00000080: 0000 0000 0000 0000 0000 0000 0000 0000
00000090: 0000 0000

rnn.cell.input_decay_bias f4 [37]
0.0 0.0 0.0 0.0 0.0 0.0 0.0 0.0
0.0 0.0 0.0 0.0 0.0 0.0 0.0 0.0
0.0 0.0 0.0 0.0 0.0 0.0 0.0 0.0
0.0 0.0 0.0 0.0 0.0 0.0 0.0 0.0
0.0 0.0 0.0 0.0 0.0
00000000: 0000 0000 0000 0000 0000 0000 0000 0000
00000010: 0000 0000 0000 0000 0000 0000 0000 0000
00000020: 0000 0000 0000 0000 0000 0000 0000 0000
00000030: 0000 0000 0000 0000 0000 0000 0000 0000
00000040: 0000 0000 0000 0000 0000 0000 0000 0000
00000050: 0000 0000 0000 0000 0000 0000 0000 0000
00000060: 0000 0000 0000 0000 0000 0000 0000 0000
00000070: 0000 0000 0000 0000 0000 0000 0000 0000
00000080: 0000 0000 0000 0000 0000 0000 0000 0000
00000090: 0000 0000

rnn.cell.hidden_decay_kernel f4 [37, 128]
0.0 0.0 0.0 0.0 0.0 0.0 0.0 0.0
0.0 0.0 0.0 0.0 0.0 0.0 0.0 0.0
0.0 0.0 0.0 0.0 0.0 0.0 0.0 0.0
0.0 0.0 0.0 0.0 0.0 0.0 0.0 0.0
0.0 0.0 0.0 0.0 0.0 0.0 0.0 0.0
0.0 0.0 0.0 0.0 0.0 0.0 0.0 0.0
0.0 0.0 0.0 0.0 0.0 0.0 0.0 0.0
0.0 0.0 0.0 0.0 0.0 0.0 0.0 0.0
0.0 0.0 0.0 0.0 0.0 0.0 0.0 0.0
0.0 0.0 0.0 0.0 0.0 0.0 0.0 0.0
0.0 0.0 0.0 0.0 0.0 0.0 0.0 0.0
0.0 0.0 0.0 0.0 0.0 0.0 0.0 0.0
0.0 0.0 0.0 0.0 0.0 0.0 0.0 0.0
0.0 0.0 0.0 0.0 0.0 0.0 0.0 0.0
0.0 0.0 0.0 0.0 0.0 0.0 0.0 0.0
0.0 0.0 0.0 0.0 0.0 0.0 0.0 0.0
0.0 0.0 0.0 0.0 0.0 0.0 0.0 0.0
0.0 0.0 0.0 0.0 0.0 0.0 0.0 0.0
0.0 0.0 0.0 0.0 0.0 0.0 0.0 0.0
0.0 0.0 0.0 0.0 0.0 0.0 0.0 0.0
0.0 0.0 0.0 0.0 0.0 0.0 0.0 0.0
0.0 0.0 0.0 0.0 0.0 0.0 0.0 0.0
0.0 0.0 0.0 0.0 0.0 0.0 0.0 0.0
0.0 0.0 0.0 0.0 0.0 0.0 0.0 0.0
0.0 0.0 0.0 0.0 0.0 0.0 0.0 0.0
0.0 0.0 0.0 0.0 0.0 0.0 0.0 0.0
0.0 0.0 0.0 0.0 0.0 0.0 0.0 0.0
0.0 0.0 0.0 0.0 0.0 0.0 0.0 0.0
0.0 0.0 0.0 0.0 0.0 0.0 0.0 0.0
0.0 0.0 0.0 0.0 0.0 0.0 0.0 0.0
0.0 0.0 0.0 0.0 0.0 0.0 0.0 0.0
0.0 0.0 0.0 0.0 0.0 0.0 0.0 0.0
00000000: 0000 0000 0000 0000 0000 0000 0000 0000
00000010: 0000 0000 0000 0000 0000 0000 0000 0000
00000020: 0000 0000 0000 0000 0000 0000 0000 0000
00000030: 0000 0000 0000 0000 0000 0000 0000 0000
00000040: 0000 0000 0000 0000 0000 0000 0000 0000
00000050: 0000 0000 0000 0000 0000 0000 0000 0000
00000060: 0000 0000 0000 0000 0000 0000 0000 0000
00000070: 0000 0000 0000 0000 0000 0000 0000 0000
00000080: 0000 0000 0000 0000 0000 0000 0000 0000
00000090: 0000 0000 0000 0000 0000 0000 0000 0000
000000a0: 0000 0000 0000 0000 0000 0000 0000 0000
000000b0: 0000 0000 0000 0000 0000 0000 0000 0000
000000c0: 0000 0000 0000 0000 0000 0000 0000 0000
000000d0: 0000 0000 0000 0000 0000 0000 0000 0000
000000e0: 0000 0000 0000 0000 0000 0000 0000 0000
000000f0: 0000 0000 0000 0000 0000 0000 0000 0000
00000100: 0000 0000 0000 0000 0000 0000 0000 0000
00000110: 0000 0000 0000 0000 0000 0000 0000 0000
00000120: 0000 0000 0000 0000 0000 0000 0000 0000
00000130: 0000 0000 0000 0000 0000 0000 0000 0000
00000140: 0000 0000 0000 0000 0000 0000 0000 0000
00000150: 0000 0000 0000 0000 0000 0000 0000 0000
00000160: 0000 0000 0000 0000 0000 0000 0000 0000
00000170: 0000 0000 0000 0000 0000 0000 0000 0000
00000180: 0000 0000 0000 0000 0000 0000 0000 0000
00000190: 0000 0000 0000 0000 0000 0000 0000 0000
000001a0: 0000 0000 0000 0000 0000 0000 0000 0000
000001b0: 0000 0000 0000 0000 0000 0000 0000 0000
000001c0: 0000 0000 0000 0000 0000 0000 0000 0000
000001d0: 0000 0000 0000 0000 0000 0000 0000 0000
000001e0: 0000 0000 0000 0000 0000 0000 0000 0000
000001f0: 0000 0000 0000 0000 0000 0000 0000 0000
00000200: 0000 0000 0000 0000 0000 0000 0000 0000
00000210: 0000 0000 0000 0000 0000 0000 0000 0000
00000220: 0000 0000 0000 0000 0000 0000 0000 0000
00000230: 0000 0000 0000 0000 0000 0000 0000 0000
00000240: 0000 0000 0000 0000 0000 0000 0000 0000
00000250: 0000 0000 0000 0000 0000 0000 0000 0000
00000260: 0000 0000 0000 0000 0000 0000 0000 0000
00000270: 0000 0000 0000 0000 0000 0000 0000 0000
00000280: 0000 0000 0000 0000 0000 0000 0000 0000
00000290: 0000 0000 0000 0000 0000 0000 0000 0000
000002a0: 0000 0000 0000 0000 0000 0000 0000 0000
000002b0: 0000 0000 0000 0000 0000 0000 0000 0000
000002c0: 0000 0000 0000 0000 0000 0000 0000 0000
000002d0: 0000 0000 0000 0000 0000 0000 0000 0000
000002e0: 0000 0000 0000 0000 0000 0000 0000 0000
000002f0: 0000 0000 0000 0000 0000 0000 0000 0000
00000300: 0000 0000 0000 0000 0000 0000 0000 0000
00000310: 0000 0000 0000 0000 0000 0000 0000 0000
00000320: 0000 0000 0000 0000 0000 0000 0000 0000
00000330: 0000 0000 0000 0000 0000 0000 0000 0000
00000340: 0000 0000 0000 0000 0000 0000 0000 0000
00000350: 0000 0000 0000 0000 0000 0000 0000 0000
00000360: 0000 0000 0000 0000 0000 0000 0000 0000
00000370: 0000 0000 0000 0000 0000 0000 0000 0000
00000380: 0000 0000 0000 0000 0000 0000 0000 0000
00000390: 0000 0000 0000 0000 0000 0000 0000 0000
000003a0: 0000 0000 0000 0000 0000 0000 0000 0000
000003b0: 0000 0000 0000 0000 0000 0000 0000 0000
000003c0: 0000 0000 0000 0000 0000 0000 0000 0000
000003d0: 0000 0000 0000 0000 0000 0000 0000 0000
000003e0: 0000 0000 0000 0000 0000 0000 0000 0000
000003f0: 0000 0000 0000 0000 0000 0000 0000 0000
