output/--epochs=100/split_1/checkpoint.pt (torch, 831970 bytes, 46 tensors)

attn_layers.layers.0.0.0.weight f4 [74]
00000000: 336a 803f 3f17 803f 71af 7f3f b2cb 7e3f
00000010: 7c33 803f f1fa 7e3f 6972 803f 5331 803f
00000020: 7548 803f 475d 803f f901 7f3f 5133 803f
00000030: efff 7f3f ec01 813f 8109 803f d9aa 803f
00000040: 4ab8 803f 0184 7f3f 0883 803f cdbd 803f
00000050: 3b21 803f d27a 7f3f dda8 803f c5e4 803f
00000060: 72fe 7f3f 3775 803f 8d97 803f 0941 803f
00000070: 7185 7f3f 9884 803f ba10 803f aa48 7e3f
00000080: 5ef5 7f3f 6e70 803f c70b 813f 0807 803f
00000090: 09f8 803f 2c70 803f 41ac 7f3f 42fc 7e3f
000000a0: 2ed4 803f 0155 803f b750 803f ad2a 803f
000000b0: 1aa9 7f3f bd45 7d3f f595 7f3f d35d 803f
000000c0: 331f 803f 1103 7f3f 4f7a 7d3f 2713 803f
000000d0: 2265 803f c5c1 813f f177 803f 84b8 803f
000000e0: 0b87 803f f113 803f c318 803f 307b 7f3f
000000f0: 6140 7f3f bc32 803f cf98 7d3f 9d24 7f3f
00000100: 0990 7f3f 285f 803f 5013 803f 7342 7e3f
00000110: cc2a 7f3f 77ed 7e3f 6fb0 7f3f 28c4 7e3f
00000120: b43e 803f 52f4 803f
1.003241 1.0007094 0.9987708 0.99529564 1.0015712 0.99601656 1.0034915 1.0015053
1.0022112 1.0028466 0.99612385 1.001566 0.999999 1.0078712 1.00029 1.0052139
1.005624 0.99810797 1.0039988 1.0057923 1.0010141 0.99796784 1.0051533 1.0069815
0.9999763 1.0035771 1.004625 1.0019847 0.9981299 1.0040464 1.0005105 0.99329627
0.99983776 1.0034311 1.0081719 1.0002146 1.0075694 1.0034232 0.99872214 0.99603665
1.0064752 1.0025941 1.0024632 1.0013024 0.99867404 0.9893454 0.9983819 1.0028633
1.0009521 0.99614054 0.99014753 1.0005845 1.0030863 1.0137259 1.0036603 1.005631
1.0041212 1.0006086 1.0007557 0.99797344 0.9970761 1.0015483 0.9906129 0.9966524
0.99829155 1.0029039 1.0005894 0.99320143 0.9967468 0.9958109 0.9987859 0.9951806
1.0019135 1.0074561

attn_layers.layers.0.0.0.bias f4 [74]
00000000: 2191 383b 72ac 2e3b b26a 013b 84fd 133b
00000010: 4281 0dbb fc97 803b 1eac 01bb 9858 72bb
00000020: bfb9 773b 7149 ec3b ef09 ba3b 7360 943b
00000030: f586 f9bb 2d2e cd3b f62d 04bb 4593 83ba
00000040: 98da e53a d551 99bb 8318 9a3a fb40 33bb
00000050: 8d7a 463b ec80 b8b9 f538 403b c9c2 02ba
00000060: 1f55 4d3b 039f 3b3b 1e9b 22bb 5ebf 7239
00000070: a0c1 883b c713 ce3a ebfe 1d3a 9b1a 983b
00000080: 82d4 e83a a2c2 a539 e882 f939 8b8d 21ba
00000090: 819b b7bb c604 fb3a c0a3 683b a086 893a
000000a0: a4d2 4839 382a 8b3b 24c5 3d3b a44d 743b
000000b0: 993c e03b 84c2 ef3b 2a3e d63a 5123 9db9
000000c0: e1f0 7e3b a84d bb3b e36c 943b 5579 3fbb
000000d0: 7438 6d3b 2a95 00ba 6131 0d3b 13e8 193a
000000e0: 292d 11bb 376c 833a ee11 34bb 9c7b 05bc
000000f0: d5ee ddba 9a3e 14bb 8360 fabb 9c9d 8ebb
00000100: 0f9b 84ba eef8 27ba 16c7 ddba f720 6ebb
00000110: e34e 99bb d7fc 7dbb a527 3cbb d6f3 44bb
00000120: bab5 853a 400e db3b
0.0028162675 0.0026653078 0.0019747433 0.0022581527 -0.0021591936 0.003924368 -0.0019786428 -0.0036979076
0.0037799922 0.0072109033 0.0056774537 0.004528099 -0.007614965 0.006261608 -0.0020168996 -0.0010038397
0.001753646 -0.0046789446 0.0011756573 -0.0027351964 0.0030285448 -0.0003519127 0.0029330824 -0.00049881317
0.0031331254 0.0028628714 -0.0024811695 0.00023150208 0.0041734725 0.0015722447 0.00060270604 0.0046418435
0.0017763528 0.00031616265 0.00047590514 -0.0006162754 -0.0056032543 0.0019151203 0.0035497993 0.0010492392
0.00019151956 0.004246976 0.0028956616 0.0037277723 0.0068431613 0.0073168892 0.0016345431 -0.00029971686
0.00389009 0.0057160445 0.004529582 -0.0029216607 0.0036196979 -0.00049050397 0.0021544325 0.00058710686
-0.0022152162 0.0010026757 -0.0027476507 -0.008147147 -0.0016932139 -0.0022620321 -0.0076408996 -0.0043522846
-0.0010117012 -0.0006407638 -0.0016920294 -0.0036335567 -0.0046785935 -0.003875544 -0.0028710153 -0.0030052564
0.0010201253 0.0066850483

attn_layers.layers.0.1.to_q.weight f4 [64, 74]
00000000: 22d6 17bd 1a22 e23c 7428 be3b 2173 c53d
00000010: ffbd 89ba cbe3 003d 5c7a 18bd 92fc f0bc
00000020: 29ff cdbd 6218 79bd 2099 1ebd a268 553a
00000030: 4593 653d 3743 9e3d 87f7 a4bd d2fd 6fbd
00000040: b977 d43c 5706 c93d 3451 12bd 1f1a 9f3d
00000050: e212 f8bc 97cd 733b aeac d13d 4328 e4bd
00000060: 95f8 93bd 3602 12bd 063f 6cbd 1f7e aa3d
00000070: 8489 96bd 8b20 63bd b8d6 a9bd e732 debd
00000080: 01d0 9bbd e079 e13d 6a63 3c3d 95a7 7d3d
00000090: b125 223c 8800 47bd 8e30 e63c ef2b dcbd
000000a0: 9fd4 a1bd cd1b 34bd abcb b43d 4972 8f3d
000000b0: 270c 31bd 2bda 4b3b 1f90 a93d 8c02 dc3d
000000c0: 5ed8 103d 2061 a43c 2c58 b13d 1bfc 61bd
000000d0: 75d9 e03c d053 b8bd 2aab a8bd a69d 70bd
000000e0: 3fc7 873d 4fb2 373d db72 a2bd c8cb cf3c
000000f0: ee6f 6f3d 225d abbc 64b3 0ebb dbeb 9b3c
00000100: 4efb 863d f482 e13d f4a6 cbbd 81e7 4ebd
00000110: b7ad 193d d89f bd3d c5d5 c23d 0d64 c63d
00000120: a003 943c 1863 e4bd 501d d83c d372 79bd
00000130: bb35 b6bd 0b83 f53d 27be d53d 52d8 d3bd
00000140: db75 f43c 0c3d b7bc a406 523b 3aa8 13bd
00000150: 28d5 653d 9f4a 9cbd 04e9 7a3d 500b 993d
00000160: 102f bc3d 8496 1b3d b92e 06be 96d7 b9bd
00000170: d23c 1d3d 6dd9 8f3b b3d7 e3bd 8842 a9bd
00000180: fb63 c03d f665 813d 92ca 37bd bf73 26bd
00000190: a907 d2bd 477c 93bb 51dc 8fbd c82a aebd
000001a0: 939f 623a 6f98 cb3c 5c2c 21bd 2af6 ae3d
000001b0: f59a 6dbd 64f9 fd3d f979 bf3d 1ce6 a9bd
000001c0: f895 57bc 9bdc 873c 79a4 073d d5bc 5d3d
000001d0: 3823 843d 4b9c bd3c e851 3ebd 4e9e a33d
000001e0: 6c2b b6bd feb0 99bd 951d 04bd 2541 33bd
000001f0: 1388 9abc fddc 94bd cfd2 06bc df57 0c3d
00000200: 283c 8ebd ec7d 6fbb b5d5 9d3d 7c65 04bd
00000210: 77a9 9abc c5c1 f0bc fc25 c23b a9df 553d
00000220: 8152 c03d 301a 573d 6e27 be3d dc41 c7bc
00000230: da5e 02be 457e 99bd d12f 683d 64a2 9ebc
00000240: f9ab 9ebd 74e9 ddbd b6fa 01be fbfa f5bd
00000250: 3000 bfbc 500e 913d b2bc 853d 5f82 eebd
00000260: cb9d 933d 7346 b1bd 60e7 aebc c458 4cbd
00000270: 2aad b9bc 753c 03bd 12f8 e8bd f2a6 e6bd
00000280: 2f0b aabc 1859 7f3a 6285 42bd 2bdf 5e3d
00000290: 3106 c9bd 78cf 65bc 261a cf3d 8e7f 58bd
000002a0: 3fc3 d53d a542 313d 6302 e4bd 64a7 8e3d
000002b0: e223 93bc b582 49bd 292f d93d b6ad a9bd
000002c0: d253 223c f7ef cbbc 5c3a b43d b349 e93c
000002d0: db04 593d cb49 003d be85 95bc 5bb4 c0bc
000002e0: 7bff bdbd 2485 7a3d af93 ba3d 43b0 a53d
000002f0: 763d 9abd fbbe 5439 ae72 b8bd 2005 66bd
00000300: 8ce5 93bd b3f5 283d 48dc 84bd ef56 203c
00000310: 1bb3 5b3c 6d67 8d3d ba46 aebd 47a0 a4bd
00000320: 2a79 79bd 5f0e b73d e9a9 09bd 2df0 d73d
00000330: 0757 eb3c f7c8 8a3c 31c1 383b 315b a3bc
00000340: 9436 703c 5dfc e5bc 32af 25bb 1046 5e3c
00000350: eec2 c1bd 07a1 8dbd 44c7 c43d 928d c3bd
00000360: b929 22bc bef9 da3d abaa 273d 2573 7eba
00000370: 8825 dbbd 2a69 6e3d 496a aebd c46a 04bd
00000380: a93a 28bd da7c 95bc 9725 12bc 8c1d c53d
00000390: a7f9 3b3c 7426 e23d 5606 843d 6582 a2bd
000003a0: e3ca 4a3d c9a7 a2bd bf8d 73bd 3e64 d03c
000003b0: 68de 063d 66aa b53d fe7b dbbc 3f66 a4bb
000003c0: 8d42 893d 1ac8 dcbd db56 be3d c87f b6bd
000003d0: d068 4c3c 633e 80bc eb3e 84bd f91d c03c
000003e0: dffe d63d a74f bebc ae73 8abd 4fcb 2fbd
000003f0: 8b98 dabd 9a5f 5b3d 204f 69bd dff8 a7bd
-0.037069447 0.027604152 0.005803162 0.096411 -0.0010508894 0.03146724 -0.037226066 -0.02941731
-0.100584336 -0.06081427 -0.03872025 0.00081408967 0.05604865 0.07727664 -0.080550246 -0.05859167
0.025935994 0.09815662 -0.035721973 0.07768654 -0.030282442 0.0037201399 0.10238014 -0.11140492
-0.07225148 -0.03564664 -0.05767729 0.08324837 -0.07350448 -0.055450957 -0.082929075 -0.108495526
-0.07608033 0.11009574 0.045993246 0.061927397 0.009896682 -0.04858449 0.028099325 -0.10750567
-0.079018824 -0.043971825 0.08827909 0.0700422 -0.04322448 0.003110538 0.08279442 0.10742673
0.035362594 0.020065844 0.086593956 -0.055172067 0.027447442 -0.09000361 -0.08235772 -0.058744095
0.066298 0.044847783 -0.07932063 0.025365725 0.058456354 -0.020918433 -0.0021774406 0.019033363
0.06590901 0.110113055 -0.09943953 -0.050513748 0.037519183 0.092590034 0.095134296 0.09687052
0.018068135 -0.11151713 0.026381165 -0.06090052 -0.08896967 0.11987885 0.10436659 -0.10343994
0.029841354 -0.022367977 0.0032047415 -0.036049105 0.056111485 -0.0763142 0.061257377 0.07472861
0.09188664 0.03798534 -0.13103761 -0.09074323 0.03838808 0.004389933 -0.11125126 -0.08264643
0.0939407 0.06318276 -0.04487092 -0.040637728 -0.10255367 -0.004500899 -0.07024444 -0.085042536
0.0008644994 0.02485296 -0.039348945 0.08543046 -0.058009107 0.12401083 0.09349436 -0.08295843
-0.013158314 0.016584685 0.033115838 0.054135162 0.0645203 0.023145815 -0.04646483 0.079891786
-0.08895001 -0.07504462 -0.032254774 -0.0437633 -0.018863713 -0.07268713 -0.008228972 0.034263488
-0.06945068 -0.003654356 0.07706777 -0.032323346 -0.018879635 -0.029389272 0.0059249382 0.052215252
0.09390736 0.05251521 0.09284864 -0.024323396 -0.12731495 -0.07494787 0.056686226 -0.019364543
-0.07747645 -0.10835543 -0.12693295 -0.12010761 -0.02331552 0.07082808 0.065301314 -0.1164596
0.07207831 -0.08656015 -0.021350563 -0.04988934 -0.022665579 -0.03204008 -0.11375441 -0.11262311
-0.020757286 0.0009740754 -0.047490485 0.05441205 -0.09815634 -0.014026515 0.10112409 -0.05285602
0.10437631 0.043276448 -0.11133268 0.06965521 -0.017961446 -0.049196918 0.10604698 -0.08285086
0.00990768 -0.024894698 0.08800194 0.028477525 0.052983146 0.031320374 -0.01825225 -0.0235235
-0.09277245 0.06116213 0.091102 0.0809026 -0.07531254 0.00020289041 -0.090062484 -0.05615723
-0.07221517 0.041249942 -0.06487328 0.009786352 0.013409401 0.069044925 -0.08509584 -0.08038383
-0.060906567 0.08938288 -0.033609305 0.10543857 0.028728021 0.01694153 0.0028191323 -0.019940944
0.01466145 -0.028074438 -0.0025281426 0.013566509 -0.09461008 -0.06915479 0.096083194 -0.09548487
-0.009897643 0.10692166 0.040934246 -0.0009706489 -0.10700518 0.05820576 -0.08516366 -0.032328382
-0.041071568 -0.01824801 -0.008920095 0.09624776 0.011473096 0.110424906 0.06446521 -0.07935027
0.049509894 -0.07942159 -0.05946135 0.025438424 0.032926947 0.088703915 -0.026792523 -0.0050170715
0.06702147 -0.10780354 0.0929391 -0.08911091 0.012476161 -0.015654748 -0.06457313 0.023451792
0.104978316 -0.02323134 -0.067603454 -0.0429185 -0.106736265 0.05355797 -0.056960225 -0.08201765

attn_layers.layers.0.1.to_k.weight f4 [64, 74]
00000000: 2dc9 54bc 2b21 81bd ecf1 993d 525f 8d3d
00000010: 0490 b8bd e261 f83c 47a5 48bd 1d65 8bbd
00000020: 8082 96bc 1b01 bdbc eb21 77bd a858 1f3c
00000030: 0c97 633d d86e e5bc b0dc 67bc 5a42 33bb
00000040: d086 2abd c696 813d 5d0a d83d c10f b2ba
00000050: 8889 423c 192d c03d 9091 d43d 56b1 abbd
00000060: 48ed 52bd 042a e0bd 3d0c a03d bd2c b63d
00000070: d4ab 21bd a99b 003d 7e56 283d fb0c bebd
00000080: b967 3a3d 000b 9f3d 8a4e ed3b 49eb 793c
00000090: b46c bd3c 5e75 a93d a930 e03d 95a7 973c
000000a0: ec34 673d d852 ecbc 12ff 8b3d e3ab 3bbd
000000b0: a25c aebd 2289 503d 1fe0 383d ac7c b53c
000000c0: 5c36 493d bc7c 583c d059 ff3c f096 293d
000000d0: ef71 8ebd c83e 45bc 86b5 1d3c 5d3a cabc
000000e0: 19f3 bbbd 99d3 823b bfb3 783d 4b6e 97bd
000000f0: 0de8 d93d 09aa 3a3d 142d 0b3d 5f50 0fbd
00000100: fb15 acbd f90f 1fbd a1d0 9c39 508b 20bd
00000110: 37de bf3d 6f26 33bd 8710 a5bd ae99 cabc
00000120: 2e90 0b3e 799c 83bd 0635 da3d fb6d 803d
00000130: 60fa c3bc 77c7 8a3d b00d 363d e3a0 7ebd
00000140: 9012 fcbc e20c d83d 92b0 753d a90b 8cbd
00000150: e2ac 0bbd bb59 8d3d 3446 6c3d 3da8 253c
00000160: ccb6 96bd cd1b 91bd d016 a8bc 303e 433d
00000170: a600 ee39 4767 c2bd 2adb a7bc ee50 003e
00000180: efa0 bbbd 6e5b a9bd 0d32 a93d 2cb4 f73d
00000190: f632 dabd 0f78 babd 025a eabc a7d1 053e
000001a0: 6e7a 85bd 519c 893c f83e de3d 4d70 3bbd
000001b0: 9409 e7bc f017 94bd a396 7d3c f6a1 ee3d
000001c0: 9d5b 453d b2d7 be3d e5c9 66bc 5ff6 7cbc
000001d0: 6908 92bc 9007 823d 5038 e6bc 1cf7 ddbd
000001e0: 5242 51bd ebf4 363d 83d0 e63d d6e4 fabc
000001f0: b490 d7bd 199f bdbd 842e c6bd 4752 293d
00000200: 51e6 a83d 3c95 f23c f041 cf3c ad11 963d
00000210: f9cc a23d 8ac4 973d 64f0 713d 14c8 613c
00000220: 6981 873d f329 b0bd e663 b7bd 9377 d23c
00000230: 76ae 023d fabe cfbd af11 8dbd 10b3 edbd
00000240: ecf6 be3d cdfd 923d 90b9 b9bd 797b ef3c
00000250: 4dad ccbc ecda c53d 5a43 debd 205c adbd
00000260: 515d ccbd 79b3 8a3d d666 65bd e51e 963d
00000270: d11e 213d 4b24 24bd e267 a1bc b6f0 3abd
00000280: 8f4e 473d 0afa 5cbd 9ec9 0a3d 6e55 4dbc
00000290: 01e7 c4bd 036d a9bd 643b b9bd 579f 813d
000002a0: bc8e a63c 48dc 42bc 6d12 8cbd 64b8 f4bd
000002b0: 024b 45bd c1f0 bcbd 3f81 eabd 1103 fbbd
000002c0: ba0d a4bd 04e8 03be de72 343d 5134 333d
000002d0: bd54 103d 0a1b ccbd cb67 953d 4853 b43c
000002e0: 1edf 433d 2746 11bd d083 723d 0cbc e6bd
000002f0: 668e 413d 0e3b b83d ba92 3a3d 8b5e dcbd
00000300: b977 98bc 7fb1 4ebc d2af 8a3d 3d1d 41bd
00000310: 3455 9f3c a3d9 f3bc 45e7 84bc 6c8d bf3a
00000320: a135 88bd 379b a3bd 694b c23d db4b c83d
00000330: b32d 113c 653a c83d 5843 a63d ba1f 9ebd
00000340: 017d 37bd 0ecd 71bd 2399 e83c 27aa 033c
00000350: f445 2c3b 05f2 be3d d562 50bd a6d3 52bd
00000360: d53a bfbd 489c e2bc 4ed2 da3d c666 43bd
00000370: dbb9 843b 096a 2f3d 7af9 a8bd 5ce9 8ebd
00000380: b881 b43d 5d3c 5abd 68bd 88bd 02d2 1abc
00000390: 835d 96bc e430 f83c a8bf 4d3d e74a adbd
000003a0: a427 e73d 53dd d8bd fa43 373d db19 e3bc
000003b0: 6618 34bd 077b c63d 8408 f5bd fb7f d0bb
000003c0: 4798 833d 84d3 c13d 104e e3bd 8ded 0d3a
000003d0: 312c d93d 524a fabd 7910 593c 34dd b0bd
000003e0: cde2 703c 2d5c f5bd 0979 593d 2571 24bd
000003f0: 2eb4 843d ad8e 19bc 60d3 0dbd c65e f8bc
-0.012987417 -0.063051544 0.07516846 0.069029465 -0.09011844 0.030320112 -0.048985746 -0.06806395
-0.018372774 -0.023071816 -0.06033508 0.009725727 0.05556397 -0.028006956 -0.014151737 -0.002735278
-0.041632473 0.06327586 0.10548852 -0.0013585017 0.01187361 0.09383602 0.10379326 -0.083834335
-0.05149582 -0.10945514 0.07814834 0.08895252 -0.03947051 0.03139845 0.04109811 -0.092798196
0.045509074 0.0776577 0.0072420286 0.01525385 0.023123123 0.08274339 0.10946781 0.018512527
0.056446955 -0.028848097 0.0683576 -0.04581822 -0.08513762 0.05091203 0.045135614 0.022154175
0.049124107 0.013213333 0.031170756 0.04140371 -0.06955325 -0.012038894 0.009625798 -0.024686033
-0.091772266 0.0039925096 0.060718294 -0.073940836 0.10639963 0.045572314 0.033978537 -0.034988757
-0.0840263 -0.038833592 0.0002991008 -0.03919536 0.09368556 -0.043737825 -0.08059793 -0.024731483
0.13629219 -0.06426329 0.10654645 0.06270977 -0.023923099 0.06776326 0.044446647 -0.062165152
-0.03077057 0.10549332 0.059982844 -0.068381615 -0.03410042 0.0690188 0.05768414 0.010110912
-0.073590845 -0.07085381 -0.02051869 0.04766673 0.0004539538 -0.09492355 -0.020490248 0.12530872
-0.09161555 -0.08269392 0.082614996 0.12094912 -0.10654251 -0.091049306 -0.028607372 0.13068257
-0.06517492 0.01679817 0.10851854 -0.045761395 -0.02820281 -0.07231128 0.015477809 0.11651985
0.048183072 0.09318484 -0.014086221 -0.015439599 -0.017826276 0.06349099 -0.028103024 -0.10838148
-0.05108864 0.044667166 0.11270239 -0.030626696 -0.10525647 -0.09258861 -0.09676841 0.04133823
0.08247054 0.029612176 0.025299996 0.0732759 0.07949252 0.07410534 0.059067145 0.0137806125
0.0661648 -0.08601751 -0.08954601 0.025691783 0.03190466 -0.10143848 -0.068881385 -0.11606419
0.0932444 0.07177315 -0.09068596 0.029233681 -0.02498498 0.09660897 -0.1085269 -0.08464837
-0.09978736 0.06772513 -0.056006275 0.073301114 0.03933603 -0.040073674 -0.019702855 -0.045639716
0.048658904 -0.053949393 0.033883683 -0.012532575 -0.09614373 -0.082727455 -0.09044531 0.0632922
0.020331733 -0.011893339 -0.06839452 -0.11949232 -0.048167236 -0.09225608 -0.11450433 -0.12256444
-0.08010431 -0.12881476 0.04405486 0.043751065 0.035237063 -0.09966095 0.072951876 0.022012368
0.047820203 -0.035467293 0.059207737 -0.11266336 0.047254942 0.08995639 0.045550086 -0.1076022
-0.018611776 -0.012615561 0.06771816 -0.047147024 0.019449808 -0.029766863 -0.01622356 0.001461429
-0.06650854 -0.07988589 0.094870396 0.09780093 0.008860993 0.09776763 0.081183136 -0.07720895
-0.044796947 -0.059033446 0.028393334 0.008036173 0.0026286812 0.09323505 -0.050875504 -0.051471375
-0.09337393 -0.027662411 0.10684644 -0.047705434 0.004050476 0.042825732 -0.08250709 -0.069781035
0.088138044 -0.053280223 -0.066767514 -0.009449484 -0.018355137 0.03029675 0.050231606 -0.08461552
0.11286858 -0.10589089 0.044742562 -0.02772229 -0.04396858 0.09691434 -0.11964515 -0.0063629127
0.06425529 0.094641715 -0.110988736 0.0005414121 0.10604132 -0.12221207 0.013248556 -0.08635941
0.014702511 -0.11980472 0.053093944 -0.040146966 0.06479679 -0.009372395 -0.03462541 -0.030318629

attn_layers.layers.0.1.to_v.weight f4 [64, 74]
00000000: 95a0 143d 1b88 163d f9e0 aabd 767b 12bd
00000010: fac4 babd 7edd babd f9ed b23d a387 bc3d
00000020: 0444 91bd 18d7 ccbd f558 afbd e17c 7f3d
00000030: 6f3a de3d 6599 1dbb 2e12 14bd cab1 cbbd
00000040: b0af 61bc 6f6c 743d e78d 523d b074 66bd
00000050: 4eab 67bd 84c6 243c 4dfe 3e3d 8ccf ba3d
00000060: 4ec1 e23c 7576 8a3d 9d40 b93d 17e0 e2bb
00000070: e8dd 9fbc 8d97 933d 73d7 823c 03fd f33d
00000080: f31b 8c3d be91 0b3d 8fad d5bd 89ae 993d
00000090: 2f1c 18bd 76c3 81bc faba 653d c0f7 253d
000000a0: e43f f2bc 2ce6 04bb 974d a3bd 98f6 3cbd
000000b0: 4e25 b2bc b747 133c f758 a3bc d56a 803d
000000c0: 1bfc a3bb 7698 8bbd 4479 203d 86ba f1bc
000000d0: b74b bb3d 06ea 3a38 1690 d53d dbb7 ca3d
000000e0: 1ec7 ef3d c7e2 0d3c 4024 a33d 817a 19bc
000000f0: 0a24 dd3c 07d9 80bd 2001 ccbd 2df0 c6bd
00000100: b123 f4bd 4f2d febc 9afe dabd bf64 aa3d
00000110: 8c6f d4bd f7c5 ab3d d24f 8f3c 3529 bbbd
00000120: a929 bf3d 4f3e 0a3d 4bca 2bbc 1130 c73d
00000130: 0789 cdbd b288 a23d d989 5bbc 0d3a 2f3b
00000140: d233 363d f148 3dbd bea5 11bc 00c8 9e3d
00000150: 42e5 323d 74ac 5f3d 2def bb3d 3efc a9bd
00000160: 1321 bbbc d504 d83d dc88 0abd 9a69 093d
00000170: f3a2 3c3d 9b89 ccbd 4101 673b 268c d93d
00000180: 49e4 8ebc 2465 f0bd 5a23 e2bd 7a08 db3c
00000190: 111e d8bc 0ece 93bd b405 b73d 80bc 8fbd
000001a0: 3a4a a5bd 227d 973d e15b ad3d 1806 133d
000001b0: 00f5 fb3d 8788 3c3a 8148 b33d 7d56 93bd
000001c0: b231 c2bd 7650 363c 094b 96bd e8f0 24bc
000001d0: 48fc cfbc e7c6 953c 507f 00bd e241 49bc
000001e0: deab d8bd c815 3dbd 779b 763d 0959 cb3d
000001f0: 3f8b c63d cd49 863c f645 c3bc 5538 c83d
00000200: edf8 f83b a321 c739 05c7 193a ab4c 90bd
00000210: a826 f0bc 1067 d4bd 3254 02bc 4e15 d8bd
00000220: 428a 863c 1bb8 3b3b a9b4 2f3d 3b0f 9cbd
00000230: 20b1 5e3b 6904 f2bc c9e2 8abd 2e56 b93d
00000240: 2651 e6bd 8de4 a93d 5a1a e5bc 6aad 7ebd
00000250: 9015 eebd 5de2 ddbd 2c3c 38bd cc4b 973d
00000260: cafa 9e3c a8ab b1bd 5d39 cc3d 7122 c83d
00000270: 8b0b 3f3d 2689 d13d 3266 903d 5753 3f3c
00000280: 860d 943d 26ff 95bd 7f31 11bc 02d2 75bd
00000290: b4bf 57bc 2e16 c0bd 3269 a13d 6f47 35bd
000002a0: c5ac 0b3d 7554 de3d f327 253d 8667 01bb
000002b0: 52e7 de3d 1c6a 02be 3439 e73d ff1f c9bd
000002c0: a87b de3d f53f 2b3b f83b 9bbd 9dc7 24bd
000002d0: cf1c 84bd 620d 883d 9174 cf3d 566e 883d
000002e0: ac3f aa3d 355d d73d 36c8 d6bd 4b1a 433d
000002f0: 3106 4a3c 30dc 8a3d d7ce ac3c c2d0 083c
00000300: 7814 8c3d 6f05 4bbd 69ae acbd 3bd6 aebd
00000310: 2fd6 a73d 5553 6c3b ac8e c4bd 469c 1a3d
00000320: 0fcb f0ba d5c8 7bbd b8dd db3d 0491 9e3d
00000330: b63a c53d 7db5 99bc 69d1 88bd bec0 c1bd
00000340: c799 b23c 6549 9ebd c1d1 8e3d f49b cdbd
00000350: b59e 9dbd 360c 953c c5ca 003d e72b 3cbc
00000360: ccf9 a6bc 48c1 6dbd 5f0f 05bd 99c8 a53c
00000370: f31d d0bd 7de9 a6bc b926 8cbc 9c2e beba
00000380: 199e b33d 941e c1bd ba5a 333d 86ac 313d
00000390: 1700 f83c 675a 0fbd b4d7 953d 3caa a2bd
000003a0: e764 3cbd 4e1d 32bb b633 14bc d2ee debd
000003b0: 7e22 853d 2d7b 803d e42e e5bd e8b1 c2b7
000003c0: 9e45 cabd 7cf1 c9bc 2997 3c3c fc2c d13d
000003d0: c7e8 9d3d 033c 733d 88bc 963c c474 ecbd
000003e0: 505f 3ebd 3020 c73d 8cf9 4a3c 07eb c6bc
000003f0: 5a43 38bd 2c57 793d 9dc2 9e3d bd09 01bc
0.036285955 0.036750894 -0.083436914 -0.035762273 -0.091196015 -0.091242775 0.08736796 0.09205558
-0.07093051 -0.100019634 -0.08561889 0.062374953 0.10850989 -0.002404773 -0.03615015 -0.0994602
-0.013774797 0.059673723 0.05140486 -0.056263626 -0.056559853 0.010057095 0.04662924 0.09121618
0.027680065 0.06760875 0.09045527 -0.0069236862 -0.019514993 0.072066404 0.015971875 0.119134925
0.068412684 0.034074537 -0.10433494 0.07503993 -0.037136253 -0.015840273 0.056086518 0.040519476
-0.029571481 -0.0020278795 -0.079737835 -0.046133608 -0.021746304 0.008989266 -0.019939883 0.062703766
-0.0050044185 -0.06816189 0.039178148 -0.029507887 0.09145301 4.4563807e-05 0.10427873 0.09898349
0.117079005 0.008660025 0.079658985 -0.009367586 0.026994724 -0.06291395 -0.09961152 -0.09713779
-0.1192087 -0.031027464 -0.10693093 0.08319997 -0.103728384 0.08387368 0.017494116 -0.09138719
0.09334118 0.03375083 -0.010485242 0.09725965 -0.100359015 0.07936229 -0.013399565 0.0026737482
0.044483013 -0.04621214 -0.008889614 0.07752991 0.04367567 0.054607823 0.091764785 -0.083000645
-0.02284292 0.10547797 -0.033821926 0.033547975 0.046053838 -0.09987184 0.003524855 0.10622434
-0.01744284 -0.11738041 -0.11041899 0.02673744 -0.026381524 -0.07217036 0.08936635 -0.070183754
-0.08070798 0.07396914 0.0846479 0.035894483 0.123025894 0.0007191975 0.087540634 -0.07194231
-0.09482135 0.011127582 -0.073385306 -0.010067202 -0.025388852 0.01828332 -0.031371415 -0.012283774
-0.10579656 -0.04616335 0.060206857 0.099290915 0.09694528 0.016392613 -0.02383707 0.097763695
0.0075980336 0.000379813 0.0005866143 -0.07045873 -0.029315308 -0.1037122 -0.007954644 -0.105509385
0.016423348 0.002864367 0.0428969 -0.076200925 0.0033980086 -0.029543119 -0.06781537 0.090496406
-0.112459466 0.08295546 -0.027966667 -0.0621771 -0.116252065 -0.10834191 -0.04497926 0.07387504
0.019406695 -0.08675319 0.09971879 0.09772194 0.046641868 0.10231237 0.07050742 0.011677585
0.07229142 -0.07324056 -0.008861898 -0.060014732 -0.013168264 -0.093792304 0.078813925 -0.044257578
0.034100313 0.10855953 0.0403213 -0.0019745543 0.108839646 -0.1273579 0.112902075 -0.09820556
0.10863429 0.002613065 -0.075797975 -0.04022943 -0.06450807 0.066431776 0.10129655 0.0666167
0.08312926 0.10515825 -0.10487406 0.047632497 0.012330578 0.06780279 0.021094723 0.008350553
0.068398416 -0.04956573 -0.084317036 -0.08536955 0.08195149 0.0036060412 -0.09597525 0.03774669
-0.0018371063 -0.061470825 0.10735649 0.07742503 0.09630339 -0.018763298 -0.06680567 -0.09460591
0.021801842 -0.07728843 0.06973601 -0.10039511 -0.076962866 0.0181943 0.031443376 -0.0114850765
-0.020382784 -0.058045655 -0.032485362 0.020237254 -0.10161962 -0.020375008 -0.017108308 -0.001450974
0.08770389 -0.094296604 0.043787695 0.04337742 0.03027348 -0.034998324 0.07316533 -0.07942626
-0.045994665 -0.0027178111 -0.009045532 -0.10885395 0.065007195 0.06273494 -0.11190584 -2.3209446e-05
-0.0987656 -0.024651282 0.011510649 0.10213658 0.077104144 0.059383404 0.018400446 -0.11545709
-0.046477616 0.09722936 0.012388598 -0.024281992 -0.044986106 0.06087415 0.07751963 -0.007875857

attn_layers.layers.0.1.to_out.weight f4 [74, 64]
00000000: b4a7 a13d 78e8 7a3d c7f4 573d 7938 babd
00000010: 224b f83d 6c9a e6bc 5083 8f3d 932a dd3d
00000020: 4e29 043d 10a5 bfbd 7386 bfbb 1fb5 95bd
00000030: d1db ddbd 94f8 be3d f6fb 39bd 24bf c63d
00000040: dc6a 9abd 579b 6c3d fc4d 0dbc 514d 2dbc
00000050: bf34 933d 78dc eabd 52d3 db3d 07fc 0ebd
00000060: 6f32 6d3d 26de 9abd 16a5 80bd 961b 103a
00000070: a49c e1bc d6f6 45bd 0afa 8b3d 5591 01bc
00000080: d7cd 65bd ce39 84bc 5329 e23d d941 debd
00000090: f192 b7bc 36db 03bd bb25 6b3d d309 cc3d
000000a0: 9b61 a1bd 6f13 d2bc 6759 e7bd dcf5 d5bd
000000b0: 461d 423d a168 26bc 342a ce3d 8179 6cbc
000000c0: 4420 80bd e34d 26bd f0e6 273c 0bbc a83d
000000d0: 2c84 863c 5f71 f33c 6223 35bd 83ce 583d
000000e0: 5581 a6bd c7f6 833d 74b7 ccbb b94e d23d
000000f0: 1c4a 83bd ffaf 053e f426 983d bc39 ccbd
00000100: 73b3 1ebd 13e4 e43d e187 3d3d 9970 dc3d
00000110: 346f b2bc 83e7 5bbd 9aca a63d 4fdf 2ebd
00000120: 8624 f93d d405 913d 5cf0 003e c189 be3d
00000130: 2012 2abd ab54 db3d d450 c2bd 59e3 f63d
00000140: 9c4f 4ebb 9477 60bd 5b65 183d 66ef 8a3d
00000150: baa8 84b8 d944 b63d 74cf e5bb 4dde 05be
00000160: 1556 9f3d ee05 323a c435 8c3d e057 6bbd
00000170: 087b ab3d 3ed4 393d ca63 8dbd 97c9 debd
00000180: 5666 19bc fab0 c03c 6443 9ebd 738b 26bd
00000190: 559b e2bc 19c7 f7bd 5c90 5fbd 1503 86bd
000001a0: 635e f63b 1164 fc3d 1efc a13d 95d7 573d
000001b0: b978 e23d 7e2a 5a3c 7101 173d 5bba 90bd
000001c0: cf46 833d 7ca4 853d 2f31 de3c 66df 98bd
000001d0: 1fb2 1c3d 42d7 863c a28c 963d cee3 a6bb
000001e0: c220 ea3d 5e20 f7bc 9725 8e3d 9a8d bb3c
000001f0: 3421 c9bd 0f3f 4f3d 6ce2 eabd 911a dbbd
00000200: 6252 ce3d 2a85 9bbd 287e a6bd 1c1a 11bd
00000210: 0d01 d13d 2970 f93d 0390 4dbd b959 9dbd
00000220: 7a84 8cbd 03a7 78bd 19f3 f3bd 5e11 73bd
00000230: 353e b53c 6e64 0dbd 20fa f2bd 62e7 a1bc
00000240: 4cdd e93d 4933 f73c 2360 273d 6ddf bfbd
00000250: 38f8 cbbd 199c a7bd 49ac 23bd 9901 b3bc
00000260: fd01 62bd 7155 263d cca7 a43d 136d 00bd
00000270: a242 e6bd e538 47bd 8c92 dd3d 677d b8bd
00000280: 37a4 4cbd 5e70 543d 82f8 dbbc 6099 e93d
00000290: 4ae1 22bd af45 af3d ff0d 8b3d 2e12 e5bd
000002a0: e093 f53d d3f6 a3bd b0ff a43d 4821 a8bd
000002b0: 28bc 38bd 69c0 453d 92e3 7cbc 14eb aebd
000002c0: 353b af3d 76b1 183d e053 f83a bdd3 d63d
000002d0: 06de 473d cb31 ec3d e328 ccb9 42ac d5bd
000002e0: 22b4 983d acd9 e1bd 5cf1 493d 6b86 96ba
000002f0: 9d51 11bc 1a2d 5bbd 68c0 a1bd 01db d8bd
00000300: 1865 e23c 2408 7fbc ff5b 93bd 4a2d de3d
00000310: 7cf1 a33d 4cd7 c13c d5c2 033d 128b 82bc
00000320: 4037 bc3d 6721 f8bd 0723 a7bd 2280 bc3d
00000330: 6380 ae3d cedf 853b 2f4b 27bd 3481 533d
00000340: 25ce b93d 275b 2cbd 297e 6a3d 7dff 7b3d
00000350: 94af 7c3c 7166 a0bd dd90 7f3c e0c8 cdbc
00000360: 18e4 0b3d d543 b2bd eb1d 3b3d 0954 d83d
00000370: 2dac 7abd 9eca bd3d 6a06 673d 1b84 3dbc
00000380: 9148 9abd 6084 823d d703 b7bd c2c8 973d
00000390: bff4 d2bd 29af 84bd d561 333c 1f91 773d
000003a0: 89fb eebd 6107 1b3d e9e2 ffba 96ba 99bd
000003b0: 98b5 03bd a604 d43d 2f35 babd 94e3 75bd
000003c0: 0646 ab3c 8608 d0bd 72e1 433c 2e8f 0f3d
000003d0: d1df 353d 79df 263d 91a1 d83d fc68 a53b
000003e0: 07b3 e93d 2152 77bd 55c3 9e3c e1e8 a6bd
000003f0: 5864 fcbd e493 a93c 0460 5ebc 1370 84bd
0.07893315 0.061256856 0.052723672 -0.090928026 0.121237054 -0.028149806 0.07007468 0.10799136
0.032265954 -0.09357655 -0.005844885 -0.07309937 -0.10832942 0.09324756 -0.045406304 0.09704426
-0.07539913 0.05776533 -0.00862455 -0.010577516 0.07187795 -0.11467832 0.107336655 -0.03490832
0.057909425 -0.07561903 -0.06281488 0.00054972747 -0.027540512 -0.048331104 0.068348005 -0.007908185
-0.056104507 -0.016140845 0.11043038 -0.10852403 -0.022408934 -0.032191478 0.05740903 0.09962811
-0.07879945 -0.025644032 -0.11296349 -0.104472846 0.0473912 -0.010156781 0.10066643 -0.014433266
-0.06256154 -0.040601622 0.010247931 0.08238991 0.016420446 0.029717145 -0.044223197 0.05293132
-0.08130137 0.064435534 -0.0062474553 0.102689214 -0.064106196 0.13055418 0.07429305 -0.099719495
-0.038745355 0.11176314 0.046272162 0.10763664 -0.021781541 -0.053687584 0.08144112 -0.042693432
0.121651694 0.0708119 0.1259169 0.09303618 -0.04152119 0.107095085 -0.09488073 0.12055082
-0.0031480556 -0.05480154 0.037206035 0.06783943 -6.325678e-05 0.088998504 -0.0070132557 -0.13073082
0.07780091 0.0006791045 0.068461925 -0.05745685 0.08373076 0.045368426 -0.06903799 -0.10878294
-0.009362778 0.023521889 -0.077276975 -0.040660333 -0.027661959 -0.12098522 -0.05458103 -0.065435566
0.007518576 0.12323774 0.07909416 0.05269583 0.11058182 0.013315795 0.03686661 -0.070667945
0.0640999 0.065255135 0.027123062 -0.07464485 0.038255807 0.016460065 0.07351042 -0.0050930744
0.11432029 -0.030166801 0.069407634 0.02289467 -0.09820786 0.050597247 -0.11468968 -0.106984265
0.10074307 -0.075937584 -0.08129531 -0.03542529 0.102052785 0.12179596 -0.05018617 -0.07683129
-0.068612054 -0.06070615 -0.119116016 -0.059342735 0.02212439 -0.034519605 -0.11864114 -0.019763652
0.11419162 0.030175822 0.040863167 -0.09368787 -0.09959453 -0.0818407 -0.039959226 -0.021851348
-0.055177677 0.040608827 0.08039817 -0.03135402 -0.11243178 -0.048638243 0.10818967 -0.090082936
-0.049961295 0.051864974 -0.026851896 0.11406207 -0.039765634 0.08558213 0.06789779 -0.11185108
0.119910955 -0.08006062 0.08056581 -0.08209473 -0.045101315 0.0482792 -0.015435116 -0.08540931
0.08556215 0.037278615 0.0018945895 0.104896046 0.048795722 0.11532935 -0.00038940375 -0.10433246
0.074562326 -0.11027846 0.049302444 -0.0011484151 -0.008869556 -0.05350981 -0.07898027 -0.10588647
0.027636096 -0.015565906 -0.07195281 0.10848482 0.08005044 0.023662232 0.03216823 -0.015935455
0.091902256 -0.12115746 -0.08160978 0.09204127 0.085205816 0.0040855175 -0.040843185 0.05163689
0.09072522 -0.042079117 0.057249222 0.06152295 0.01542272 -0.07832039 0.015598503 -0.025120199
0.034153074 -0.08704344 0.04568283 0.105629034 -0.061199356 0.09267162 0.0564026 -0.011567141
-0.07533372 0.06372905 -0.08936279 0.074113384 -0.10300588 -0.06478722 0.010948618 0.060441133
-0.1166907 0.037848834 -0.001952258 -0.075062916 -0.032155603 0.10352449 -0.09092175 -0.06003149
0.020907413 -0.10157876 0.011955606 0.035048656 0.0444029 0.040740464 0.10577691 0.0050479155
0.114111 -0.06038106 0.019380251 -0.08149887 -0.123238266 0.020700403 -0.013572697 -0.06466689

attn_layers.layers.1.0.0.weight f4 [74]
00000000: 882d 7d3f fdd5 7e3f 7d7c 803f d2d1 7f3f
00000010: 5e24 813f ce71 7d3f 5fae 7c3f 74a1 7d3f
00000020: 2ee2 803f 4849 813f 3540 803f e211 7e3f
00000030: 6272 7e3f 7a5b 813f e128 803f 460e 803f
00000040: 7eb1 803f ab36 7f3f 214e 7f3f 5e40 7f3f
00000050: d969 7e3f e94d 803f 8e86 7f3f e5d2 803f
00000060: 621c 7f3f 838c 803f 5188 803f a609 803f
00000070: 9f9e 7e3f af1b 823f 3d71 7f3f 6b2b 823f
00000080: 40bd 7f3f d42e 803f f74f 803f 920a 813f
00000090: 00d8 7f3f f3e2 7f3f 0a84 7e3f 1a6d 7d3f
000000a0: 8c84 7f3f 8a79 803f 7ec7 7f3f 290d 7f3f
000000b0: cfd5 803f 83ed 7e3f 4163 7d3f f976 803f
000000c0: 761e 803f 8314 7e3f a81a 7e3f da90 7f3f
000000d0: f8be 803f eb30 803f 7e40 7d3f eee8 7f3f
000000e0: 1563 813f d01c 803f 6193 803f 3a70 7d3f
000000f0: 98a9 803f cc37 803f bcf8 7f3f 1f49 803f
00000100: 6a59 7f3f 1431 803f 02fb 7f3f 72b2 7f3f
00000110: adf1 7f3f 17f8 803f 463a 7f3f 5390 7f3f
00000120: e584 803f 2ae4 7f3f
0.988976 0.9954527 1.0037991 0.99929535 1.0089223 0.9900178 0.9870357 0.9907448
1.0069025 1.0100489 1.0019594 0.99246037 0.99393284 1.0106041 1.0012475 1.0004356
1.0054166 0.9969279 0.9972859 0.9970759 0.9938026 1.0023776 0.9981469 1.006436
0.99652684 1.0042881 1.00416 1.0002944 0.99460787 1.0164698 0.9978216 1.01695
0.9989815 1.0014291 1.0024403 1.0081351 0.99938965 0.9995567 0.99420226 0.989946
0.99811625 1.0037091 0.99913776 0.99629456 1.0065249 0.99581164 0.98979574 1.0036308
1.0009296 0.9925005 0.99259424 0.998304 1.0058279 1.0014929 0.9892653 0.999648
1.0108362 1.0008793 1.0044976 0.9899937 1.0051756 1.0017028 0.99988914 1.0022315
0.9974581 1.0014977 0.9999238 0.9988166 0.9997814 1.0075711 0.99698293 0.99829596
1.0040556 0.99957526

attn_layers.layers.1.0.0.bias f4 [74]
00000000: d347 e23a 0b0b b4ba ab3e 453a e572 b7b9
00000010: 4247 713a fe3e 3c3a e06f ca3b 9c35 0b3b
00000020: cebe e83a 2c39 353a b727 cf3a e31f fb3b
00000030: b1d2 263c 3a85 d7ba e1b5 103b 5d75 743b
00000040: ad32 913a 9896 4c39 ff6c 8b39 1689 25bb
00000050: ed49 d9bb 83a4 04bb 5279 13bb af0e 94ba
00000060: 7a01 0a3a 155e 8fba 1fbb d83a f7fe a53b
00000070: 0d06 c03b 4d45 40bb 5ad4 cd3a dfd5 3bbb
00000080: 1e54 fc3b fe88 33b9 2392 51bb 554c cd3b
00000090: 4fd8 88ba ed64 233a 027e 8e3b 7611 fe3a
000000a0: afdf 513a 5a06 c2ba d23d 253b 9145 21bb
000000b0: 8809 f03a edbe 053b 6f19 a53b a651 82bb
000000c0: fa9c 42ba f038 fa3a ed16 4bba 8d9a a53b
000000d0: def8 13bb 328e 053b 2149 a43b 884e 063b
000000e0: e2bf 3c38 cc62 d2b9 3b3e 15bb de69 f7bb
000000f0: a015 dbbb 378f a8bb d192 32bb 7f85 95bb
00000100: f6e3 9abb 7187 6ebb 7968 76bb 0b4a 8cbb
00000110: 1195 dbbb 0753 acb8 e5fe 18bc fef2 b3bb
00000120: 8c9d 3cbb 0d0b 76bb
0.0017263837 -0.0013736201 0.0007524292 -0.00034990083 0.00092040387 0.00071810174 0.0061778873 0.002124167
0.001775706 0.00069131213 0.0015804683 0.0076637133 0.010182069 -0.0016442903 0.0022081065 0.00373014
0.0011077725 0.00019511057 0.00026593354 -0.0025258712 -0.006631127 -0.0020239658 -0.0022502732 -0.001129588
0.0005264502 -0.0010938073 0.0016535259 0.0050657946 0.0058600963 -0.0029338181 0.0015703544 -0.0028661413
0.0077004572 -0.00017121804 -0.0031977973 0.006265203 -0.0010440442 0.00062329957 0.0043485174 0.0019383866
0.0008006049 -0.0014802918 0.002521385 -0.0024608115 0.0018313387 0.002040799 0.0050384323 -0.0039770184
-0.0007423904 0.0019090455 -0.00077472517 0.0050538243 -0.0022578756 0.0020378944 0.0050136005 0.0020493586
4.5001398e-05 -0.0004012793 -0.0022772688 -0.007550462 -0.0066859275 -0.0051440257 -0.0027248154 -0.004563033
-0.004726882 -0.0036396647 -0.0037598892 -0.0042812875 -0.0067011197 -8.217064e-05 -0.009338115 -0.0054916134
-0.0028780429 -0.0037543208

attn_layers.layers.1.1.ff.0.0.weight f4 [296, 74]
00000000: 0b38 2e3c 77d4 8abd 88c1 8b3d 8fea 06bd
00000010: a0ee 293a 98ab c63d 322e 94bd bc04 d93d
00000020: a053 7a3d bc80 97bd a700 aabd 206b d1bd
00000030: 606f a33d c3ac 0d3c 94e2 46bc 4742 c83d
00000040: 868c c1bc a363 3d3d b417 ca3c f38c 4abc
00000050: 34d3 76bd 3204 9ebd 7ad1 e0bd c35f bb3d
00000060: 33ca cb3d 377d e23d d465 5d3d 61f3 05bd
00000070: 1a95 89bd 22a8 f3bd 94f1 29bd 47b1 a7bd
00000080: b19b ffbc 123d aebd b82a b5bd 2d06 19bb
00000090: 7614 a9bd dba3 623c 2da3 56bb 3477 b73d
000000a0: 8226 7a3d ea88 663d f994 9dbd e54d ad3c
000000b0: 1ba7 84bd e773 893d 7c3a d93d 4400 c4bd
000000c0: 308c c53d 90d5 9bbd d247 4cbd fe07 8bbd
000000d0: 4a0a 033d 3ffb dcbd ae52 95bd 4a69 a83c
000000e0: 4bed 49bd 641c bd3d 56f7 24bc 852a 3c3d
000000f0: 49c6 593d c88d 9bbd ad6c d03d 474a 9b3d
00000100: 8b48 443d c952 d5bd 98ec d83d fdf8 a4bd
00000110: 4b38 d13d ad5f e93d 8252 963b e4b6 563d
00000120: 822d b1bd d5d7 a53d e896 283c 8004 bf3c
00000130: 374e abbc 136f 9b3d 66f1 babd 9649 723c
00000140: 802a 383d 9a40 7f3d 3e72 75bd fc5f a83c
00000150: 8a33 233d 3fc0 79bd 8a1c 5dbd 806a 973c
00000160: 887f 4fbd ff7b ee3d 4d75 c53c 646b 15bd
00000170: f2ff fa3c c716 3abd 54e2 89bb 2d73 e73c
00000180: 2033 393d 2692 ab3c 6f95 ba3a b87d 5dbd
00000190: e180 dcbd be16 a03d 3805 aebc e811 f4bd
000001a0: 29a4 b83d 6a04 df3d fa86 bdbc 3bc3 c53b
000001b0: 95d4 abbd ed41 9d3d b407 cbbd d2ee a53d
000001c0: 3b01 173d ba28 bc3d f8d6 84bd ff12 1fba
000001d0: 2109 b23b 5bb7 373d b363 083d 78dc f73c
000001e0: fe2c ef3d 29cc c03c 25b5 9ebd 7f5a 66bd
000001f0: a22c 7a3d c70c e23d e04a e8bd 6d15 ccbd
00000200: 44f3 c2bd 7ca5 b03d 2ab5 6ebd 482b 753d
00000210: b5a2 59bd 902a 8a3d a4c1 7dbb f980 1fbd
00000220: 0956 b33d 9adf e03d 2965 36bd 7997 b83d
00000230: 59a6 cbbd b533 b9bd cfe9 843a 5d87 d73d
00000240: 3d3c 0c3c 7ecb b83d 056d 973d b4ab 943d
00000250: 987b 183d db05 d9bd 1830 afbd 7232 c1bd
00000260: 5964 fb3c 6b25 6d3c 5bdd c93c 96a4 edbd
00000270: 7a0c 0e3d f8fd 80bd 6c8e e8bd 144e a23c
00000280: 5214 6bba 1943 bcbd e274 bb3a 9d82 383d
00000290: 4218 f8bd fc0b 10bc 84e8 b13d f474 c73d
000002a0: 1484 37bd 0ede 1fbd acd0 83bd e757 c4bd
000002b0: 8efa 59bd afac a93d e216 c63d d3ee 28bd
000002c0: 590e 4a3c 77fd a2bd b47d 52bc 0ab9 8e3d
000002d0: 5558 9d3d ec3c 94bc 9a71 b1bd 9f80 de3b
000002e0: 5685 45bd 0964 013d d070 dc3d 8a26 eb38
000002f0: 29c8 37bc b57e 49bc 34e7 81bb 11d1 053d
00000300: 76ec 1abb ecbc d8bd 3e86 e33d 6fd6 64bd
00000310: dbef ee3d 1a15 82bb 9e03 f3bb 9d46 723d
00000320: d55f 79bd 3c69 a43b 564e 2fbd 6ab0 b2bd
00000330: c6c2 973d d6ab 9f3d 221a 513d 2c76 ec3d
00000340: 1ea8 693d 30c1 d33d d898 b5bc 9c44 ab3d
00000350: 4c1f c33c 84f9 10bc c38f a63d 92ca bdbd
00000360: e6cf 41bc d2e2 68bd 633c dd3d dccb 80bc
00000370: 0333 0f3d 4ffb 933d 8444 643d 26c6 54bd
00000380: aa3e 41bb de0b 723d 878c 73bd 7b39 133b
00000390: bb38 babd 929e b23c 96d7 be3d b529 a43c
000003a0: 65a0 c13c f474 c43d 0f02 8e3c ee5e 2bbd
000003b0: cd47 c63d 387e aebd 5052 333d 780d 953d
000003c0: 8062 8ebc 2b24 f7bd 4ca0 4b3d 27ea b73d
000003d0: 1e49 39bc 16f1 893d d787 1e3d a653 e33c
000003e0: 0d1f fe3d 0753 8abd be25 863c a585 c3bd
000003f0: abf3 e03d 6136 213d ad50 be3d 32c3 cdbd
0.010633479 -0.06778806 0.068240225 -0.032938536 0.0006482396 0.09700698 -0.072353736 0.10596606
0.061114907 -0.07397601 -0.08300906 -0.102255106 0.079802275 0.008647147 -0.012138981 0.097782664
-0.023626577 0.0462376 0.024669506 -0.0123627065 -0.060260013 -0.07715644 -0.109774545 0.091491245
0.09950676 0.11059039 0.05405219 -0.032702807 -0.06717892 -0.11897303 -0.041490152 -0.0818811
-0.03120217 -0.08507742 -0.088460386 -0.0023349628 -0.08255856 0.0138330115 -0.003275107 0.08958283
0.06107188 0.056282915 -0.0769443 0.021155307 -0.06477185 0.0671156 0.10606858 -0.09570363
0.09645879 -0.07609093 -0.04987318 -0.06788634 0.031992234 -0.10790109 -0.072911605 0.020558018
-0.049298566 0.09233931 -0.010068735 0.045938987 0.053167615 -0.07595402 0.10176978 0.07582527
0.047920745 -0.10416181 0.10592002 -0.08055303 0.10215815 0.11395202 0.0045874724 0.05242051
-0.08651258 0.08097807 0.010289885 0.023317575 -0.02091132 0.07589545 -0.09128074 0.014788052
0.044962406 0.06231747 -0.059923403 0.020553581 0.039844073 -0.060974356 -0.053982295 0.0184834
-0.050658733 0.11644744 0.024103785 -0.03647937 0.030639622 -0.04543188 -0.0042078886 0.028253162
0.045214772 0.020943712 0.0014235209 -0.054074973 -0.10766769 0.07816838 -0.021242723 -0.11917478
0.09015686 0.10889514 -0.02313565 0.006035236 -0.08390156 0.0767859 -0.09913579 0.08102192
0.036866408 0.091874555 -0.064863145 -0.0006068199 0.005433217 0.044852596 0.033298206 0.030256495
0.116785035 0.023534851 -0.07749394 -0.056238648 0.06107772 0.11037593 -0.11342406 -0.09965024
-0.095190555 0.08625314 -0.05827824 0.05985573 -0.053133685 0.067463994 -0.0038720155 -0.038941357
0.08756644 0.109801486 -0.044530068 0.09013266 -0.09943838 -0.090430655 0.0010140481 0.10523865
0.008559284 0.09023188 0.07393841 0.07259312 0.037227243 -0.1059682 -0.08554095 -0.0943345
0.030687498 0.014474253 0.024641683 -0.11603658 0.034679867 -0.06298441 -0.1135529 0.019812621
-0.00089675665 -0.09192485 0.0014301802 0.045046438 -0.12114002 -0.00879192 0.08686927 0.09739104
-0.044803694 -0.039030127 -0.064362854 -0.095870785 -0.053217463 0.0828489 0.09672333 -0.041243386
0.012332522 -0.07958501 -0.012847353 0.06968887 0.076828636 -0.018095456 -0.08664246 0.006790235
-0.048222862 0.03158954 0.10763705 0.00011212852 -0.0112171555 -0.012298276 -0.003964329 0.032670084
-0.0023639477 -0.10582909 0.11109589 -0.055868562 0.116668426 -0.0039698007 -0.0074162027 0.059149373
-0.06088241 0.0050174277 -0.042799316 -0.087250546 0.07410197 0.07796447 0.051050313 0.11545977
0.057045095 0.10339582 -0.022167608 0.083626956 0.023818634 -0.008848552 0.08132889 -0.09267153
-0.011829352 -0.056856938 0.108025335 -0.015722208 0.034960758 0.07225668 0.055729404 -0.05194678
-0.0029486814 0.05909335 -0.05946019 0.002246468 -0.09092852 0.021804128 0.093184635 0.020039419
0.023636052 0.095926195 0.017334966 -0.04183858 0.09681664 -0.08520168 0.04377967 0.072779596
-0.017380953 -0.12067445 0.049713418 0.08980208 -0.011308936 0.067354366 0.038703766 0.027749848
0.12408266 -0.067541175 0.016375419 -0.09546975 0.10983976 0.0393585 0.092927314 -0.10046996

attn_layers.layers.1.1.ff.0.0.bias f4 [296]
00000000: 3629 a03d 0e62 923c 8ed8 ac3d 48a9 b5bd
00000010: 2dcd ba3d 51d8 e4bd d586 e83c 2e53 b9bd
00000020: 7c05 7ebd 427a aabd 1f69 d0bc 031e a03c
00000030: 7539 77bb 689d e1bd bcad 67bd 2a64 b7bd
00000040: 2094 debd c57a d53d d319 b33d 44d3 8ebb
00000050: 0baa 44bd 49fc 0c3d e155 e53d dbb5 103c
00000060: 5edd 453d 3825 893d 9657 863d 8149 eebd
00000070: 4468 edbd 8c5a d13d cf6c 573c b42d c13b
00000080: 629f f13c 72d1 a93d 939c d03c 58bd c5bd
00000090: 92bf 56bd 9b03 cf3d 8fa4 51bd 572b 173d
000000a0: c762 eabd e746 3b3d 6fc5 013d 972e 953c
000000b0: 56d0 543c a21c aabd a584 c13d fed3 7ebd
000000c0: 1329 ca3d d61d b9bc 7a84 7abd 2e81 8d3d
000000d0: 39be f43c 3747 e73d 9dad 3c3d cba9 dbbd
000000e0: da17 063d d9f0 653d d1aa 6cbd aef0 893c
000000f0: ca29 b8bd eaa1 85bd c796 99bd 5485 cf3c
00000100: aa94 bbbd a0ce cebd baf5 b93d 8d8d 9fbd
00000110: 427f 3cb9 dda7 653d 7fad 173d f6df ccbd
00000120: 2a92 abbd d6de 283c 6776 39bd de2b 85bd
00000130: aee6 2b3d 6ed9 483b 4d8e e7bd c5a9 99bd
00000140: ee87 febc 5542 1c3d 0dd9 f1bd 3d6a 91ba
00000150: c7c9 c2bb a10b 82bd 8edc 353d b20c 87bc
00000160: abba 92bd 2597 c7bd b3e8 c3bd a16e 353c
00000170: 14c2 01bd b98c cc3c 21ba c33d 272f b53d
00000180: 4ae8 96bc 5e51 0b3c 0d6c 7abd af49 4b3d
00000190: ec96 bf3d fae9 0ebd 8686 92bd 31d6 e1bd
000001a0: b152 3e3c b9ee 1b3d e4c9 87bd 7d79 d5ba
000001b0: 7523 8abd f61a 6cbd 10b3 babd 8ab0 dbbd
000001c0: 1f19 56bd db02 a23d 0dbc 8dbd 3c90 753d
000001d0: 82cb 9ebb 1472 a2bd 31eb 3dbd fcf7 dfbb
000001e0: 1b34 cd3d 18cf a4bd 45c0 bdbc 1aa9 d03c
000001f0: 8f2f cf3d fb1e 3b3b 30c2 bc3d 01bd 823d
00000200: 086d 533d 29cf 60bc f897 d83d cffe 183d
00000210: a6d0 933d 9dd9 29bd 1bdc 893c 34b5 293c
00000220: 2669 133d a8b6 d33c 3149 eebc d967 f5bc
00000230: a9c8 783d 351b cd3d b8e5 0d3c 6afd bbbd
00000240: 4cf6 fbbb ded6 97bd cd74 8f3d a139 c73c
00000250: 035a a2bc 1a8c c23c 4693 613d 6bf7 d53d
00000260: 9e0b 163d ace5 9e3d fee4 a73d b9a2 9a3d
00000270: 5f9e a33d 8fc6 8b3d beaa 883d b577 2fbd
00000280: e7c9 dc3a e006 503d 9aee 8d3d 23bc dcbd
00000290: 3683 623d 96a2 7d3d 5152 1e3d 80c7 893d
000002a0: 6841 d9bd 7130 88bd 2bb2 c53d 97ed 67bd
000002b0: eb0e d2bd 1a78 003c e1e5 f93b f51a 99bd
000002c0: 7088 7f3c 8d1e e1bd 705c e63a ca35 04bc
000002d0: 13a0 323c b008 283d c316 d63d e80a 07bd
000002e0: 96bd 75bd 3fe2 eb3d 2eb3 b83c 2b9c d2bd
000002f0: 49bc 023d f4fb cabd 8e2b cf3d 85fb 87bd
00000300: e6c2 aebd 8f30 833d faed 843b 0687 df3b
00000310: 69d3 f0bb 2470 aebd 8b68 d7bd d498 d53c
00000320: 1d0f cebd d7c5 24bc 1c57 1fbd ca73 fcbc
00000330: 28b6 1e3d 1e4a afbc 8e9b 14bd 551f 46bd
00000340: 0b39 0e3c 720a 573d c814 2abd 32b4 ea3d
00000350: 8daf bebc c6e5 b5bd 49d0 bb3d a040 d13d
00000360: 67d2 0a3d 6bfc dcbd cff9 5e3c 964d b13d
00000370: e40e 453d 25c2 abbd 6cac 61bd eec6 3cbd
00000380: 3860 76bd 537c f03c e820 e2bd 6249 b9bc
00000390: 409e e0bd f294 35bd dd25 cb3d eca4 ce3d
000003a0: eb24 913c 8cd6 abbd 4988 b73d 4b91 963d
000003b0: 582e 063d 271b 18bd 3bf0 4cbd 5174 6f3c
000003c0: 2088 42bd 8a22 adbd a8b6 eabc c152 03bd
000003d0: f8ad c23c 6266 c5bd e09d 103a e422 d7bd
000003e0: 81b0 29bd 7896 a63d 18da 0f3c 5dea 203d
000003f0: de4d b13b 54a4 63bd 49ee a9bd 547a cdbd
0.0782036 0.017869022 0.08439742 -0.088701785 0.091211654 -0.111740716 0.028384605 -0.090490684
-0.06201695 -0.083241 -0.02544075 0.01954556 -0.0037723456 -0.11016351 -0.05656217 -0.08954652
-0.10868096 0.10423807 0.0874516 -0.004358681 -0.048013728 0.034420285 0.11198021 0.00883242
0.048306815 0.06696552 0.065596744 -0.116351135 -0.11592153 0.102223486 0.013148501 0.005895341
0.029494945 0.08291902 0.025465285 -0.09655255 -0.05242879 0.101081096 -0.051182326 0.036906566
-0.114446215 0.045721915 0.031682428 0.018210692 0.012989124 -0.083062425 0.09449128 -0.06221389
0.098711155 -0.022597235 -0.061161496 0.06909405 0.029875861 0.1129288 0.046064008 -0.10725745
0.03273759 0.056137893 -0.05778009 0.016838398 -0.08992346 -0.06525023 -0.074994616 0.02533213
-0.09159215 -0.10098004 0.09080072 -0.077906705 -0.00017976484 0.05606829 0.037030693 -0.10003655
-0.08377488 0.0103070345 -0.045278933 -0.065025076 0.04196804 0.0030647176 -0.113064386 -0.07503084
-0.031070676 0.038149197 -0.11808977 -0.0011094284 -0.005944464 -0.06349874 0.04439979 -0.016485546
-0.0716451 -0.097456254 -0.09565868 0.011073739 -0.031679228 0.024969446 0.09556986 0.08846884
-0.018421311 0.008503286 -0.0611382 0.049630817 0.09354958 -0.034891106 -0.071545646 -0.11027182
0.011616395 0.03806946 -0.066303045 -0.0016286817 -0.06745044 -0.0576429 -0.09116185 -0.107270315
-0.05227005 0.07910701 -0.069206335 0.059952006 -0.0048460374 -0.07931915 -0.046366874 -0.006834982
0.10019704 -0.080473125 -0.02316297 0.025471259 0.10116493 0.0028552401 0.09216726 0.06383706
0.051617652 -0.013721266 0.10575861 0.03735238 0.07217531 -0.041467298 0.016828587 0.010358144
0.03598895 0.025843933 -0.029087635 -0.029956745 0.06073824 0.10014955 0.008660726 -0.09179194
-0.007689273 -0.074140295 0.070047 0.024319472 -0.019818312 0.023748446 0.05507209 0.10447582
0.036632173 0.0775865 0.08197974 0.07550568 0.07989191 0.068249814 0.066731915 -0.04283877
0.001684484 0.050787807 0.06930275 -0.10778072 0.055300914 0.061922632 0.03865272 0.06727505
-0.106081784 -0.066498645 0.096531235 -0.056623068 -0.102567516 0.007841134 0.0076262807 -0.07475845
0.015596494 -0.10992155 0.0017575156 -0.008069465 0.0109024225 0.04102391 0.1045356 -0.032969385
-0.059995256 0.115177624 0.022546377 -0.10283693 0.031917844 -0.099113375 0.10115729 -0.066397704
-0.08533268 0.06405746 0.0040566893 0.006821516 -0.007349421 -0.08517483 -0.10517987 0.02607385
-0.100614764 -0.010056934 -0.038901433 -0.030816931 0.038747936 -0.021397647 -0.03628116 -0.048369724
0.008680592 0.052500196 -0.041523725 0.11460151 -0.023277069 -0.088817164 0.091705866 0.10217404
0.03389206 -0.107903324 0.013609364 0.086573765 0.048109904 -0.083866395 -0.055096075 -0.04608815
-0.060150355 0.029356157 -0.110414326 -0.022618 -0.10967684 -0.0443315 0.09919331 0.1009005
0.0177178 -0.08390531 0.08961541 0.07351931 0.03275904 -0.03713527 -0.05003379 0.014615134
-0.0474931 -0.084538534 -0.02865155 -0.032061342 0.023764595 -0.096386686 0.0005516689 -0.10504702
-0.041428093 0.081341684 0.008780025 0.039286006 0.005410894 -0.055576637 -0.082974024 -0.10033098
