grud_output/split_4/checkpoint.pt (torch, 410402 bytes, 22 tensors)

rnn.cell.kernel_z f4 [128, 37]
00000000: 438a b73d 3773 e6bd 610d 99bc 540d 8e3e
00000010: 38f2 5b3c cfde 733d fa9b 1f3e 15a7 373d
00000020: 434f 813e ff14 c3bd ac83 833c 1c04 9d3e
00000030: 1c24 a9bd a134 5c3d c778 19be 2e94 48be
00000040: 7953 9bbd 25e4 0bbd 2998 073d 80a3 093b
00000050: e345 3ebe 1b53 a4bd 08a8 263d 51b4 3b3d
00000060: 5deb 52be 99c9 24be 3a19 dc3e 822d f4bd
00000070: 313b 113e 1c10 b03c eede a23b c68b 353e
00000080: 3b8b 88bd 2528 ae3d c254 2ebd 565f a93d
00000090: 8358 28bd 46b6 c83d ad9b 96bb 891b 973c
000000a0: 9220 143e d7f2 da3d da44 4e3d 4152 62be
000000b0: da93 f53d d728 343e 2085 4d3e cf51 69be
000000c0: 4ffe bfbd 008e 3abe f4fa f23d fc04 df3d
000000d0: 52d1 5e3d 507f 1bbe d009 22bd 4e57 f73c
000000e0: 21bb 42be 90c2 9a3e a660 88bd 2784 843d
000000f0: 9f70 1e3e 2641 e03e f248 853e 71da 10be
00000100: 951a 8e3e 26a4 343d 8df6 883d c216 0cbd
00000110: e034 743d 6170 793b e140 2dbd 9e37 06be
00000120: 438c 743d a608 a5bd af22 713c 82ae cdbe
00000130: 8f22 403e 91dc 32bf f550 933c b2e8 43be
00000140: 6c2e 9abf 464c fabd cecd 043e f5be 153f
00000150: a407 bfbe 3410 2b3f 109e c03d cbf0 99bc
00000160: 88d3 86be 3f0e f83c 51c4 1ebe 6b57 6fbf
00000170: b84a 433e 0814 cf3d 6d0e 1cbe 77a6 4e3e
00000180: 7997 903e 9513 1f3e b2bb 233f 729e e2be
00000190: 1846 35bd e9d3 613e 8b91 26bf 3c7c a7be
000001a0: 4ae1 393f 2960 593f b766 393e 5736 073e
000001b0: a39a 443f c8a2 9abc b68b a73e a9e7 b43d
000001c0: 72fe 4fbe 7a5b babe 6c0b 6cbe 0b7f b9bd
000001d0: 4ee5 82be 63fe 6fbe ddff 8cbe e6e7 ba3e
000001e0: 2ecf 97be 1b1c 97be 5ecd 963e 4c7f f93e
000001f0: 165e a6bd 8814 e83b d921 203e d282 d73e
00000200: 5ff4 c63d 90df 2cbe 984b 663d eedb 9c3e
00000210: 0c38 0cbf f418 743e e7cf 033e b08c 9bbb
00000220: 1726 e6be 60b4 053e cb34 efbd 644a 19be
00000230: 40ee e33c c4d6 b23d 372e c63e f11b 93be
00000240: f317 f3bd 706a 693e b1e9 a13d 2427 cbbd
00000250: 94c3 a0be bfb6 093f c00f 733d 6dff 983d
00000260: e42c bd3d 0008 f63e df2c f8be 05d4 26be
00000270: ccc8 903e 2a11 3bbc bfb5 03bf 6d2a b23e
00000280: a62d 3a3e 1fa9 f6be e5ea 983e dc9d e53c
00000290: 01af 353d ddbb 523e eca8 cf3d d3a2 32be
000002a0: 6b68 3e3f 6573 d5bd b1e3 9d3d a7b1 65bf
000002b0: 9954 21bf de0a 45be c213 48be bb54 8cbf
000002c0: 0f92 2abf 8672 e9bd 469f ffbd e4ff 46be
000002d0: 8061 10bf aed3 113e 2259 9b3e abef d3be
000002e0: 8e45 6e3e d2e5 48be a45d a7be 9438 32bd
000002f0: 8dc2 583e 7f8e 72be 6a80 03bf 34bc 9c3e
00000300: d6df 4d3e 94ee 2c3e 32d4 dfbd dc5c 053e
00000310: 58ad 0a3f e5b3 a13e de54 f53d 5b1d 03be
00000320: 337e 0e3e b04f ca3e fb8f 2abc a6f2 ce3e
00000330: 64f4 ccbd 90a5 a6be 37a6 763d ecc6 2bbe
00000340: 05bc 603d 194d ccbe 261d 1a3e 0c36 26be
00000350: 4b21 38be a572 d9be bcc5 7fbe 6b96 1abd
00000360: a108 5ebe c46e 7b3d 0e15 93be 5d44 613e
00000370: 07e9 45bf 415b f2bd 6433 aa3d 2f8d 673e
00000380: 14f0 92bd 2fdf 9dbe ad4f 1dbe 7679 09be
00000390: 8b4a a9bd a386 0a3d d082 a13d ad8d 433d
000003a0: cd50 83be f231 b43e 7b09 40be b6cc 1c3c
000003b0: 26bb 6a3d 74e0 ffbd eb7d 933d ff3c acbe
000003c0: d2b3 5c3d bb98 bbbd b1be 5c3d 8fd9 84be
000003d0: 9b0a 8e3e d2ff 04be 3cc0 1c3e 5567 9a3d
000003e0: 2b65 7d3e 06e2 2cbd 70a6 863d 526e 8fbd
000003f0: af82 4abd ad39 20bd ae44 95be 73ad 24bd
0.08961918 -0.11252444 -0.018683137 0.27744544 0.013424449 0.05953866 0.15586844 0.044837076
0.25255784 -0.09525489 0.016053997 0.30667198 -0.082588404 0.05376113 -0.14987479 -0.19587776
-0.075842805 -0.034153122 0.033104096 0.0021001995 -0.18581347 -0.080236636 0.04068759 0.04582626
-0.20597596 -0.16092528 0.42987996 -0.119227424 0.14182736 0.021492057 0.004970423 0.177291
-0.06667181 0.08503751 -0.0425613 0.08270137 -0.041100036 0.09800391 -0.0045961947 0.018445747
0.1446555 0.10690849 0.05035863 -0.2210169 0.11991091 0.17593704 0.20070314 -0.22785114
-0.093746774 -0.18218231 0.11864272 0.108896226 0.054398842 -0.15185285 -0.03956014 0.030192997
-0.19016697 0.30226564 -0.06659059 0.064705186 0.15472649 0.43799704 0.26032215 -0.14145829
0.27754655 0.044101857 0.06687651 -0.03420139 0.059620738 0.0038061368 -0.0422982 -0.13107154
0.059704076 -0.0805829 0.014717742 -0.401722 0.18763183 -0.6986781 0.01798294 -0.19131735
-1.2045417 -0.12221579 0.12969133 0.584945 -0.37310517 0.668216 0.09405148 -0.018791577
-0.2633326 0.03028023 -0.15504576 -0.93492764 0.19071472 0.101112425 -0.15239878 0.20180689
0.28240564 0.15534814 0.63958275 -0.4426151 -0.0442563 0.22053494 -0.6506583 -0.3271197
0.7260939 0.84912354 0.18105589 0.13204323 0.76798457 -0.018876448 0.32723778 0.08833248
-0.20311907 -0.36397916 -0.23051232 -0.09057435 -0.2556557 -0.23436885 -0.27538958 0.3650505
-0.29650253 -0.2951363 0.29453558 0.48729932 -0.08123414 0.0070825256 0.15637912 0.42091995
0.09714579 -0.16882157 0.056224436 0.30636543 -0.5477302 0.23837644 0.12872277 -0.004746996
-0.44950935 0.13057089 -0.11679991 -0.14969784 0.027823567 0.087323695 0.38707134 -0.28732255
-0.11869802 0.22794509 0.07905901 -0.09919575 -0.31399214 0.53794473 0.059341192 0.074705936
0.09237078 0.4805298 -0.48471734 -0.16291817 0.28278196 -0.011417666 -0.514492 0.34797993
0.18181476 -0.48175904 0.2986671 0.028029375 0.04435635 0.20579477 0.10139641 -0.17444925
0.7437808 -0.104224004 0.07709444 -0.897242 -0.6301971 -0.19242427 -0.19538787 -1.0963358
-0.6662912 -0.11398797 -0.12481551 -0.19433552 -0.56398773 0.14240906 0.3034144 -0.4139379
0.2326872 -0.1961892 -0.3268863 -0.04351099 0.21167965 -0.2368717 -0.5136782 0.30612338
0.20104918 0.16887885 -0.10929145 0.13023704 0.5417075 0.3158256 0.11979078 -0.12804167
0.13915329 0.39513922 -0.010410304 0.404195 -0.10007551 -0.3254819 0.06021711 -0.16775101
0.05486681 -0.3990257 0.15050182 -0.16231555 -0.1798145 -0.4247028 -0.24977773 -0.037741106
-0.21682979 0.06138493 -0.28727 0.21998735 -0.77308697 -0.118338116 0.08310583 0.22612451
-0.071746975 -0.30834338 -0.15362425 -0.1342524 -0.08266171 0.033819806 0.07886279 0.047742534
-0.25647584 0.35194355 -0.18753617 0.009570291 0.057307385 -0.12493983 0.07201751 -0.33640286
0.053882428 -0.091599904 0.053892795 -0.25947234 0.27742466 -0.12988213 0.15307707 0.0753924
0.24745624 -0.04220774 0.06574714 -0.07003464 -0.049441036 -0.039117504 -0.2915396 -0.040204477

rnn.cell.kernel_r f4 [128, 37]
00000000: 42ab 3e3d a579 33be 7caa 8dbe bc0c cdbd
00000010: cdc7 b23e 61f2 20bd 51c1 21be dca0 0a3e
00000020: 134b d7ba 91a3 16bd 1874 1fbe 0e4e 05bf
00000030: 1236 923c 4d5d a2bd 6255 423c 0441 733e
00000040: 5c0b d73e 875d ad3d 4b74 e03e 4047 99bd
00000050: c2e6 afbd 7df2 603e 437e c33d 9888 053f
00000060: 532b 343c 0088 81be a929 01bd a653 943e
00000070: 2dfe 1bbd 4d02 cfbe ce56 efbd 7182 693e
00000080: 5d41 5fbd 2a6a 0dbe b400 db3e 840f 05be
00000090: 1db8 c73c 4ff3 ae3d 9cb9 1fbe 423e cbbc
000000a0: 1172 8cbe 2c0a a23e 34c4 9dbe 25bd 94be
000000b0: aa96 9bbd 3ab5 2fbb e16d fcbe fb88 c5be
000000c0: 53b8 043f 25d6 07bf 461e b53e 2e8f a43e
000000d0: e667 c5be a962 363c 65f7 a1be f7e9 4c3f
000000e0: 06dc 1c3e 8e88 af3e 150b b03e 696f 8e3e
000000f0: 6005 483d 33f5 2f3f 214f cf3d 861b a13e
00000100: f502 48be 0025 12bf 0e17 823e a213 753e
00000110: 8fec 153f de9f b73e 8807 83bc eb19 573f
00000120: e7bb 273e e733 f1be dfb1 2c3d d48f 6e3e
00000130: a235 a3bc 0f34 203d 5521 893e ee69 a5bc
00000140: cd5e 163d 78fa acbd 2e93 5b3d b071 84bd
00000150: e59c 6e3d 3ce4 2dbe ad02 3b3e 7834 b9bc
00000160: 581a 913d 0d03 323e f27d e7bb 74c8 6abe
00000170: 9ec0 13be c028 063b 749b 363e 283f f73c
00000180: 1ec8 10be 677b 273e d6e0 6ebd 4d4f b2bd
00000190: 04eb 7a3e 6736 02be c6df 3d3d 124d 103e
000001a0: 12e6 213d e6e0 113e 12fb 6b3c 6a49 d7bd
000001b0: 198a f1bd 3e76 8d3e c309 b83e 2c3c e6bc
000001c0: a81e ecbd 8508 14bf 3e4a b0be eb32 aabd
000001d0: decf 863e bf5a f1be 8f41 0dbe 1ba5 adbd
000001e0: 3934 4ebe b68d f03d 6068 433c 36ed 323f
000001f0: 382c f23e 21b4 713d 0282 333e ec7f 9cbd
00000200: ba7a 82be d74a 773d bc25 293d 080f 77be
00000210: 7838 523e d8c1 0d3f 2b48 f0bc befb 993d
00000220: cb89 3e3e 7cf9 323e 066d 973d 763a 8b3e
00000230: a084 d43d 85a3 e3bd 4cc5 92be cedd 35be
00000240: 78dc 3b3e 1254 3d3d 944d 32bd e55b 9b3e
00000250: 543f 94be 10dc e3bd 9351 50be 8c98 4bbd
00000260: bc32 eabc 6f54 bbbd 0f09 573e 68f4 733e
00000270: d103 143e 58ca 0bbe 5960 0c3e fcf1 203e
00000280: 9434 9ebe c40f 32bd cbdc 1bbc d7c4 8f3e
00000290: 1658 0cbe 42d4 7abe 0cbb a73d d0ff 81bc
000002a0: c0dc 9bbd 4023 7d3d 992f 48bd c6f8 88be
000002b0: c035 c03b 76c3 b73c 13e8 c5bc 8802 7e3e
000002c0: c008 fa3c 363d 1b3e e351 70bd fc87 fd3d
000002d0: d625 c6b9 8917 84bd e0f4 9ebd 9597 14be
000002e0: 6d7c 833e f633 523e bb14 2f3e b893 cc3e
000002f0: 44a0 683e faf7 17be 5a16 973d aaf2 4fbd
00000300: a05a 4cbf e4c0 7a3c 9ba6 09bf 4295 213d
00000310: 28ca e73e 7241 233e 6c15 503f 1aa0 79bc
00000320: 2e17 cbbd 114f 413f a3c0 b3be 7ecd 75be
00000330: ac9b 3cbd 5462 583e 6c71 973e 8770 eebe
00000340: f0e8 d23e e546 aebd a030 473f c0ed d33e
00000350: 7c83 d4bd cab3 85bd c604 e63e 5627 d2be
00000360: 8b9b a53d 0291 063f ab27 753d e40e 723e
00000370: ef59 2bbe ba5f 243e 0a1b dd3e e90b 473b
00000380: 00c0 aabe 5e0c bbbd 67ce 353e ac64 70be
00000390: 6915 8d3e 4b84 aa3d 55d7 f03d 9968 273e
000003a0: 849c 8b3d bb82 323e aa6a cbbe bd16 0abe
000003b0: 25f8 933e 0927 473d a71e 8a3e 36ff fa3d
000003c0: f564 b93c b835 f13c f7f3 87be a116 40be
000003d0: 2ea0 2a3d 9b88 63bd e93d f5be 2cb0 dbbe
000003e0: 7a3e 82be 9e96 c4be 7c55 2abb 4c9e 4fbd
000003f0: 7318 593e 82fc 643c 8678 84be 135c aabe
0.046550043 -0.17526872 -0.27669132 -0.100121945 0.3491806 -0.03929365 -0.157964 0.13537925
-0.0016425572 -0.036777083 -0.1557163 -0.52072227 0.017848048 -0.07927952 0.011861177 0.2375527
0.42000854 0.084651046 0.43838724 -0.07484293 -0.085889354 0.21967502 0.09545567 0.5216155
0.010996657 -0.25299072 -0.03153387 0.2897007 -0.038084198 -0.40431443 -0.116864786 0.22803666
-0.054505695 -0.1381003 0.42773974 -0.129942 0.024379784 0.08542501 -0.15598148 -0.02480996
-0.27430776 0.31648386 -0.30813754 -0.29050556 -0.07597096 -0.00268109 -0.4930258 -0.3858107
0.51843756 -0.53061134 0.3537466 0.32140487 -0.3855583 0.011131921 -0.3163406 0.800445
0.15318307 0.3428387 0.34383455 0.27819374 0.04883325 0.6873352 0.101225145 0.3146631
-0.19532378 -0.5708771 0.25408214 0.2393327 0.58564085 0.35864156 -0.015994802 0.8402392
0.16380273 -0.4710991 0.04216182 0.23297054 -0.019923035 0.039112147 0.26783243 -0.020192113
0.036711503 -0.084462106 0.05360716 -0.06466997 0.058255095 -0.16981596 0.1826274 -0.022608027
0.07085103 0.17383976 -0.0070645744 -0.2292803 -0.14428946 0.0020471066 0.17832738 0.030181482
-0.14138839 0.16355668 -0.05831989 -0.08706532 0.24503714 -0.12716065 0.046355985 0.140919
0.039526053 0.14245948 0.014403122 -0.105120495 -0.11793918 0.27629274 0.35944948 -0.028104864
-0.11529285 -0.578255 -0.34431642 -0.08310493 0.26330465 -0.47139546 -0.1379454 -0.08478757
-0.20137109 0.11745779 0.01192674 0.69893205 0.4729936 0.059009675 0.17530063 -0.07641587
-0.25484258 0.060374107 0.041295752 -0.24126828 0.20529354 0.5537391 -0.029331287 0.07518719
0.18607251 0.17477983 0.073938414 0.2719304 0.10376859 -0.11115173 -0.2866615 -0.17760393
0.18345821 0.046222754 -0.043531016 0.30343547 -0.28954566 -0.11125958 -0.20343618 -0.049706027
-0.028588645 -0.09146964 0.2099955 0.23823702 0.14454581 -0.13651407 0.13708629 0.1571731
-0.3089949 -0.043472067 -0.00951309 0.28079864 -0.13705477 -0.24495032 0.08189973 -0.015869051
-0.07610464 0.061801195 -0.048873518 -0.267523 0.0058657825 0.02243207 -0.024158513 0.24805653
0.03052175 0.15160069 -0.058671843 0.123794526 -0.00037793693 -0.064498015 -0.0776155 -0.14510949
0.25680867 0.20527634 0.17097752 0.3995645 0.22717386 -0.1484069 0.0737731 -0.05076853
-0.7982578 0.015304778 -0.53769845 0.039448984 0.4527142 0.15942934 0.8128269 -0.015235925
-0.099165305 0.7551127 -0.35107908 -0.2400417 -0.046046898 0.21131259 0.29578722 -0.46570227
0.41193342 -0.08509616 0.7780857 0.41392326 -0.10376641 -0.06528433 0.44925517 -0.41045636
0.08086308 0.52565014 0.059852283 0.23638493 -0.16733526 0.16052142 0.43184692 0.003037209
-0.3334961 -0.09133218 0.17754517 -0.23475903 0.27555397 0.08326014 0.11759821 0.16348495
0.06816962 0.17432682 -0.39729816 -0.13485236 0.28900257 0.04862121 0.2697651 0.12255709
0.022631148 0.02944456 -0.26553318 -0.18758632 0.041656666 -0.0555502 -0.47898796 -0.42907846
-0.2543829 -0.38396162 -0.0025990894 -0.050688073 0.21200733 0.013976218 -0.25873202 -0.33273372

rnn.cell.kernel_h f4 [128, 37]
00000000: 2938 163e 1196 113e 2f44 173f 2ea2 b93e
00000010: 6c30 013e ace5 953d 50c8 1d3f fb53 3e3e
00000020: 269c afbe cd87 a3be 980d 0abe 9308 483e
00000030: 8cfc aabe 6120 163e 85be 083f 4094 aa3e
00000040: 2233 133d 13a2 b73f 92b1 013e 72ac 3fbe
00000050: 371c 273e 0258 ac3d b5bf 6b3f 085b d33e
00000060: 297a 6cbf 00b0 233f 6b2e 44be 1e67 03bf
00000070: 27ba 8a3c 47f4 6b3e 879b 9a3e b33f fdbe
00000080: 8c7f 553e dee9 493d 9001 8c3e 3850 2a3f
00000090: bbbf 693e 8b38 083f 2905 b53e ea1c 8fbe
000000a0: 6d89 79be 984d cbbd 93f4 0b3f 0b45 2dbf
000000b0: 5737 5abe 6d2a ea3d e822 3cbf f253 123f
000000c0: 4816 3bbe b55a 403f 9760 a53c defa 54be
000000d0: c3a6 883d 7830 d33e 232d 1dbf 072a 53bf
000000e0: 352f 05be 99e1 83be 0d9a 9f3e 6cf9 5c3a
000000f0: dde6 c73d 0900 71bf 5981 8b3e d163 08be
00000100: a470 abbe 9370 5b3d 47c1 853e 1038 8ebf
00000110: fcd9 71bf 64c4 233f 52d8 afbe 4e38 a9be
00000120: 1b88 dcbe 5115 98be b8b8 febd b435 8cbd
00000130: abfb c33e e32b 123f ea8a f33c 26e5 183d
00000140: 2525 f03e 9450 79be 14f6 2dbe 510f 4b3e
00000150: 0059 3e3b f883 84bc a090 61be 5921 1abf
00000160: 095a f2bd 8bfa c43e c5fb 0abc 8cf8 ff3d
00000170: a488 e0be d074 1abd 352f 423c a3e5 2cbf
00000180: 2404 42be 6874 0ebe cd83 6cbe 7166 3bbf
00000190: 76ba 50be 2fde fcbe 2b64 333d e7a3 f6bb
000001a0: b51d 1ebd cdbb 1dbc 11e3 6b3c b730 333e
000001b0: 1a9b 68be 1514 81be 041b d83e d2e8 f63b
000001c0: a053 203f 0416 ccbe 6621 eabd d2bf 6e3e
000001d0: 6ca2 da3e 6330 9a3e 4993 3dbd dcc3 263e
000001e0: 049c 1e3e 1496 33bd b15d de3e 8ba8 1fbf
000001f0: 4b98 5ebd 966a 8fbe 5791 163e e336 d7be
00000200: 59f7 33bd 9b0e b53e 7c08 1abe 6a10 c43d
00000210: 2747 2cbf db3a 2dbf b044 26bf 7915 51bf
00000220: 33b2 79bf 9c34 96be e144 7fbe de76 11be
00000230: abe5 1abd 77d3 183f d22f e7be ec6f 0abf
00000240: 0c32 b1be 2bd6 0e3f 09cb d53c 8beb ea3e
00000250: dd9e 03be 633e ac3e 2b02 a6be dd3c 12bf
00000260: 6c9b 82be ff7d bd3c 3dfb cfbe 4352 f6bc
00000270: 362c 34be 15e1 31be f575 013f ac5f d0be
00000280: 778a 0bbe 33b5 10be 36a7 f63e 64f1 4e3e
00000290: d811 11be ef19 84bd 6f16 0cbe 97b8 fbbd
000002a0: b8e5 adbe e835 a1bd 165c 1c3d 7182 dcbd
000002b0: da2a c9be 6723 2e3e f101 42be 04c9 2f3d
000002c0: 6751 803e b726 693e 1309 bebe 9657 64be
000002d0: b1b5 bdbe 0f5c 0b3f 06e4 ad3e 52c8 a73c
000002e0: 08b6 4bbe 4214 fb3e 98df e7bd 479a 283e
000002f0: 4ad7 e4be b2c6 ddbe 7523 133e b0a5 aabe
00000300: 405a 42be 849d ee3e 50fa 9abe 0458 1cbf
00000310: 0f01 fdbe 03ef e23e 06ce 9ebe 8b04 dbbd
00000320: 46e2 55be ef5f 7fbd c0c0 ffbe 6846 f3be
00000330: 282a 38be 201e fd3d a85c 933c d12a 683d
00000340: 5f50 ac3e ed33 f13e 763f 0ebf 17b5 dc3e
00000350: ab0e 11be 40d4 803e 40a3 803e 5deb 793e
00000360: 6325 fc3e 067e 98be 83e4 25bf f2ba a7be
00000370: 955f 0bbf c4a0 7a3e 80a9 90bd e7a9 51bd
00000380: 7bbf 0b3e a8de f8bc 2719 f6bd e2c3 883e
00000390: 043d 4c3e 4f9b 06be 1ed7 19be c79c 9fbd
000003a0: 7603 b53e 7565 8cbe 7239 debd 1271 37be
000003b0: ca33 81be ff07 853d a1cf 10bd 6127 983e
000003c0: 7103 c7bd 2cd7 f93d bf0c 0c3d e77a a8be
000003d0: 0810 c1be 930b 15bd 6319 c3be f927 0a3e
000003e0: 304b a0bd 53b3 9abe e628 013e f687 17be
000003f0: adc7 26be 3ad2 b6be de43 7b3e 30a6 7dbd
0.14669861 0.14217402 0.59088415 0.36256546 0.12616128 0.07319197 0.6163378 0.18586724
-0.3429882 -0.31939545 -0.13481748 0.19534521 -0.33395803 0.14660789 0.5341571 0.3331623
0.035937436 1.4346336 0.12665394 -0.18718126 0.16319357 0.08415224 0.92089397 0.4128039
-0.923739 0.6394043 -0.19158332 -0.5132922 0.016934467 0.23042403 0.30196783 -0.4946266
0.20849437 0.0492953 0.27344942 0.66528654 0.22827046 0.5321128 0.353555 -0.27951747
-0.2436883 -0.09926909 0.54670066 -0.67683476 -0.21310173 0.11433873 -0.7349076 0.5715934
-0.18270218 0.7513841 0.02018766 -0.20798823 0.06672432 0.41247916 -0.61397 -0.82486004
-0.1300629 -0.25758055 0.3117222 0.0008429501 0.097608306 -0.9414068 0.27247122 -0.13319327
-0.33484375 0.053574156 0.2612402 -1.1110859 -0.9447324 0.63971543 -0.34344727 -0.3305077
-0.4307259 -0.29703763 -0.12437576 -0.068461806 0.38277945 0.57098216 0.029729325 0.037327908
0.4690334 -0.24347144 -0.16988403 0.19830061 0.0029044747 -0.016176209 -0.22027826 -0.60207134
-0.11833579 0.384724 -0.008482878 0.124985784 -0.4385425 -0.037709057 0.011852075 -0.675379
-0.18946892 -0.13911593 -0.23097153 -0.7320319 -0.20383629 -0.49388263 0.0437967 -0.007526863
-0.03860255 -0.009627295 0.014397399 0.17499052 -0.22715417 -0.25210634 0.4220811 0.0075350786
0.626276 -0.39860547 -0.114321515 0.23315361 0.42702043 0.3011504 -0.04628304 0.16285652
0.15489203 -0.043844298 0.43430856 -0.6236655 -0.054344457 -0.28011006 0.1470388 -0.42034063
-0.04393706 0.35362706 -0.15042299 0.09573443 -0.6729607 -0.6766793 -0.6494856 -0.8167339
-0.97537535 -0.29337013 -0.24928619 -0.142055 -0.037816685 0.5969767 -0.45153672 -0.5407703
-0.34608495 0.55795544 0.026097791 0.4588283 -0.1285357 0.33641347 -0.3242353 -0.5712412
-0.25509202 0.023131369 -0.40621367 -0.030068522 -0.1759499 -0.17371018 0.50570613 -0.40697992
-0.13627039 -0.14131622 0.48174447 0.2020927 -0.14166963 -0.06450259 -0.13680433 -0.12291067
-0.33964324 -0.0787161 0.038173757 -0.10767067 -0.39290506 0.17005692 -0.18946053 0.042916313
0.25062105 0.22768675 -0.37116298 -0.22299036 -0.37052682 0.54437345 0.3396303 0.020481262
-0.19893658 0.49038893 -0.11321944 0.16465102 -0.44695503 -0.43315655 0.14368995 -0.33329535
-0.1897974 0.4660455 -0.30269098 -0.610718 -0.4941487 0.44322976 -0.31016558 -0.10694226
-0.20887098 -0.06234735 -0.49951744 -0.47514653 -0.17984831 0.123592615 0.017988518 0.056681458
0.33655068 0.4710993 -0.55565584 0.4310691 -0.14165752 0.25161934 0.2512455 0.2440619
0.49247274 -0.29783648 -0.64801806 -0.32759815 -0.5444272 0.2447539 -0.070635796 -0.051187422
0.13647263 -0.030379608 -0.12016516 0.26711947 0.1994515 -0.13145183 -0.15023467 -0.07793575
0.35354203 -0.27421156 -0.108508006 -0.17914227 -0.25234824 0.06495666 -0.03535426 0.29717544
-0.09717453 0.12199244 0.034191843 -0.32906267 -0.37707543 -0.03638799 -0.38105306 0.13491811
-0.07826841 -0.3021494 0.12613258 -0.14797959 -0.16287108 -0.35707265 0.24537608 -0.061926067

rnn.cell.recurrent_kernel_z f4 [128, 128]
00000000: b59b 4f3e fc97 87bc bd3d c53b 7845 e9bd
00000010: 068d 37be 3542 4e3a aa3d 573e 0fa6 083e
00000020: 309b 05bc 27bc 1c3e e2df 44be a66d dd3d
00000030: b0c7 bebd f73f bd3e 5940 45bd ef74 a2bd
00000040: 5f1e 893e e331 823d 8540 f23c 65c2 be3b
00000050: 18cb 0cbe 78ab c63c 2480 f93d 435c c6bd
00000060: 128b 653e 98b1 68bd ea47 f33d 505f fabb
00000070: 9678 7e3d 56fe a63c 42c9 1cbe b071 86be
00000080: 07d2 03be f5ea 223c 8450 24bd c99c 0bbe
00000090: e9b0 883e a2da f03d 8582 5a3e 31a6 873d
000000a0: 26c4 a8bd 56f6 1d3e ab9e 03bc 00f0 dcbd
000000b0: f638 013e f074 7fbd bb40 023e cf73 97bd
000000c0: 2399 913d 46a2 79bd c01b 173d c260 0cbd
000000d0: b20b 983b c0b9 093d bcde 233e 0054 003d
000000e0: 4fe9 4abd 4212 9b3d 74e6 c6bd b7bb 403d
000000f0: a3f5 853d c8e2 acbc b25c bbbd 4d71 153e
00000100: b8c3 4dbd f55f 12bd e7ea bc3c 72d5 763e
00000110: d802 ebbc 4958 45be e273 a1be aa20 61be
00000120: f42c 8bbd 6740 0fbe 19b9 a3bd d726 603d
00000130: ac91 90bd e9de 89bd d9ae 51be df2b 6bbc
00000140: 3b18 023f a244 dfbd 4905 4abd 8819 35bd
00000150: 0df6 82be a32d 2b3e 0166 6e3e 4714 a73e
00000160: 20d5 b9bd cd1e 983d 4a83 11be 29a5 9c3d
00000170: da8a a9be 8990 843e ad40 503e e8f3 803e
00000180: 8595 08bc 36ba 74bd 0381 2ebd 635b af3e
00000190: f36e c53d ccca 77bc f043 943c 1e15 983e
000001a0: 19a7 92bd caab 1ebc 3816 e13e 8b1d 703d
000001b0: 3890 13be 6ae9 47be 53da 583e decf 383e
000001c0: ce73 2e3e 70de 46bb 13b8 973e c88a dfbc
000001d0: 6ab6 b63d e45f 7ebe eef4 fc3c 484e 4abd
000001e0: 8537 4dbc 5d8b 653d c2c5 1abe dcd2 623e
000001f0: 1f03 dc3d e960 9ebc 7c95 1b3e 4ce0 493e
00000200: 41bb b03d e466 943c 8959 dd3e e86e 9cbe
00000210: 5bd8 7bbd f090 353e 8a2a f13d fdf4 e83d
00000220: 56bb 2cbe daaf c43e 22b0 e43c 2a74 56be
00000230: 59ed 463d 3686 ef3d 2aa7 7ebd d183 c33e
00000240: 3ee2 febd c768 8a3e ff1b 48be 82e3 4b3d
00000250: 1053 aa3c 4a25 1a3e d554 ac3e 0f09 323c
00000260: ee45 20bd 6c04 21be 356d 4f3e a2c7 f0bc
00000270: 9611 853e 804e b73d fa8f 5f3d 0ac4 d53d
00000280: 745f 263d 34be aebd 44ab 163d 5071 953e
00000290: 0192 083f 3d0d b63d fbd7 29bb 2408 a9bd
000002a0: 882c 0ebe 1b9c d93e c599 15be a9d1 39bd
000002b0: 378d a83d 13e4 1b3e 932a 173d 668f d63e
000002c0: dc8d 77bd 7b01 033e 84e1 473e 5070 99bd
000002d0: b8e5 efbd 1589 f9bc 6c0d 0a3e d8cb 403e
000002e0: b4ca 49bb a349 d9bd b325 dbbd ed91 8e3e
000002f0: f966 90be ff03 963e 1588 7abe a321 cc3e
00000300: 0560 1cbd 7d2b 2dbe 5455 2dbe 0fbf cd3e
00000310: 0064 c5be 936a 953e b816 c23e a2ce 17be
00000320: 1c48 9e3e 4026 7e3d 539f f03d 8ccb 033e
00000330: 8bd7 95bd fbb0 d73b b623 ddbd 2e43 133e
00000340: 489c 403e 39b0 833d 47a8 c73b fa4e b23c
00000350: ab7e 873e fc38 013e 8dad e03d 33dd 0a3e
00000360: 359c 0fbe 42b0 e2bd ce38 80be 3307 7d3b
00000370: 49d2 f53d f25a b23e 5192 fe3d c656 563e
00000380: 7a33 bb3e a9be 8a3d 7119 763e 0555 8e3e
00000390: 094e 0abf ddc3 13bf 2c14 eebc 4011 4e3d
000003a0: a66b 143d b63f 87bd 155d 9d3e 182d 113e
000003b0: 8048 29be 7c5d 333e 9e6e 763e 8065 6bbd
000003c0: 7276 06be 5ac2 cabd 7f08 6d3e fa85 4fbe
000003d0: 6347 783e c27c 10be afcf b43e 2854 1ebe
000003e0: bf14 a93d 7e9e 073d 0cca 5b3d 743e 963e
000003f0: 5699 c5be 1e69 f1bd 194b 08ba 56f4 b63e
0.20274241 -0.016551964 0.0060193227 -0.11390203 -0.1792489 0.0007868142 0.21019617 0.13344596
-0.008154675 0.1530615 -0.1922603 0.108119294 -0.09315431 0.36962864 -0.04815707 -0.079324596
0.26780984 0.063571714 0.029571781 0.0058215135 -0.13749349 0.024251685 0.12182644 -0.09685566
0.22416332 -0.05680999 0.11878951 -0.0076407567 0.06212672 0.020384949 -0.15311149 -0.26258612
-0.12873088 0.009943713 -0.04011585 -0.13634028 0.26697472 0.11760451 0.21338852 0.06623495
-0.08240537 0.15426001 -0.008033435 -0.10787964 0.12619385 -0.06236738 0.12720005 -0.073951356
0.07109287 -0.06094577 0.0368917 -0.034271963 0.004640066 0.03362441 0.16002935 0.03133011
-0.049538907 0.07571842 -0.09711924 0.04705402 0.06540992 -0.021104231 -0.091485396 0.14594002
-0.05023548 -0.035736043 0.023061229 0.2410486 -0.02868788 -0.1927196 -0.31533724 -0.21985117
-0.067956835 -0.13989411 -0.07994289 0.05472454 -0.07059035 -0.0673197 -0.20476855 -0.014353721
0.5081822 -0.109017625 -0.049321447 -0.0442138 -0.25578347 0.16716628 0.23281099 0.32632658
-0.090738535 0.0742775 -0.14210239 0.07648689 -0.33113748 0.25891522 0.20337172 0.25186086
-0.0083364295 -0.059747897 -0.042603504 0.3424941 0.096403025 -0.015124034 0.018098801 0.2970361
-0.071607776 -0.009684512 0.43962264 0.058621924 -0.14410484 -0.19522634 0.21177034 0.18048045
0.17036363 -0.0030344985 0.29632625 -0.027287856 0.089215115 -0.24841267 0.03087851 -0.04939106
-0.012525444 0.05604111 -0.15114501 0.22150749 0.10742783 -0.01933332 0.15193743 0.19714469
0.08629466 0.018115468 0.43232372 -0.30553365 -0.06148563 0.1773107 0.11775692 0.11374853
-0.16868338 0.38415414 0.027916018 -0.2094275 0.048566196 0.116955206 -0.06217114 0.38186505
-0.12445496 0.27033064 -0.1954193 0.049777515 0.02079156 0.15053287 0.33658472 0.010866418
-0.03912919 -0.15724343 0.20256503 -0.029392067 0.2598998 0.089505196 0.054580666 0.10437782
0.040618375 -0.08532372 0.036784425 0.29188013 0.53347784 0.08889244 -0.0025916088 -0.08253506
-0.13884175 0.42501912 -0.1460944 -0.045365963 0.082300596 0.15223722 0.036905836 0.4190628
-0.060438022 0.12793534 0.19519621 -0.07492125 -0.11713737 -0.030460874 0.13481683 0.1882776
-0.0030790986 -0.10609748 -0.1070055 0.27845708 -0.28203562 0.29299924 -0.24465974 0.39869413
-0.03817751 -0.1691112 -0.16927081 0.4018483 -0.38552856 0.29182872 0.37907958 -0.14824918
0.3091439 0.062048197 0.11749139 0.12870616 -0.07316502 0.006582377 -0.10797827 0.14381096
0.18809617 0.06430096 0.0060930583 0.021766175 0.26463827 0.12619394 0.10970602 0.13560943
-0.14024432 -0.11068775 -0.2504334 0.0038609027 0.12002999 0.3483501 0.124302514 0.20931539
0.3656271 0.06774647 0.24033143 0.2779924 -0.5402532 -0.5772074 -0.029062353 0.05030942
0.036235474 -0.06603949 0.30735078 0.14177358 -0.16531563 0.1751613 0.24065635 -0.057469845
-0.13131121 -0.09900351 0.23147772 -0.20265952 0.24245982 -0.14110091 0.353147 -0.1546179
0.0825591 0.033110134 0.053659484 0.29344523 -0.3859355 -0.11787628 -0.00051991787 0.3573329

rnn.cell.recurrent_kernel_r f4 [128, 128]
00000000: 906c eb3d 82cd bf3b 4511 3ebd 70bf 60be
00000010: 4d6c 4fbd c0a5 0dbe c895 793e 3dd8 a83d
00000020: dcf3 cebd 3f59 133f 72d9 e3bd ef81 193d
00000030: a89b 67bd d82a cbbc 0614 23be 6962 803e
00000040: c005 aebc bea5 2bbe 14d7 f83d ae1f 39bc
00000050: 8084 6ebe 47bf 9b3d a8ad 2ebd aa8b 3ebc
00000060: f435 96bc 6b50 2d3e 3a4a 663e 22d5 043e
00000070: e11c ce3c 98eb 153e 4cf6 8bbe 75c5 343e
00000080: 1cb4 ab3d 5f2b c83d 3c10 aabe 68dd d9bc
00000090: c1da 613e b762 8d3e 63c0 643e 2ec0 403c
000000a0: dabf 9fbd 5615 a73e 5089 94bd 475e cd3e
000000b0: dfcc 0b3e 35b6 9d3e 15a5 0a3e 461e 873e
000000c0: 9ac5 ad3d 8553 b73e 44a7 8d3e e0a7 293e
000000d0: 7682 dbbd 6c03 2dbb 8f2a 393c c8ff 1f3e
000000e0: ac45 13bd 6bc6 363e 5fda 1a3e 327c 4b3e
000000f0: b4c5 5bbe 3000 3d3e 2635 a1be bc3f b93e
00000100: 7bd4 27bd 9750 7fbe 1253 f4bc 4f35 403e
00000110: badb a9be dadf 873e 2538 9c3e 431e e8bc
00000120: a2e1 f43e 1e2c 2b3d 6975 ae3d 0e9b 05be
00000130: 3f95 13be 3d38 08ba 66a9 953e ce4e f53d
00000140: 85c3 a53e b9a3 953e f106 ecbd ce10 913e
00000150: 9584 3abe fbb3 1b3e 90b8 633e d929 a33e
00000160: e85d 4bbe 3eb0 013e dd7d edb9 a52e 7abe
00000170: 2991 303e deb2 8f3e f8d9 ae3e edb6 0d3d
00000180: 7b6f 7cbe a385 fabc b5bf 1c3e 9bd4 b23e
00000190: 3640 f3be f1d7 76bd b6c2 37bd 2135 953e
000001a0: af5b d6bc 8258 a63e a0cd d5bd 94d2 9e3e
000001b0: 793b a3bd 6f33 1b3e 5d5e 853d 685b 0abe
000001c0: 6db2 98bc 9b69 cc3d 2a3f fb3e d849 053d
000001d0: 7cb8 dc3e e0d3 51bd 2e07 8b3e 3669 0c3d
000001e0: f1e2 21be 5787 1b3d b51a 87be ac44 9d3e
000001f0: 4118 d6be 02b1 8dbe 2f04 0cbe fa0a f93d
00000200: 886d 8ebe 2d32 873e 2798 0bbe ffab 643e
00000210: b09f 60be 728b 18bd 249e 4dbe cabe 70be
00000220: e1de 68be ec71 84be 776e cb3d 6254 a13e
00000230: 17d4 29be d708 3fbd 5784 153d eef2 463e
00000240: 6d83 83be 7d12 92be 0cdf a53d 0512 41be
00000250: a573 10bd a42f 6f3e 93c2 0b3f 59b5 10bd
00000260: 0e48 1b3d 10da 65be a455 d5bd b903 8cbb
00000270: 68db 1c3d d1df 1b3e 72f0 e43d 79b7 8fbe
00000280: d742 813d 7c6f a53e bddc afbe eb3c 84be
00000290: ff2f 273e 2dd9 35be 8de2 ccbd 3bf5 cabd
000002a0: 3227 f23e 6e10 cbbd fbe7 453e b27f 49bd
000002b0: ccf7 e03c 7b14 a3be 9b6b 93be 835c 09be
000002c0: 2dcc 233d 2b80 0cbe 2603 e8bd d336 72be
000002d0: 92f3 223c 12ce 733e f6b9 813e f296 3abe
000002e0: e0c4 853e 7507 17be 7adf b0bd 28d9 d8be
000002f0: 305d f3bd 1ffe 83be ac9c bfbc 4b18 31be
00000300: 3c53 43be 96dd bdbd d52c d03d bfcf 04be
00000310: dec2 573c c42a b4bd b7f2 ddbe 3ac8 04be
00000320: 97ab 7f3e 17c7 2a3e a968 933e 36bf 0cbd
00000330: 55fe 183e 1c4b ccbd 7272 e7bc 6b96 973e
00000340: 2591 94be aaa5 0f3e 1b67 65be 6a4f 083e
00000350: 0af6 1cbf 4791 a63d 113d 1d3c ee5d 96be
00000360: 14b3 503e acb2 3bbe d339 dc3d ff76 a73d
00000370: 09bc 9fbe da4c 4e3e 637f b2be b892 a13d
00000380: 4aae d43c 3eda 333d f060 2c3e 4ece 58bf
00000390: b56e 113f 2aba d5bd 8f5c 81be e94a d0be
000003a0: 40ae b83d 29e7 31bc 1ab5 ce3c b186 f8bd
000003b0: a5c2 863e 4e28 bdbc fdc2 d73c ccfd 51bd
000003c0: 0fec 873e 0c92 893e f7e3 b5bd 0b96 193e
000003d0: 1e96 adbe c14c 7a3d 95b1 093e 49d9 2a3e
000003e0: be94 55bd d819 fc3c 3158 05be 4f0e e4be
000003f0: c042 223e 29f6 db3d 8b4f 143e 5e90 38be
0.11495316 0.005853356 -0.04640319 -0.21948028 -0.050640393 -0.1383276 0.24373543 0.08244369
-0.10105106 0.57558054 -0.11125459 0.03747743 -0.05654493 -0.024800703 -0.15925607 0.2507508
-0.021242976 -0.16762444 0.12150398 -0.011299057 -0.23292732 0.07604843 -0.04264608 -0.011629978
-0.018336274 0.16925208 0.22489253 0.12971929 0.025160255 0.14640653 -0.27336347 0.17653449
0.083839625 0.097738974 -0.3321551 -0.026594833 0.22056104 0.27614376 0.22339015 0.011764569
-0.07800265 0.32633466 -0.07252753 0.4011099 0.13652371 0.30803075 0.13539536 0.26390284
0.08484955 0.35805908 0.27666676 0.16567945 -0.10718243 -0.0026399745 0.011301651 0.15624917
-0.035955116 0.17849128 0.15122364 0.19871596 -0.21462137 0.18457103 -0.31485862 0.36181438
-0.04097412 -0.24933086 -0.029824767 0.18770336 -0.3317545 0.26537973 0.30511585 -0.028334742
0.47828394 0.04179012 0.08518488 -0.1304743 -0.14412402 -0.00051963684 0.29230803 0.119779214
0.32375732 0.29226473 -0.115247615 0.28333133 -0.18214639 0.15205376 0.22238374 0.31867865
-0.19860041 0.12664887 -0.00045297938 -0.24431856 0.17242874 0.28066152 0.34150672 0.03459828
-0.24651901 -0.030581301 0.15307505 0.3492783 -0.47509927 -0.06026453 -0.044863425 0.29142097
-0.026166765 0.324894 -0.104396105 0.31020033 -0.07970328 0.15156339 0.06512139 -0.13511431
-0.018639768 0.0998108 0.49071628 0.032541126 0.431095 -0.05122745 0.27153915 0.034280024
-0.15809228 0.037970867 -0.26387563 0.30716455 -0.4181538 -0.2767411 -0.13673471 0.12160297
-0.2781794 0.2640547 -0.1363226 0.22331236 -0.21935916 -0.03724236 -0.20079857 -0.2351028
-0.22741272 -0.25868165 0.09933179 0.3150969 -0.16584812 -0.04663929 0.036503162 0.19428608
-0.25686207 -0.2852973 0.080991834 -0.1885453 -0.035266537 0.23358017 0.5459377 -0.035329197
0.037910514 -0.22446465 -0.10416725 -0.0042729047 0.03829518 0.15222098 0.11178674 -0.28069666
0.06311577 0.32311618 -0.34348097 -0.25827727 0.16326903 -0.17758627 -0.10004149 -0.09910055
0.4729553 -0.09915243 0.19326775 -0.049194045 0.027461909 -0.31851563 -0.28793034 -0.13414197
0.03998964 -0.13720767 -0.113287255 -0.23653726 0.009945767 0.23809078 0.2533719 -0.18221644
0.26126766 -0.14748938 -0.08636375 -0.42353177 -0.118830085 -0.25779817 -0.023390137 -0.17294423
-0.1907472 -0.0927078 0.10164801 -0.12969874 0.013169019 -0.087972194 -0.4334924 -0.12967005
0.249678 0.16677509 0.28790787 -0.03436204 0.1494077 -0.099752635 -0.028252814 0.29606947
-0.29016986 0.1402804 -0.22402613 0.13311544 -0.61312926 0.08133178 0.009597079 -0.29368538
0.20380813 -0.18329877 0.107532166 0.081769936 -0.31198147 0.20146504 -0.34862813 0.078893125
0.025962014 0.043909304 0.16833854 -0.84689796 0.5680955 -0.104358986 -0.2526593 -0.40682152
0.090176105 -0.0108583355 0.02523284 -0.12135065 0.26320377 -0.023090508 0.026338095 -0.05126743
0.26547286 0.26869237 -0.088813715 0.14998643 -0.33903593 0.061108354 0.13446648 0.1668445
-0.052143805 0.030774042 -0.13021924 -0.44542167 0.15845776 0.10740311 0.14483468 -0.18023822

rnn.cell.recurrent_kernel_h f4 [128, 128]
00000000: 1567 cfbe 736e ea3e 4f18 25be 4407 68bd
00000010: 9cdb 40be cd41 5cbe 8e02 183e 25d5 cf3e
00000020: 3b11 9cbd dfd6 a2bd 20d3 903e 95be 573e
00000030: 2053 5a3e 1b86 b1bd 54e1 243d 7e1c 98be
00000040: f9b4 e7bc 3104 4abc fcae 30bc fda9 653f
00000050: 4b79 8abb 1b5b db3d fb93 08bd 1207 b93e
00000060: 0964 d2bd 7245 c0be 014f 7d3e 80b2 863e
00000070: 1aee db3e c8fb 8c3c a9d6 0bbf a6f9 4a3e
00000080: 2b12 15be 9b25 743e 84e3 01bf f66a 6dbd
00000090: 4f80 0bbe e632 95be a9e1 59bc ba71 003e
000000a0: afed b0bd 2e7d e53e b644 db3c 1edc 853d
000000b0: ec7e 8e3e 3e4d 023e ec1f 24bd 1bc9 093f
000000c0: 2a98 cd3d 7b60 51bd c645 51be ee6c c2be
000000d0: 9cca 3cbe 1feb c2be 77a8 a83c 285c f33e
000000e0: 74d0 fdbc cdc7 163e c28d 21bd 26a7 f43e
000000f0: b2e9 91be dee1 62bc 8099 7e3e f1c9 b3bc
00000100: 744b 7a3c 4618 133e b015 7a3e 88fd 9dbd
00000110: 9b50 3bbe dce9 253f a4db e0be 1bbd 253e
00000120: 807c 8fbd 0dfb 9e3e 78ce d2bd 409c f7bd
00000130: 2507 6e3e 1a18 15be ef7c a73d 5644 3bbf
00000140: 77df 803d 9e76 cd3d 8452 803d 72c8 eabd
00000150: fe86 2bbe 7731 34be 579f c0be 8a73 f93d
00000160: 27c4 2bbe d13e 81be 0e05 503e cbbd ab3e
00000170: 567e 303f 3932 3cbe 662e a83f 166d d33e
00000180: 7103 90be 4226 d33e 147d 42bf 8517 3dbe
00000190: e8d7 22be b88d a3be 0339 bd3e fb86 3c3f
000001a0: b6b6 de3d f4cf 7b3e 4d93 16be 91b3 71be
000001b0: f989 61bd 734f 56be 5955 9abe 47b0 1a3e
000001c0: 0a13 3a3e 0e87 b73b aa3f 3dbe 11bc 92bd
000001d0: 6820 98be c811 9bbd b5c0 8ebe ef5c a5be
000001e0: 5b70 993d dbca 4dbd 26dc 1f3e 0242 0dbf
000001f0: 5d7e 1ebf 239e 9f3e a10b bcbd ddb7 b63d
00000200: 77c9 f1bd f91b 44be 871f 9d3c 0f44 1f3e
00000210: dca7 d0bd 09c3 5f3d d196 083f ca35 a0bd
00000220: 1d83 6dbe 1518 64bd f63f 933e 6be6 8abc
00000230: b391 1dbe 185e f5be bf6c 5cbd e339 f3be
00000240: b506 fbbc ec3f d13e 8fe3 de3d b522 52be
00000250: e1fb 2e3d 95bd a03e 2132 673e d5fe 94be
00000260: a2b3 1fbe 5c2e b8bb d24d a3be 1fbe de3c
00000270: f6ff 8abd 2517 153d f685 7c3e 77e1 143e
00000280: a045 1dbc 85d6 173e afd3 033c 0ebc 1cbe
00000290: 3008 2a3e ccbe f43e eb07 203e fb0f 65bd
000002a0: 7c7d 663e a623 e53e 525c cb3d 3463 cc3e
000002b0: 23e5 923e 3ad1 3fbe 5c3f 04be 3e83 f8bd
000002c0: 5c6f 3bbd 83ca ee3e fa30 ba3d 9ec9 74be
000002d0: 2dca b93d ea8c 363e 4b3d 103e cd69 64be
000002e0: 7104 5d3e 1ecc 40be 818f 12bd 3695 cd3e
000002f0: 9826 453e b4d5 933d 4036 d2be 6dd3 13bd
00000300: 5d13 3d3e 65b8 c3be 6b05 c3be 28e9 a7bd
00000310: 4a93 5abe 9046 0fbf 5370 833e bcd5 c4be
00000320: 0807 91bf ab32 343f 4927 c1bd 8d9f 9fbd
00000330: b316 88be 5e42 2dbe bffc 343e 9991 623d
00000340: 3529 2bbf b315 8cbd b831 a53e 2f7e 183e
00000350: e569 2d3c 29d7 88be b61e 533d 6a74 d03e
00000360: 3ce2 07bf fe0b 373e c202 c7bd 0ef4 39be
00000370: 5579 0ebf 8d9f 813e 256b 28bf 582f 16be
00000380: b68f 803e 77ec e7bd 4b05 333f ba90 073e
00000390: 520d 60bd 6a5f aa3e 8607 28bf d33c 9a3c
000003a0: 6a4a 38bd c8b1 c7be ab75 f03c 9c5a c13d
000003b0: 9d53 83be 46de e3bc 76fe 47bd 6dd1 ccbe
000003c0: 296c 26bc 1cd2 c93d 1446 553c 9a35 6d3e
000003d0: 7739 67bc 9aad 63bc 7e5f 62be 0b96 3b3e
000003e0: 701b 823d a113 c73c 7308 b23e a781 94bd
000003f0: 97c0 0c3f 1d54 a0bc 29b9 88bd c5f6 163e
-0.40508333 0.4578739 -0.16122554 -0.056647554 -0.18833774 -0.21509476 0.14844725 0.40592304
-0.07620474 -0.0795114 0.28286076 0.21068795 0.21320772 -0.08668157 0.040253952 -0.29709238
-0.028284537 -0.012330101 -0.010783907 0.89712507 -0.004225885 0.10710736 -0.03334425 0.36138207
-0.102729864 -0.37552983 0.24737169 0.2630806 0.42955095 0.017209902 -0.5462442 0.19821796
-0.14557712 0.2384247 -0.50737786 -0.057963334 -0.13623165 -0.29140395 -0.0132984305 0.12543383
-0.086390845 0.44822067 0.026766162 0.06536125 0.2783121 0.12724778 -0.040069506 0.5382249
0.100387886 -0.0511174 -0.20436773 -0.37973732 -0.18436664 -0.38070008 0.020588143 0.47531247
-0.030983187 0.14724655 -0.03944183 0.47783774 -0.28498608 -0.013847796 0.24863243 -0.02194688
0.0152767785 0.14364728 0.24422336 -0.07714373 -0.18292467 0.64809966 -0.43917572 0.1618542
-0.07006168 0.31050912 -0.10293287 -0.12090349 0.23244913 -0.14559975 0.08178126 -0.7315115
0.062926225 0.1003239 0.062657386 -0.11464013 -0.16750714 -0.17596994 -0.37621567 0.121802405
-0.16774045 -0.25243238 0.20314428 0.33543238 0.68942773 -0.18378533 1.313916 0.41294163
-0.28127626 0.41240126 -0.75972104 -0.18466003 -0.15902674 -0.3194406 0.3695756 0.73643464
0.10874693 0.24591047 -0.14704628 -0.23603655 -0.05506322 -0.20928745 -0.3014324 0.15106307
0.18171325 0.0056008166 -0.18481317 -0.07164777 -0.29712224 -0.07571751 -0.278814 -0.32297465
0.07492133 -0.050242286 0.15611324 -0.55178845 -0.61911565 0.31175336 -0.091819055 0.08921788
-0.118060045 -0.19151296 0.019180072 0.15553306 -0.10188267 0.05462936 0.5335513 -0.078227594
-0.23194547 -0.05568703 0.28759736 -0.016955575 -0.15387611 -0.4792335 -0.053814646 -0.47505102
-0.030642847 0.4086908 0.10883247 -0.20521052 0.04272068 0.3139464 0.22577716 -0.2910067
-0.15595868 -0.005620761 -0.3189531 0.027190266 -0.06787102 0.036399025 0.24660477 0.14539133
-0.009599119 0.14827926 0.008046075 -0.15306112 0.16604686 0.47801816 0.1562802 -0.055923443
0.22508806 0.4475376 0.09929718 0.39919436 0.28690442 -0.18732157 -0.12914795 -0.121344075
-0.045760497 0.4663888 0.09091373 -0.23905036 0.09071765 0.17827192 0.14085881 -0.22305985
0.21583726 -0.18827865 -0.035781387 0.401529 0.19253004 0.07218495 -0.41057014 -0.036090303
0.18464418 -0.3822662 -0.3809007 -0.08198768 -0.21345249 -0.55967045 0.25671634 -0.38444316
-1.1330271 0.70389813 -0.09431321 -0.07794104 -0.26579818 -0.16919848 0.1767454 0.055314634
-0.6685975 -0.06840076 0.32264495 0.14891885 0.010584329 -0.26726654 0.05154296 0.40713817
-0.5307958 0.17875668 -0.09717323 -0.18159506 -0.5565389 0.2531704 -0.6578849 -0.14666498
0.25109643 -0.11324399 0.6992995 0.13238803 -0.054700203 0.3327592 -0.6563648 0.018827831
-0.04499284 -0.39002824 0.029352983 0.094411105 -0.2564973 -0.02781595 -0.048826657 -0.4000353
-0.010157623 0.09854528 0.013017196 0.23164979 -0.014112822 -0.01389637 -0.2210674 0.18318956
0.063528895 0.024301352 0.3477207 -0.07251292 0.5498137 -0.019571358 -0.066759415 0.14742573

rnn.cell.bias_z f4 [128]
00000000: 002a 0441 8405 0000 0000 0000 0000 0000
00000010: 0000 0000 0000 0000 0000 0000 0000 0000
00000020: 0000 0000 0000 0000 0000 0000 0000 0000
00000030: 0000 0000 0000 0000 0000 0000 0000 0000
00000040: 0000 0000 0000 0000 0000 0000 0000 0000
00000050: 0000 0000 0000 0000 0000 0000 0000 0000
00000060: 0000 0000 0000 0000 0000 0000 0000 0000
00000070: 0000 0000 0000 0000 0000 0000 0000 0000
00000080: 0000 0000 0000 0000 0000 0000 0000 0000
00000090: 0000 0000 0000 0000 0100 0000 0000 0000
000000a0: 0100 0000 0000 0000 0000 0000 0000 0000
000000b0: 0100 0000 0000 0000 0100 0000 0000 0000
000000c0: 0000 0000 0000 0000 0000 0000 0000 0000
000000d0: 0000 0000 0000 0000 0000 0000 0000 0000
000000e0: 0000 0000 0000 0000 0000 0000 0000 0000
000000f0: 0100 0000 0000 0000 0000 0000 0000 0000
00000100: 0000 0000 0000 0000 0000 0000 0000 0000
00000110: 0000 0000 0000 0000 0000 0000 0000 0000
00000120: 0000 0000 0000 0000 0000 0000 0000 0000
00000130: 0000 0000 0000 0000 0000 0000 0000 0000
00000140: 0000 0000 0000 0000 0000 0000 0000 0000
00000150: 0100 0000 0000 0000 0000 0000 0000 0000
00000160: 0000 0000 0000 0000 0000 0000 0000 0000
00000170: 0000 0000 0000 0000 0000 0000 0000 0000
00000180: 0000 0000 0000 0000 0000 0000 0000 0000
00000190: 0000 0000 0000 0000 0000 0000 0000 0000
000001a0: 0000 0000 0000 0000 0100 0000 0000 0000
000001b0: 0000 0000 0000 0000 0000 0000 0000 0000
000001c0: 0000 0000 0000 0000 0000 0000 0000 0000
000001d0: 0000 0000 0000 0000 0000 0000 0000 0000
000001e0: 0000 0000 0000 0000 0000 0000 0000 0000
000001f0: 0000 0000 0000 0000 0000 0000 0000 0000
8.260254 1.979e-42 0.0 0.0 0.0 0.0 0.0 0.0
0.0 0.0 0.0 0.0 0.0 0.0 0.0 0.0
0.0 0.0 0.0 0.0 0.0 0.0 0.0 0.0
0.0 0.0 0.0 0.0 0.0 0.0 0.0 0.0
0.0 0.0 0.0 0.0 0.0 0.0 1e-45 0.0
1e-45 0.0 0.0 0.0 1e-45 0.0 1e-45 0.0
0.0 0.0 0.0 0.0 0.0 0.0 0.0 0.0
0.0 0.0 0.0 0.0 1e-45 0.0 0.0 0.0
0.0 0.0 0.0 0.0 0.0 0.0 0.0 0.0
0.0 0.0 0.0 0.0 0.0 0.0 0.0 0.0
0.0 0.0 0.0 0.0 1e-45 0.0 0.0 0.0
0.0 0.0 0.0 0.0 0.0 0.0 0.0 0.0
0.0 0.0 0.0 0.0 0.0 0.0 0.0 0.0
0.0 0.0 1e-45 0.0 0.0 0.0 0.0 0.0
0.0 0.0 0.0 0.0 0.0 0.0 0.0 0.0
0.0 0.0 0.0 0.0 0.0 0.0 0.0 0.0

rnn.cell.bias_r f4 [128]
00000000: 0008 0441 8405 0000 3739 853c 44bb 5c3c
00000010: e6df d33c a2e1 403d 722e de3a f2ae cb3b
00000020: 321d 393c e3d3 cf3c 4a1b 8b3c 5819 063b
00000030: 60df 843b 86ee 0d3b 4a51 c63c d0d9 313c
00000040: 4a7a c43c 1fdd 2c3c 69ff ed3b b1d1 b23c
00000050: 3884 e73a aced d63b bee8 5f3c 7ad1 cd3b
00000060: 3158 043c 63d0 c53a 80d0 5b3b 6c43 2a3c
00000070: c3a0 c53c f3e7 ab3b 0ee9 9b3c ca08 c63a
00000080: 0e4d a63b 0cc0 3b3b 061b 8a3a 1a84 c33a
00000090: 53c7 1b3b 43bb b13b e9dc 3d3b f60e d23b
000000a0: 64c4 ed3a 9d9c ce3b 6390 e83a d456 933c
000000b0: 42fe 463c 7f2f dc3c d86f 693b 1517 a73a
000000c0: d773 c73b c8de e73b a2fc d53b 4e2a e03b
000000d0: 742b de3a 6a40 c23b aab0 d93a 5537 743b
000000e0: 13b0 ca3a 18fe ce3a 4289 4a3b 6823 573c
000000f0: 3f01 ae3b 76f8 a53a 6a7f 8f3a 6207 bf3a
00000100: 6140 da3b 471c 1c3c a26e c53a ea25 ca3c
00000110: 8788 ea3a 77aa 443d 4a0e 3e3c 5ec9 e33a
00000120: 0518 133c d256 b13b d59e 223c fb4d c93b
00000130: 504f e63a a607 633a 34bd ad3b d1ad c23a
00000140: 1cf3 253b 2914 013c 275d 433c f663 ef3b
00000150: eeee e73b dfa9 d53b 3469 0e3d 1786 033c
00000160: 9325 cd3b 0760 d03b 92da a33a 7b56 f43a
00000170: d9ed 513c c8aa b23b e48a b33a 349f da3a
00000180: e316 d93b e86a 2f3b 691d 273c ced9 0e3b
00000190: 02cb c63a cb1f 273b 2776 d33c 7b04 8e3b
000001a0: 70e6 3c3c 2d0a e03a 7fa8 ba3a 1076 133c
000001b0: bd69 db3c 38a7 0b3c cced be3b f788 f63a
000001c0: ce90 6a3c 965c e13b 0dfb e23a 68a4 d63a
000001d0: ede9 623c 2d90 103b 561d d83c 5df1 b33a
000001e0: 02bd 433c c2d9 0e3c 60fb d93b ab87 f53a
000001f0: 616f 5c3c 5e91 953a 78dd 203c 4cf6 0d3b
8.251953 1.979e-42 0.016262634 0.013472382 0.025863599 0.04709018 0.0016951098 0.0062159235
0.011298465 0.02536959 0.016980786 0.0020461883 0.0040549487 0.0021657064 0.024208684 0.010855153
0.023984093 0.010550766 0.0072631133 0.021828504 0.0017663306 0.0065590944 0.01366633 0.006281075
0.008077667 0.0015092011 0.0033541024 0.010392051 0.024124509 0.0052461564 0.019032028 0.001510882
0.0050751036 0.0028648404 0.0010536618 0.0014916689 0.002376993 0.0054239347 0.0028970784 0.006410475
0.0018140194 0.006305291 0.0017743226 0.017985739 0.012145581 0.026878117 0.0035619643 0.0012747968
0.006086807 0.007076118 0.0065303603 0.0068409806 0.0016950206 0.005928089 0.0016608436 0.0037264426
0.0015463851 0.0015792279 0.0030904566 0.013131 0.005310207 0.0012662548 0.0010948007 0.0014574344
0.0066605066 0.009528226 0.0015062878 0.024676282 0.0017893472 0.04801413 0.011600086 0.0017378738
0.008977895 0.005411961 0.009925564 0.006143329 0.0017571244 0.00086605025 0.005302096 0.0014852827
0.0025321906 0.007878342 0.011924065 0.0073056174 0.007078043 0.0065204944 0.0347683 0.008027575
0.0062605827 0.0063591036 0.0012501052 0.0018641496 0.012813055 0.0054524876 0.0013698009 0.0016679526
0.0066250428 0.0026766602 0.010199883 0.0021797302 0.0015166702 0.0025501128 0.025813175 0.00433403
0.01152955 0.0017092876 0.001424089 0.009000316 0.026783818 0.008523755 0.0058266874 0.0018809129
0.014316751 0.006877492 0.0017317251 0.0016375901 0.013849718 0.0022058592 0.026381176 0.0013728548
0.011946918 0.00871891 0.0066522807 0.0018732449 0.013454289 0.0011411121 0.009818427 0.0021661697

rnn.cell.bias_h f4 [128]
00000000: 0026 0441 8405 0000 f438 853c d2ba 5c3c
00000010: 7fdf d33c 45e1 403d b52d de3a 7eae cb3b
00000020: d11c 393c 7dd3 cf3c 041b 8b3c ef18 063b
00000030: 0ddf 843b 19ee 0d3b e950 c63c 72d9 313c
00000040: ea79 c43c c4dc 2c3c e5fe ed3b 59d1 b23c
00000050: 7683 e73a 33ed d63b 4be8 5f3c 05d1 cd3b
00000060: e857 043c b1cf c53a efcf 5b3b 1243 2a3c
00000070: 62a0 c53c 8ee7 ab3b c1e8 9b3c 1808 c63a
00000080: ac4c a63b 8abf 3b3b 701a 8a3a 6983 c33a
00000090: e0c6 1b3b dbba b13b 66dc 3d3b 7f0e d23b
000000a0: 9fc3 ed3a 289c ce3b a18f e83a 8b56 933c
000000b0: dafd 463c 142f dc3c 406f 693b 7116 a73a
000000c0: 6573 c73b 47de e73b 2afc d53b d129 e03b
000000d0: b72a de3a fb3f c23b efaf d93a b836 743b
000000e0: 5faf ca3a 62fd ce3a b988 4a3b f922 573c
000000f0: d900 ae3b d3f7 a53a d17e 8f3a b306 bf3a
00000100: e73f da3b f31b 1c3c f06d c53a 8725 ca3c
00000110: c487 ea3a 19aa 443d e70d 3e3c 9ec8 e33a
00000120: b617 133c 6b56 b13b 7e9e 223c 884d c93b
00000130: 8f4e e63a 9006 633a cebc ad3b 21ad c23a
00000140: a4f2 253b e213 013c c15c 433c 7263 ef3b
00000150: 6dee e73b 67a9 d53b ef68 0e3d cf85 033c
00000160: 1f25 cd3b 915f d03b f0d9 a33a b355 f43a
00000170: 6ced 513c 60aa b23b 3b8a b33a 789e da3a
00000180: 6916 d93b 6b6a 2f3b 101d 273c 61d9 0e3b
00000190: 50ca c63a 521f 273b c075 d33c 2404 8e3b
000001a0: 0de6 3c3c 6f09 e03a d2a7 ba3a c075 133c
000001b0: 5269 db3c eca6 0b3c 5eed be3b 2e88 f63a
000001c0: 5690 6a3c 185c e13b 4dfa e23a aea3 d63a
000001d0: 79e9 623c bf8f 103b ed1c d83c b3f0 b33a
000001e0: 9cbc 433c 75d9 0e3c e6fa d93b e386 f53a
000001f0: f06e 5c3c c290 953a 22dd 203c dff5 0d3b
8.259277 1.979e-42 0.016262509 0.013472276 0.025863407 0.047089834 0.0016950878 0.0062158694
0.011298374 0.0253694 0.016980655 0.002046164 0.00405491 0.002165681 0.024208503 0.010855066
0.023983914 0.0105506815 0.007263052 0.02182834 0.001766308 0.006559038 0.013666223 0.0062810206
0.008077599 0.0015091804 0.0033540686 0.010391967 0.024124328 0.0052461093 0.019031884 0.0015108613
0.005075058 0.0028648102 0.0010536443 0.0014916483 0.0023769662 0.0054238862 0.002897048 0.0064104195
0.0018139965 0.0063052364 0.0017743 0.017985603 0.012145484 0.026877917 0.0035619289 0.0012747777
0.006086754 0.007076058 0.0065303044 0.0068409224 0.0016949986 0.005928037 0.0016608218 0.003726406
0.0015463642 0.0015792067 0.0030904247 0.013130897 0.0053101596 0.0012662358 0.0010947828 0.001457414
0.00666045 0.009528148 0.0015062671 0.024676098 0.0017893245 0.04801378 0.011599994 0.0017378514
0.008977821 0.005411913 0.009925483 0.0061432756 0.001757102 0.00086603407 0.0053020483 0.0014852622
0.0025321627 0.007878276 0.01192397 0.007305556 0.007077983 0.0065204385 0.03476804 0.008027508
0.0062605287 0.0063590487 0.0012500864 0.0018641263 0.012812953 0.005452439 0.0013697812 0.0016679307
0.006624986 0.002676631 0.0101998 0.0021797048 0.0015166495 0.0025500846 0.025812984 0.0043339897
0.011529458 0.0017092655 0.0014240688 0.009000242 0.02678362 0.008523684 0.005826636 0.0018808895
0.014316639 0.0068774335 0.0017317027 0.0016375685 0.0138496095 0.0022058336 0.02638098 0.001372835
0.011946823 0.008718838 0.006652224 0.0018732216 0.013454184 0.0011410939 0.009818347 0.0021661443

rnn.cell.input_decay_kernel f4 [37]
00000000: 0000 0000 0000 0000 0000 0000 0000 0000
00000010: 0000 0000 0000 0000 0000 0000 0000 0000
00000020: 0000 0000 0000 0000 0000 0000 0000 0000
00000030: 0000 0000 0000 0000 0000 0000 0000 0000
00000040: 0000 0000 0000 0000 0000 0000 0000 0000
00000050: 0000 0000 0000 0000 0000 0000 0000 0000
00000060: 0000 0000 0000 0000 0000 0000 0000 0000
00000070: 0000 0000 0000 0000 0000 0000 0000 0000
00000080: 0000 0000 0000 0000 0000 0000 0000 0000
00000090: 0000 0000
0.0 0.0 0.0 0.0 0.0 0.0 0.0 0.0
0.0 0.0 0.0 0.0 0.0 0.0 0.0 0.0
0.0 0.0 0.0 0.0 0.0 0.0 0.0 0.0
0.0 0.0 0.0 0.0 0.0 0.0 0.0 0.0
0.0 0.0 0.0 0.0 0.0

rnn.cell.input_decay_bias f4 [37]
00000000: 0000 0000 0000 0000 0000 0000 0000 0000
00000010: 0000 0000 0000 0000 0000 0000 0000 0000
00000020: 0000 0000 0000 0000 0000 0000 0000 0000
00000030: 0000 0000 0000 0000 0000 0000 0000 0000
00000040: 0000 0000 0000 0000 0000 0000 0000 0000
00000050: 0000 0000 0000 0000 0000 0000 0000 0000
00000060: 0000 0000 0000 0000 0000 0000 0000 0000
00000070: 0000 0000 0000 0000 0000 0000 0000 0000
00000080: 0000 0000 0000 0000 0000 0000 0000 0000
00000090: 0000 0000
0.0 0.0 0.0 0.0 0.0 0.0 0.0 0.0
0.0 0.0 0.0 0.0 0.0 0.0 0.0 0.0
0.0 0.0 0.0 0.0 0.0 0.0 0.0 0.0
0.0 0.0 0.0 0.0 0.0 0.0 0.0 0.0
0.0 0.0 0.0 0.0 0.0
