output/--epochs=100/split_2/checkpoint.pt (torch, 831970 bytes, 46 tensors)

attn_layers.layers.0.0.0.weight f4 [74]
0	0x3f80f4db	1.0074724
1	0x3f7fd249	0.99930245
2	0x3f7e81b3	0.99416655
3	0x3f805802	1.0026858
4	0x3f80364f	1.0016574
5	0x3f80385c	1.00172
6	0x3f8132dc	1.0093646
7	0x3f7f4c6a	0.99725974
8	0x3f81b827	1.0134324
9	0x3f8114a3	1.0084423
10	0x3f807406	1.0035408
11	0x3f7fea96	0.99967325
12	0x3f8058c5	1.002709
13	0x3f81b181	1.0132295
14	0x3f81d4ff	1.0143126
15	0x3f819871	1.0124646
16	0x3f7e969e	0.99448574
17	0x3f808ad5	1.0042368
18	0x3f80b091	1.0053884
19	0x3f808f56	1.0043743
20	0x3f818fb4	1.012198
21	0x3f8102cc	1.0078979
22	0x3f810de1	1.008236
23	0x3f823638	1.0172796
24	0x3f816d7f	1.011154
25	0x3f8094b4	1.004538
26	0x3f81669c	1.0109439
27	0x3f80ea0f	1.0071429
28	0x3f80b836	1.0056217
29	0x3f815a27	1.0105637
30	0x3f7befa6	0.9841255
31	0x3f7f8bb0	0.9982252
32	0x3f825bfd	1.0184323
33	0x3f8051bf	1.0024947
34	0x3f80df78	1.0068197
35	0x3f816a41	1.0110551
36	0x3f80bc94	1.005755
37	0x3f7e8da0	0.9943485
38	0x3f80684f	1.0031832
39	0x3f80bce3	1.0057644
40	0x3f80950f	1.0045489
41	0x3f7f0dd1	0.9963046
42	0x3f810a7e	1.0081327
43	0x3f8168df	1.0110129
44	0x3f7fba02	0.998932
45	0x3f80632f	1.0030268
46	0x3f828c9e	1.0199163
47	0x3f810b90	1.0081654
48	0x3f815465	1.010388
49	0x3f8051ad	1.0024925
50	0x3f808123	1.0039409
51	0x3f800063	1.0000118
52	0x3f7f37f6	0.99694765
53	0x3f805bcf	1.0028018
54	0x3f816415	1.0108668
55	0x3f802781	1.0012056
56	0x3f80f8e1	1.0075952
57	0x3f7eaf58	0.99486303
58	0x3f7e6515	0.9937299
59	0x3f803eb4	1.0019135
60	0x3f814e73	1.0102066
61	0x3f8039f3	1.0017685
62	0x3f80970f	1.00461
63	0x3f80c2da	1.0059464
64	0x3f803575	1.0016314
65	0x3f818076	1.0117328
66	0x3f80aed4	1.0053353
67	0x3f80c76a	1.0060856
68	0x3f80aece	1.0053346
69	0x3f807de0	1.0038414
70	0x3f7e0fbc	0.9924276
71	0x3f80831f	1.0040015
72	0x3f806787	1.0031594
73	0x3f802ff8	1.0014639

attn_layers.layers.0.0.0.bias f4 [74]
0	0xbb54a0dc	-0.0032444512
1	0x39931cd0	0.00028059492
2	0x3a158745	0.00057040557
3	0x3a37b06a	0.0007007184
4	0x3b6dc0c0	0.0036278218
5	0xbb1f8bdc	-0.0024344837
6	0xbba3c6cd	-0.004998064
7	0xba9de947	-0.0012047671
8	0x39f74d36	0.00047169038
9	0x3aa42985	0.0012524581
10	0xba7f62e3	-0.00097422133
11	0xba9d25c9	-0.001198941
12	0x3b8e7326	0.004347223
13	0xbb3c1c47	-0.0028703378
14	0xba5e9559	-0.00084908825
15	0x3bb8def5	0.005641813
16	0x3b9e2814	0.004826555
17	0xbb5a81ba	-0.0033341483
18	0xbb6eb892	-0.003642593
19	0xbbc6f117	-0.0060712206
20	0x3b8aa356	0.004230897
21	0xbb726877	-0.0036988535
22	0x3b5517da	0.0032515437
23	0xbb6488d0	-0.0034871586
24	0xba814732	-0.0009863137
25	0x3b6a2e8e	0.0035733315
26	0x3a56cc0e	0.00081938587
27	0xb97a4ddb	-0.00023870861
28	0xbb3258d4	-0.002721359
29	0xbc2c3cea	-0.01051257
30	0xbad96bdd	-0.0016587932
31	0x3857d91f	5.1462204e-05
32	0xbb939724	-0.0045041014
33	0xba3c8040	-0.00071907416
34	0xbab2157f	-0.0013586729
35	0x3b8de05a	0.0043297233
36	0x3b3bc033	0.0028648495
37	0x3ba246eb	0.0049523017
38	0xb9fd2755	-0.00048285225
39	0xbc3f3902	-0.011671307
40	0xbbb84886	-0.00562388
41	0x3b602997	0.0034204477
42	0xba19a9fe	-0.00058618176
43	0xb9f6c610	-0.00047068344
44	0xbb02d0bc	-0.001996084
45	0xbb0d0565	-0.0021518108
46	0xbc832b26	-0.016011786
47	0xb9b82014	-0.00035119115
48	0xbb221a8a	-0.0024735057
49	0x3b608615	0.0034259607
50	0xb9acc777	-0.0003295501
51	0x3ba19b9e	0.004931881
52	0x3b86cdca	0.0041138874
53	0xbb8557a2	-0.0040692845
54	0x3b540040	0.0032348782
55	0x3ade5317	0.0016962019
56	0x3af75277	0.0018869181
57	0xba487374	-0.00076465984
58	0xbbf2b756	-0.0074071093
59	0x3a4f9e05	0.000791997
60	0x3b1e8f67	0.0024194361
61	0xbb79c172	-0.0038109687
62	0x3b78209c	0.0037861234
63	0x3a18fa7d	0.00058356655
64	0xbb31ee2d	-0.002715002
65	0xbb1f57c4	-0.0024313787
66	0xb9a41c3d	-0.00031301557
67	0x3ae10ddc	0.0017170268
68	0x3a1b0bee	0.00059145584
69	0x3b43cb79	0.0029875918
70	0xbc132b07	-0.0089824265
71	0xba85eae8	-0.0010217102
72	0xbbca9cb9	-0.0061832336
73	0xbb66d583	-0.0035222478

attn_layers.layers.0.1.to_q.weight f4 [64, 74]
0	0xbbbc98ab	-0.005755504
1	0x3db35a95	0.087575115
2	0x3c2e8f90	0.010654345
3	0x3d3f53f1	0.046710912
4	0x3d2ea632	0.042638965
5	0xbdab0de4	-0.08352259
6	0xbdbb590a	-0.09147842
7	0xbddc56f1	-0.1075877
8	0x3bf7bfa0	0.0075606853
9	0x3ccd639a	0.025071908
10	0xbd52f295	-0.051500876
11	0xbd668cc5	-0.056286592
12	0xbca09bca	-0.019605536
13	0x3d3f93d0	0.046771824
14	0xbd046083	-0.032318603
15	0xbab18ff5	-0.0013546931
16	0x3d9ce3b8	0.076606214
17	0x3d80076b	0.06251415
18	0x3d37bfad	0.04486053
19	0xbbb99182	-0.005663098
20	0x3dc67f5b	0.0969226
21	0xbc275722	-0.010213645
22	0x3da32cbf	0.07967519
23	0xbd899ab2	-0.06718959
24	0x3c360d9c	0.011111643
25	0x3d00784d	0.031364728
26	0xbde2f419	-0.11081714
27	0xbd438c38	-0.047741145
28	0xba9f050d	-0.0012132243
29	0xbdafa012	-0.08575453
30	0xbd8a3c79	-0.067498155
31	0xbc8b2c3a	-0.016988862
32	0xbdf4cfd9	-0.11953706
33	0xbd17cf37	-0.03706285
34	0xbd83cbc7	-0.06435352
35	0x3da3b4ea	0.07993491
36	0xbd014eec	-0.031569406
37	0xbe010dc2	-0.12602904
38	0x3d7cdb34	0.061732486
39	0x3d0b04d5	0.033940155
40	0xbd9ce461	-0.07660747
41	0xbc4aac86	-0.012370234
42	0xbd89e0df	-0.06732344
43	0x3c88c597	0.01669578
44	0x3d8222f5	0.06354324
45	0x3d56c3f2	0.05243296
46	0xbd9f54b2	-0.07779826
47	0xbde8e3be	-0.113715634
48	0x3c08d2a0	0.008350998
49	0xbde75864	-0.11296156
50	0xbde54378	-0.11194509
51	0xbdc6e0de	-0.09710859
52	0xbc310294	-0.010803837
53	0xbd396833	-0.045265388
54	0x3c28ad5b	0.010295237
55	0xbddd504d	-0.10806332
56	0xbcdc24af	-0.02687296
57	0x3d9ecc23	0.0775378
58	0x3de35d12	0.11101736
59	0x3de45069	0.111481495
60	0xbd51c696	-0.051214777
61	0x3d0463ba	0.03232167
62	0xbd8b6e7e	-0.06808184
63	0xbd425407	-0.047443416
64	0x3e029045	0.12750347
65	0x3dfe4cf3	0.12417021
66	0xbd2ffc89	-0.042965446
67	0x3c4dd13c	0.012562092
68	0x3c750c59	0.014956557
69	0x3c9595dc	0.018259935
70	0x3e06122c	0.1309287
71	0xbc90c6c5	-0.017672906
72	0x3d60b881	0.054863457
73	0x3da14143	0.07873776
74	0x3de06a80	0.10957813
75	0x3c39d5b1	0.011342452
76	0x3cefd01a	0.029274035
77	0x3c3be7ea	0.011468867
78	0xbdc1c4e8	-0.09461385
79	0xbd3235d5	-0.04350837
80	0x3dd9d7bf	0.106368534
81	0x3d435d0c	0.04769616
82	0xbc676c00	-0.01412487
83	0x3ddeb23b	0.108738385
84	0x3df2b001	0.11849976
85	0xbd016f2e	-0.03160017
86	0xbd583824	-0.052787915
87	0x3da354bd	0.07975147
88	0x3dd1b9ef	0.10240542
89	0xbd81e765	-0.06342963
90	0xbc149eb0	-0.009071037
91	0xbd06125f	-0.032732364
92	0xbde34cf0	-0.11098659
93	0x3d4ddb6c	0.050258085
94	0x3d83441a	0.06409474
95	0xbdf726d8	-0.12067956
96	0x3b76f55b	0.0037682864
97	0xbdc27187	-0.0949431
98	0xbce5b65c	-0.028041057
99	0xbcbae1e4	-0.022812791
100	0xbd9bca3b	-0.07606932
101	0x3d5ad4c4	0.053425565
102	0xbda57285	-0.080784835
103	0x3dd11bb0	0.10210359
104	0xbde0d451	-0.10977996
105	0xbb9be454	-0.0047574434
106	0xbd4b3291	-0.04960877
107	0xbcf453c6	-0.029825103
108	0x3d1d31ea	0.03837768
109	0x3d98e78a	0.074660376
110	0x3ce5baea	0.02804323
111	0xbd1f301b	-0.038864236
112	0x3b5ff2b0	0.0034171753
113	0xbdf078e1	-0.11741806
114	0xbc139a27	-0.009008921
115	0x3cd2c066	0.025726508
116	0x3d9bc5de	0.076060995
117	0x3b7e1bfd	0.0038774007
118	0x3d6c9515	0.057759363
119	0xbdad8d86	-0.08474259
120	0xbcd8454a	-0.026400227
121	0x3deadc58	0.114678085
122	0xbdbd861b	-0.09254094
123	0x3c4b5627	0.012410677
124	0xbd672966	-0.056435965
125	0x3d06e5d3	0.03293402
126	0xbd8d5123	-0.06900241
127	0xbd62910d	-0.055314112
128	0x3b883983	0.0041572466
129	0x3d8786d0	0.0661751
130	0x3db099dd	0.08623097
131	0x3d3b08b2	0.04566259
132	0xbb8e0836	-0.004334475
133	0x3c4a925f	0.012363999
134	0xbcceb47c	-0.025232546
135	0xbddb40d5	-0.10705725
136	0x3b91c41f	0.0044484283
137	0xbd77e17c	-0.060517773
138	0x3cac5a38	0.021039113
139	0xbdd47ecd	-0.10375748
140	0xbdd91913	-0.10600486
141	0xbd7459e7	-0.05965605
142	0x3d96acb7	0.073571615
143	0xbbe6a8f1	-0.0070391824
144	0xbd29dfb4	-0.041473106
145	0x3b81dfdd	0.003963454
146	0xbdde13bc	-0.10843608
147	0xbdaaa2a2	-0.08331801
148	0xbd858c5d	-0.06520913
149	0xbda9f1ef	-0.08298098
150	0xbd7d0de0	-0.06178081
151	0x3db29be1	0.08721138
152	0x3dc05e23	0.09392955
153	0xbcd0268b	-0.025409004
154	0xbdc70bd3	-0.09719052
155	0x3cae8b0c	0.021306537
156	0xbdc93dc0	-0.09826231
157	0xbdd3766b	-0.10325321
158	0xbdb03800	-0.08604431
159	0xbdd16a7b	-0.10225388
160	0xbc800940	-0.01562941
161	0x3d8664d8	0.06562203
162	0x3d8eef14	0.06979194
163	0xbdc12fdf	-0.09432959
164	0x3bbe58d2	0.005808928
165	0xbdb7e96f	-0.08980071
166	0x3d182029	0.037140045
167	0x3e04981f	0.12948655
168	0x396df2a5	0.00022692473
169	0x3db32c66	0.08748703
170	0xbceef771	-0.029170724
171	0xbdd5445f	-0.104134314
172	0xbd9ad4d6	-0.075601265
173	0x3cf961c0	0.030442119
174	0x3c8c72d4	0.017144598
175	0x3de3c96f	0.11122405
176	0x3bf885bb	0.0075843013
177	0xbdb40343	-0.087896846
178	0xbdad040e	-0.08448039
179	0x3da9d729	0.08292992
180	0xbdf1a33e	-0.11798714
181	0xbdb9b939	-0.090685315
182	0xbd9020e7	-0.070375256
183	0x3d5b0624	0.053472653
184	0x3d8a8460	0.0676353
185	0x3d9df711	0.0771314
186	0xbdbdcb97	-0.09267347
187	0xbd81ff08	-0.063474715
188	0xbc8f10c1	-0.017464044
189	0x3dd46441	0.103706844
190	0xbddb3be6	-0.10704784
191	0xbd57c0e3	-0.052674185
192	0xbc6665e8	-0.014062382
193	0xbd0bbac9	-0.03411368
194	0xbde91e8a	-0.11382778
195	0x3d9f084d	0.07765255
196	0xbc17934f	-0.00925143
197	0x3c917bb8	0.017759189
198	0xbd1baaaa	-0.038004555
199	0x3ae5acbe	0.0017522795
200	0x3ccc085a	0.024906326
201	0xbe037b0a	-0.12839904
202	0xbd098c12	-0.033580847
203	0x3d28c52e	0.04120367
204	0x3dedecc9	0.11617429
205	0x3c6e19a1	0.014532478
206	0x3d37aabb	0.044840556
207	0x3daac4af	0.08338296
208	0xbda45b06	-0.08025174
209	0xbd2a44a4	-0.041569367
210	0x3d2cc16d	0.042176653
211	0x3d98fb3a	0.07469793
212	0x3de37879	0.11106963
213	0x3d5265ff	0.051366802
214	0xbd968146	-0.07348876
215	0x3dad0a1a	0.08449192
216	0xbc76740f	-0.015042319
217	0x3ded171e	0.11576675
218	0xbda32e28	-0.07967788
219	0x3d88911a	0.06668301
220	0xbb54905a	-0.0032434673
221	0x3dddb8a2	0.108262315
222	0xbdefb9c1	-0.117053516
223	0xbd8a4350	-0.0675112
224	0x3db2adde	0.08724569
225	0xbd1e20e4	-0.038605586
226	0x3dba7592	0.09104456
227	0xbd59efb8	-0.05320713
228	0xbc3f0323	-0.011658463
229	0xbd6a1b26	-0.057154797
230	0xbc9cd567	-0.019144727
231	0x3d3eac8d	0.046551276
232	0x3def7ebd	0.11694095
233	0xbcdef193	-0.027214801
234	0x3d05808f	0.032593306
235	0x3a1f3699	0.00060735043
236	0xbd425066	-0.047439955
237	0xbc9f9555	-0.019480387
238	0x39d7da4c	0.0004117064
239	0xbcd14660	-0.025546253
240	0x39fa066c	0.000476885
241	0x3d685302	0.056719787
242	0xbc943ff6	-0.018096905
243	0x3d6214f9	0.055195782
244	0x3d6aed05	0.057354946
245	0x3d0dd26d	0.034624506
246	0xbd9f4a25	-0.07777814
247	0x3cdad506	0.026712906
248	0xbdb169cc	-0.08662757
249	0x3e04d8e2	0.12973359
250	0x3d2d9ae7	0.042384055
251	0x3ccba6d4	0.024859823
252	0xbd238c30	-0.039928615
253	0x3d93ec19	0.072227664
254	0xbe01e711	-0.12685801
255	0xbd829e21	-0.06377817

attn_layers.layers.0.1.to_k.weight f4 [64, 74]
0	0xbdbcabe1	-0.09212471
1	0x3da534da	0.08066721
2	0x3d820e94	0.06350437
3	0xbc322059	-0.01087197
4	0x3d6421c1	0.055696253
5	0x3d83d623	0.06437328
6	0x3db460d8	0.08807534
7	0xbc9ecfaf	-0.01938614
8	0xbd566e0e	-0.05235105
9	0xbcface87	-0.030616058
10	0x3c2d1dc8	0.010566182
11	0xbdd05471	-0.10172356
12	0xbdd7e28f	-0.105412595
13	0xbda538cd	-0.080674745
14	0xbdac8b97	-0.08425062
15	0x3b9c4c28	0.0047698207
16	0xbd8fc91b	-0.0702078
17	0x3b0812c3	0.0020763136
18	0x3d59a1df	0.053132888
19	0x3c5e36fa	0.013562912
20	0xbd53a7c3	-0.051673662
21	0xbbe47201	-0.006971598
22	0xbd003658	-0.031301826
23	0x3d50f152	0.05101139
24	0x3c3db15b	0.011577929
25	0xbdca4df6	-0.09878151
26	0x3c483ca1	0.012221486
27	0x3d02b355	0.031909306
28	0x3de964b5	0.113961615
29	0x3d20dc68	0.039272696
30	0xbd8f2c71	-0.069908984
31	0xbe0af128	-0.13568556
32	0x3d8142ab	0.06311544
33	0xbbc22b16	-0.0059255464
34	0x3e115aa8	0.14194739
35	0xbdbf59e0	-0.09343314
36	0x3dc69123	0.096956514
37	0xbd62348a	-0.055225886
38	0x3d8168d0	0.063188195
39	0xbd5348e8	-0.0515832
40	0xbdd63bd2	-0.104606286
41	0xbdbeadc3	-0.09310486
42	0xbd7a0e38	-0.061048716
43	0x3d3dea00	0.046365738
44	0xbd6fe8cc	-0.05857162
45	0xbdf387e5	-0.11891154
46	0x3deb50b4	0.11490002
47	0x3c173dde	0.009231059
48	0xbdd0d906	-0.10197644
49	0x3dbe2376	0.092841074
50	0xbd33d26e	-0.043901853
51	0xbda59c22	-0.080864206
52	0x3dd3c83d	0.10340927
53	0xbdbd6d4f	-0.092493646
54	0xbe038fbc	-0.12847799
55	0x3dc00a1c	0.09376928
56	0xbdfef859	-0.12449712
57	0x3d97ce0b	0.074123465
58	0xbda79e15	-0.08184449
59	0x3daad102	0.08340646
60	0xbe061baa	-0.1309649
61	0xbcc7c8c9	-0.024387734
62	0x3da4bbc4	0.08043626
63	0xbc0c7fb3	-0.008575368
64	0xbd42272e	-0.047400646
65	0x3cae7e46	0.021300446
66	0xbc579342	-0.013157668
67	0xbc5f25f8	-0.013619892
68	0xbc1fb07d	-0.009746668
69	0x3d6b72de	0.057482593
70	0x3d30c2e8	0.043154627
71	0x3d05fbd8	0.03271088
72	0xbd9e7486	-0.07737069
73	0xbdab13e5	-0.08353404
74	0xbc6df494	-0.014523644
75	0x3c0dbd73	0.008651125
76	0x3ae55055	0.0017495254
77	0x3dc0472c	0.09388575
78	0x3d3de196	0.046357714
79	0x3d9ff330	0.07810056
80	0xbde96261	-0.113957174
81	0x3bdb4b04	0.006692292
82	0x3da187fc	0.07887265
83	0xbd856bd9	-0.06514711
84	0x3d9ada4f	0.0756117
85	0x3cd640ea	0.026154
86	0x3da84606	0.08216481
87	0x3d144179	0.036195252
88	0xbd5e5781	-0.05428267
89	0x3dac81aa	0.08423169
90	0xbd6b1fdd	-0.057403434
91	0xbd11ad2f	-0.03556555
92	0x3d870d9b	0.06594392
93	0x3cbed293	0.023293769
94	0xbd425bd6	-0.047450863
95	0xbca6b589	-0.020350235
96	0xbe0355fa	-0.12825766
97	0x3dc4e555	0.09614054
98	0x3df9f5a2	0.12205054
99	0x3d9af2fe	0.07565878
100	0xbd87186c	-0.06596455
101	0x3a6da6e9	0.0009065704
102	0xbd239c2d	-0.039943863
103	0xbdaaad18	-0.08333796
104	0x3d631410	0.055439055
105	0xbd652ee4	-0.05595292
106	0xbd1bb781	-0.0380168
107	0xbd7dafc6	-0.06193521
108	0xbd7482ad	-0.059694935
109	0xbd81dea1	-0.06341291
110	0xbcc12d94	-0.023581304
111	0x3d2f9d8b	0.042874854
112	0xbdef9f51	-0.11700309
113	0x3dd96208	0.10614401
114	0xbd79eea4	-0.0610186
115	0xbd9c79f1	-0.07640446
116	0x3d95d627	0.07316237
117	0x3d26002e	0.040527515
118	0x3df7c95e	0.120989546
119	0xbd85c6b2	-0.06532039
120	0x3a0cff80	0.00053786486
121	0xbd6c4bcb	-0.05768947
122	0x3c9a8b9f	0.018865405
123	0xbda16a25	-0.078815736
124	0x3c3060cb	0.010765265
125	0xbda86c51	-0.08223785
126	0xbc0cd32f	-0.008595272
127	0x3de45fa1	0.11151052
128	0xbd9c6d77	-0.07638066
129	0xbd322a94	-0.043497637
130	0xbdcfc3db	-0.10144778
131	0xbca8772d	-0.02056464
132	0xbd043c3e	-0.032284014
133	0xbd5e7db3	-0.054319095
134	0xbca508d2	-0.020145807
135	0xbb209899	-0.0024505018
136	0xbc76d50e	-0.015065445
137	0x3d7007fd	0.05860137
138	0x3d8f094b	0.06984194
139	0x3e0424f6	0.12904724
140	0x3d3f8436	0.046756946
141	0xbd944948	-0.0724054
142	0x3db2f427	0.087379746
143	0x3deed431	0.11661566
144	0xbdd95eef	-0.1061381
145	0xbc688760	-0.014192432
146	0xbd6bea11	-0.05759627
147	0x3d1cac49	0.03825024
148	0xbdb9f6e4	-0.09080294
149	0xbdb15bdf	-0.08660101
150	0x3d132a9b	0.035929304
151	0x3d33bef2	0.04388327
152	0x3c35b649	0.011090823
153	0x3b388a76	0.00281587
154	0x3d5501d7	0.052003708
155	0x3c21b7f4	0.009870518
156	0x3dce22c4	0.10065225
157	0xbd5bf25f	-0.05369794
158	0xbdad4391	-0.08460153
159	0xbcb2c2f8	-0.021821484
160	0xbde06ec9	-0.109586306
161	0xbd9c6236	-0.0763592
162	0x3d9bf067	0.076142125
163	0xbcd31592	-0.025767121
164	0x3d43e345	0.047824163
165	0x3dc4adcb	0.09603461
166	0x3b8ae0e0	0.004238233
167	0xbd909b57	-0.07060879
168	0x3d9b929f	0.07596325
169	0x3d7e4be3	0.06208409
170	0x3dd5d299	0.10440559
171	0x3b0b049c	0.0021212464
172	0x3dc44631	0.095837004
173	0x3dbe89d5	0.09303633
174	0x3d7d4e66	0.061842345
175	0xbdacace2	-0.08431412
176	0x3e18c7e0	0.14919996
177	0xbe0960e3	-0.13415866
178	0xbdfd5ada	-0.12370844
179	0x3da91154	0.08255258
180	0xbbc203ef	-0.005920879
181	0xbd682ba3	-0.05668224
182	0x3d8f6f21	0.07003618
183	0xbdef494a	-0.11683901
184	0xbca90c76	-0.020635825
185	0xbcb2779b	-0.021785548
186	0xbd7baa3c	-0.061441645
187	0xbbc529a8	-0.0060169287
188	0x3d9c8c0c	0.07643899
189	0x3dbac9c3	0.09120514
190	0xbdbb0dbc	-0.09133479
191	0xbda0ff53	-0.07861199
192	0x3d67ce34	0.056593135
193	0xbda0e2dc	-0.0785577
194	0xbd30cce0	-0.043164134
195	0x3d4ece7f	0.0504899
196	0xbd226225	-0.03964438
197	0x3d424b65	0.047435183
198	0xbcef82d6	-0.029237192
199	0xbc988dcf	-0.018622307
200	0xbdbfccdd	-0.093652464
201	0x3c222006	0.00989533
202	0x3d29a622	0.041418202
203	0xbd52e301	-0.05148602
204	0x3d8c617d	0.06854532
205	0x3dbb5341	0.09146739
206	0x3d925309	0.07144744
207	0x3d65dd90	0.0561195
208	0xbd7ebe71	-0.062193338
209	0xbd393035	-0.04521199
210	0x3c3afba1	0.011412532
211	0xbde6fef2	-0.11279096
212	0xbc961165	-0.018318841
213	0xbacdb726	-0.0015694841
214	0xbd59c55b	-0.05316673
215	0x3d87c281	0.066288956
216	0x3db54750	0.088514924
217	0x3db951f5	0.09048835
218	0x3dd75b51	0.10515464
219	0x3d3b9504	0.04579641
220	0xbe1e6dc1	-0.15471555
221	0x3c12377e	0.008924363
222	0x3d87b5b7	0.06626456
223	0xbd0f4f22	-0.034987576
224	0x3cae5f83	0.021285778
225	0x3dd336e8	0.10313207
226	0x3cbadbfb	0.022809973
227	0x3d0ab22e	0.03386133
228	0xbdc8d661	-0.098065145
229	0x3cfceec7	0.030875577
230	0x3e0626ef	0.1310079
231	0x3c705bf6	0.014670363
232	0xbd72f3df	-0.059314605
233	0xbdb8c18f	-0.09021293
234	0xbd75b74b	-0.059989255
235	0xbd5b3682	-0.05351878
236	0x3d5b4c89	0.053539786
237	0xbcdaddb7	-0.02671705
238	0xbd594614	-0.053045347
239	0xbd540f4a	-0.051772393
240	0xbc51494f	-0.012773826
241	0x3cc618bd	0.024181718
242	0xbd96ca04	-0.0736275
243	0xbd968325	-0.073492326
244	0x3dfa24a1	0.12214018
245	0x3d094ddf	0.03352153
246	0x3da53d99	0.080683894
247	0xbd9b4482	-0.07581426
248	0xbdb070ec	-0.08615288
249	0x3da9269d	0.08259318
250	0x3d56a4e5	0.05240335
251	0xbcc8e2e9	-0.024522262
252	0xbc5c8f35	-0.013461878
253	0xbd88312d	-0.066500045
254	0xbd400c50	-0.046886742
255	0xbc0c3345	-0.0085571455

attn_layers.layers.0.1.to_v.weight f4 [64, 74]
0	0xbdaf878b	-0.08570775
1	0x3cb029c7	0.021504296
2	0xbd899d67	-0.06719475
3	0x3ca0daa7	0.019635512
4	0xbdb3bcd2	-0.08776249
5	0x3c4316ec	0.0119073205
6	0x3ce96fcb	0.02849569
7	0x3d3f6ae4	0.0467328
8	0x3b3e1d6f	0.0029009243
9	0x3de5a078	0.112122476
10	0xbd8578bb	-0.06517168
11	0x3cb7b9ee	0.022427525
12	0x3d90b3b8	0.07065529
13	0xbdcf3994	-0.10118404
14	0x3c389d10	0.011267915
15	0xbd4dfaa3	-0.050287854
16	0xbd55aff6	-0.052169763
17	0x3c59d4f6	0.013295403
18	0xbd0234b0	-0.031788528
19	0xbd13f189	-0.036119018
20	0x3d19cb47	0.037547376
21	0x3cf6961b	0.030100873
22	0xbdaadecf	-0.083432786
23	0xbcdf17dd	-0.027233059
24	0xbdd85079	-0.10562224
25	0xbd5e4545	-0.05426528
26	0xbdf2c4ce	-0.11853944
27	0xbdd1b2d5	-0.10239188
28	0x3c4c1f1c	0.012458589
29	0xbdd524b3	-0.104073904
30	0xbdd20ef5	-0.10256759
31	0x3d2bfd6c	0.04198973
32	0xbd901557	-0.0703532
33	0x3d485e9b	0.048918348
34	0x3c6f7dbf	0.014617383
35	0xbd4336b4	-0.04765959
36	0x3d8b0aa7	0.06789141
37	0xbb589a8e	-0.0033051106
38	0x3d57f525	0.052724022
39	0x3dc459b7	0.09587424
40	0x3d3a2511	0.045445506
41	0xbddc3df7	-0.10754006
42	0xbdcb534a	-0.099279955
43	0xbda110d1	-0.078645356
44	0x3da4f7c2	0.080550686
45	0x3de540da	0.1119401
46	0xbd0a64c9	-0.033787522
47	0xbd2cd3b3	-0.04219408
48	0x3d56a755	0.052405674
49	0x3dcfaf7f	0.10140895
50	0x3d7ec16e	0.062196188
51	0xbcbbba5e	-0.022916015
52	0x3db8b7fd	0.09019468
53	0xbd9d1ddd	-0.076717116
54	0xbd0ca877	-0.034340348
55	0xbdc46f06	-0.095914885
56	0x3d319c3c	0.043361887
57	0x3c077fe5	0.0082702385
58	0x3db7dd5c	0.08977768
59	0x3d92c729	0.07166893
60	0x3be103d8	0.0068669133
61	0x3dbc600f	0.09198009
62	0x3d8ec8b3	0.06971874
63	0x3c8121f1	0.015763255
64	0xbde318e1	-0.1108873
65	0xbdcdca89	-0.10048396
66	0x3d0a4dcc	0.0337656
67	0x3d652363	0.05594195
68	0xbda9cc20	-0.08290887
69	0x3aa3a292	0.0012484363
70	0x3db228ff	0.08699226
71	0x3da228ec	0.079179615
72	0xbd7f0c13	-0.062267374
73	0xbdc021bf	-0.093814366
74	0xbddd3e24	-0.10802868
75	0xbcbfe9a1	-0.023426833
76	0x3cda02a4	0.026612587
77	0xbd502240	-0.050813913
78	0xbc824a07	-0.01590444
79	0x3d85e47b	0.0653772
80	0xbda0b28b	-0.07846554
81	0x3dbae46b	0.091255985
82	0x3d0da824	0.03458418
83	0xbd6fc004	-0.05853273
84	0xbdb80ad4	-0.0898644
85	0xbdaa3678	-0.0831117
86	0x3de53f73	0.111937426
87	0x3d86ce65	0.065823354
88	0x3da23f17	0.0792219
89	0xbd065565	-0.032796282
90	0xbdd4915b	-0.10379287
91	0xbdaa37cc	-0.08311424
92	0xbc3e4106	-0.0116121825
93	0x3dd89915	0.10576073
94	0xbcbf3398	-0.023340032
95	0xbcb83dcb	-0.022490403
96	0xbcccb9e5	-0.024990985
97	0xbdc153e3	-0.09439828
98	0x3d291f13	0.0412894
99	0x3ddba1e6	0.10724239
100	0xbb76b55e	-0.0037644724
101	0xbd0f8438	-0.035038203
102	0x3deace32	0.1146511
103	0xbdce18b9	-0.10063309
104	0x3c66d178	0.014088027
105	0x3db92512	0.09040274
106	0xbc364d9e	-0.011126904
107	0xbdd1101d	-0.102081515
108	0x3adb4e8e	0.0016731785
109	0x3bada976	0.0052997423
110	0xbdc284c2	-0.09497978
111	0xbd447909	-0.04796699
112	0xbc083207	-0.008312709
113	0x3d0332a2	0.03203071
114	0x3cd73792	0.026271615
115	0x3b823b00	0.0039743185
116	0x3de6376f	0.11241042
117	0x3d98addb	0.07455035
118	0x3cea8268	0.028626636
119	0xbdcad8c5	-0.09904627
120	0xbbf35ed3	-0.0074270754
121	0x3d18c4be	0.037297003
122	0xbc23627a	-0.009972209
123	0x3d9a9ca4	0.07549408
124	0xbdb2c5d3	-0.08729138
125	0x3dece372	0.11566819
126	0x3ddb5b0a	0.10710724
127	0xbc1bf454	-0.009518702
128	0xbdb10432	-0.08643378
129	0xbd796df1	-0.060895864
130	0xbdb88ae9	-0.0901087
131	0xbc124e51	-0.008929805
132	0xbca1afc6	-0.019737136
133	0x3d9efff1	0.07763661
134	0x3d5cad5f	0.053876277
135	0x3d9896e4	0.07450655
136	0x3ddd08e8	0.10792714
137	0x3d1e4fe2	0.0386504
138	0x3d297756	0.041373573
139	0x3dcc41fe	0.099735245
140	0x3d645397	0.05574378
141	0xbd3e0a82	-0.04639674
142	0xbc74e322	-0.014946731
143	0x3d6aebcb	0.057353776
144	0x3d9b177c	0.07572839
145	0xbd1ddb23	-0.038539063
146	0xbbb77f13	-0.005599865
147	0x3c6a23a5	0.014290725
148	0x3dd061cf	0.101749055
149	0x3cd4b412	0.02596477
150	0x3d0529eb	0.03251068
151	0xbd0f43be	-0.034976713
152	0xbda9374a	-0.08262499
153	0xbaf6d7cc	-0.0018832623
154	0x3de69921	0.11259676
155	0x3d573156	0.052537285
156	0x3d20ab75	0.039226014
157	0xbd4e5eeb	-0.05038349
158	0xbd2d4aa6	-0.04230752
159	0xbd599de7	-0.053129103
160	0x3d21500d	0.039382983
161	0x3c977ae3	0.018491214
162	0x3db00ad5	0.08595816
163	0xbda613f9	-0.08109278
164	0xbdc93eb4	-0.09826413
165	0x3dfa14f7	0.1221103
166	0x3da067ae	0.07832275
167	0x3d89363b	0.06699797
168	0x3cb2984a	0.021801133
169	0x3d3c67e5	0.04599752
170	0xbd03e2f3	-0.032198858
171	0xbd49322f	-0.049120124
172	0x3db3fcea	0.08788474
173	0xbdb4f13c	-0.08835074
174	0x3db10ab8	0.086446226
175	0xbde10992	-0.109881535
176	0xbd8191cf	-0.06326639
177	0x3de71f42	0.11285259
178	0x3ddc9c3e	0.10771988
179	0x3c1eea33	0.009699392
180	0x3dfd145e	0.123574
181	0x3d0e625d	0.034761775
182	0xbd2ae6c3	-0.041723978
183	0x3df1922d	0.11795459
184	0xbd48a407	-0.048984554
185	0xbd3d2878	-0.046181172
186	0xbdb38b44	-0.08766797
187	0x3da939ce	0.082629785
188	0xbd2cb6f5	-0.04216667
189	0x3d175b90	0.036952555
190	0x3d616959	0.055032108
191	0xbdd8aca4	-0.105798036
192	0x3b424005	0.002964021
193	0x3cf03408	0.029321685
194	0x3d437567	0.047719385
195	0xbc9618fd	-0.018322462
196	0x3debcf1d	0.11514113
197	0x3dcd37ad	0.10020385
198	0xbda19ef1	-0.07891644
199	0x3d5c84e7	0.053837683
200	0x3bb1a660	0.005421445
201	0x3d6ab67e	0.057302944
202	0xbc09e683	-0.008416775
203	0xbdde7636	-0.10862391
204	0x3d91ee67	0.0712555
205	0xba7cc649	-0.0009642584
206	0x3d00ac65	0.03141441
207	0xba3788fe	-0.00070013094
208	0x3ddc3ae4	0.1075342
209	0xbdb24b1f	-0.087057345
210	0x3dad3ec1	0.08459235
211	0xbdc1bedd	-0.094602324
212	0xbd8e02cb	-0.069341265
213	0xbd522dab	-0.051313084
214	0x3d3c0814	0.04590614
215	0x3cf796f2	0.030223344
216	0xbd945491	-0.07242692
217	0x3ccfeec4	0.025382407
218	0x3d10c0cb	0.03534011
219	0xbc049819	-0.0080929035
220	0x3dc96f93	0.09835734
221	0x3dab506e	0.0836495
222	0x3db79a5a	0.08964987
223	0xbce0abb6	-0.027425628
224	0x3d493ea6	0.04913201
225	0x3d047928	0.032342106
226	0xbd937a70	-0.072010875
227	0xbc58e6ef	-0.013238653
228	0xbd2ae7fb	-0.04172514
229	0xbd88bddf	-0.0667684
230	0x3d45db2c	0.04830472
231	0x3db3a9ca	0.08772619
232	0x3d833636	0.06406824
233	0xbd89abcb	-0.0672222
234	0xbde7a5dc	-0.11310932
235	0xbdabbe0b	-0.08385857
236	0x3d9ccdee	0.076564655
237	0xbdf99478	-0.12186521
238	0x3d8cdd45	0.06878141
239	0x3daef20f	0.08542263
240	0xbbe19d7f	-0.00688523
241	0xbccb0757	-0.024783773
242	0xbd9abba4	-0.07555321
243	0xbde0ce59	-0.10976858
244	0xbd97a0eb	-0.074037395
245	0xbdf34c97	-0.11879843
246	0xbd95bb14	-0.07311073
247	0xbda42e4f	-0.08016645
248	0x3d911dc3	0.07085755
249	0xbd3436dd	-0.043997634
250	0xbd91dd58	-0.07122296
251	0x3bc68b32	0.006059074
252	0x3cba525f	0.022744356
253	0x3d246639	0.04013655
254	0x3d45a45a	0.04825244
255	0x3d502cc2	0.050823934

attn_layers.layers.0.1.to_out.weight f4 [74, 64]
0	0xbdd92d27	-0.10604315
1	0xbdf6c71e	-0.12049697
2	0x3c35d9be	0.011099277
3	0x3d02cd81	0.031934265
4	0x3a4dd67a	0.0007852089
5	0xbd64c29e	-0.055849664
6	0x3dc81999	0.09770507
7	0xbcac7288	-0.021050707
8	0xbde27481	-0.110573776
9	0xbdd0a3a8	-0.10187465
10	0x3bb3c8ba	0.005486575
11	0xbd5572f6	-0.05211159
12	0xbb98035e	-0.0046390733
13	0xbda8e1ae	-0.0824617
14	0xbcf83453	-0.030298388
15	0xbc7c2213	-0.015388983
16	0x3d9b7cd2	0.07592167
17	0xbd69e25e	-0.057100646
18	0x3df29700	0.11845207
19	0x3dd673ab	0.10471281
20	0x3dab97ac	0.083785385
21	0xbc4fe3f5	-0.012688627
22	0x3d095f8f	0.033538397
23	0x3d98d7a7	0.074630074
24	0xbc29ca86	-0.010363227
25	0xbcd0b95a	-0.025479008
26	0xbd305830	-0.043052852
27	0x3d35a44b	0.044346135
28	0x3b06d157	0.0020571554
29	0xbc8ecfca	-0.017433066
30	0x3df11f0f	0.11773502
31	0x3dc15513	0.09440055
32	0x3d6c9f48	0.05776909
33	0xbd46d678	-0.048544377
34	0x3d2c2a2b	0.042032402
35	0xbb913d62	-0.004432366
36	0x3da9cdd1	0.082912095
37	0x3dfcb515	0.12339226
38	0x3aed735b	0.0018116044
39	0xbdd88b4b	-0.10573443
40	0x3d8a406a	0.06750567
41	0xbdc41dcf	-0.09575998
42	0x3d175f39	0.036956046
43	0xbd72c170	-0.059266508
44	0xbdb7f28d	-0.0898181
45	0xba84ea3e	-0.001014061
46	0x3decd34d	0.1156374
47	0x3df88119	0.121339984
48	0xbd32a540	-0.043614626
49	0x3def53b1	0.11685885
50	0x3dc778a7	0.097398095
51	0x3d87618f	0.06610405
52	0x3df66e9e	0.12032817
53	0x3de44f7c	0.11147973
54	0xb9c61acb	-0.00037785465
55	0x3d414cd0	0.047192395
56	0xbe009336	-0.12556157
57	0xbd18a3e0	-0.03726566
58	0xbd51ce0f	-0.051221903
59	0x3b7c0721	0.0038456398
60	0x3d10549b	0.035236936
61	0x3d90fca7	0.070794396
62	0xbd990590	-0.07471764
63	0xbd9cda63	-0.076588415
64	0xbcfc4edc	-0.030799322
65	0xbd31023b	-0.043215018
66	0xbc70bfa9	-0.014694133
67	0xbc7afbb0	-0.015318796
68	0xbd8abd47	-0.06774383
69	0x3d8408e7	0.064470105
70	0xbde794ca	-0.11307676
71	0x3da61d53	0.08111062
72	0xbdd2a4c6	-0.10285334
73	0x3b3d7421	0.002890833
74	0x3cf0cbb4	0.029394008
75	0xbddf6ffd	-0.10910032
76	0xbd35e055	-0.044403393
77	0x3de614db	0.112344466
78	0xbdece4d2	-0.115670815
79	0xbc3025d4	-0.010751206
80	0xbdb3d982	-0.08781721
81	0xbdb7f1fa	-0.089817
82	0xbc2114b7	-0.009831599
83	0xbdf1ac7c	-0.11800477
84	0x3d1a535c	0.037677154
85	0xbda83f2c	-0.08215174
86	0x3d68d346	0.05684211
87	0xbdd7a387	-0.10529237
88	0xbda7bae6	-0.08189945
89	0xbd8ea23d	-0.06964538
90	0xbd9cb1a5	-0.076510705
91	0x3dafd158	0.08584851
92	0x3d59f13f	0.053208586
93	0x3d97b291	0.07407106
94	0xbda89c40	-0.08232927
95	0x3d5f681d	0.05454265
96	0xbcfb7e44	-0.030699857
97	0xbcd308e6	-0.025761079
98	0xbdc5046e	-0.096199855
99	0xbd909775	-0.07060138
100	0x3dc5e170	0.096621394
101	0xbdb07965	-0.08616904
102	0xbdb29437	-0.08719676
103	0x3ca12523	0.019671028
104	0xbdd03d5d	-0.10167954
105	0x3d0508b2	0.032478996
106	0xbd9571fb	-0.07297131
107	0xbddf4630	-0.10902059
108	0xbbb15941	-0.005412251
109	0xbde36b23	-0.11104419
110	0x3d595177	0.053056207
111	0xbdfbebbe	-0.12300824
112	0x3e08217c	0.13294023
113	0xbb3df3cf	-0.0028984433
114	0x3ccb5916	0.024822753
115	0xbddc32d1	-0.1075188
116	0x3d52e03f	0.05148339
117	0x3db88620	0.09009957
118	0xbd8d8e04	-0.06911853
119	0x3c69d0f2	0.014271008
120	0x3dcb7f1c	0.099363536
121	0xbdc8af5c	-0.09799072
122	0xbd79430b	-0.060854953
123	0x3c40e3d7	0.011773071
124	0xbd9115b7	-0.0708422
125	0xbdaa113d	-0.08304069
126	0xbdec544f	-0.11539518
127	0xbd3cc7e3	-0.046089064
128	0x3df5186b	0.11967548
129	0x3d469aa9	0.04848734
130	0xbc55308c	-0.013012063
131	0x3cf0e252	0.029404793
132	0x3e044bcf	0.12919544
133	0x3dd9cd07	0.10634809
134	0x3d1257c5	0.035728235
135	0xbd66d1bb	-0.05635236
136	0x3c038cbb	0.008029158
137	0x3d9f9262	0.07791592
138	0xbd66d4e7	-0.056355383
139	0x3de740c0	0.11291647
140	0xbd057c88	-0.032589465
141	0xbdda1bf0	-0.1064986
142	0x3b9cac9a	0.004781318
143	0xbbf665fa	-0.007519481
144	0x3cd12220	0.025528967
145	0xbc86d827	-0.016460491
146	0xbd8cf721	-0.068830736
147	0x3c7034d2	0.014661031
148	0x3cd80d01	0.026373388
149	0x3d4ef7b6	0.050529204
150	0xbde56cba	-0.112023786
151	0x3d9dd524	0.07706669
152	0x3ce2ca3f	0.02768433
153	0xba7369e7	-0.0009285495
154	0x3df099a3	0.11748054
155	0xbdd26536	-0.10273211
156	0xbb0145bd	-0.0019725405
157	0x3be49e49	0.006976877
158	0x3dcd77d3	0.1003262
159	0xbdca70ce	-0.09884797
160	0xba16e5e5	-0.0005756303
161	0xbc298436	-0.010346463
162	0x3d82dddc	0.063899726
163	0x3dad2b7c	0.084555596
164	0xbd224e12	-0.039625235
165	0x3d34a35d	0.044101108
166	0xbdb6b792	-0.08921732
167	0x3da5fed6	0.08105247
168	0xbddc9c65	-0.107720174
169	0xbdf76271	-0.12079323
170	0x3d1518b8	0.036400527
171	0xbd0135ed	-0.03154557
172	0x3cec7928	0.028866366
173	0xbdf1d002	-0.118072525
174	0xbd6ba93b	-0.057534438
175	0xbdb15fff	-0.08660888
176	0x3d81d54b	0.063395105
177	0x3db52de2	0.08846642
178	0xbde7b2dc	-0.113134116
179	0xbd053d1d	-0.032528985
180	0x3d5c7e63	0.05383147
181	0x3de6bf1a	0.112669185
182	0x3ba5bb0d	0.0050576986
183	0xbce52fa2	-0.027976815
184	0xbdf33fb4	-0.11877385
185	0xbdb6ea99	-0.08931465
186	0x3df50404	0.119636565
187	0x3db77da1	0.08959509
188	0xbde3b522	-0.11118533
189	0x3d0e7ed4	0.03478892
190	0x3c042dfe	0.008067606
191	0x3d327256	0.04356607
192	0x3c4b07de	0.012392012
193	0x3d8a021f	0.06738686
194	0xbca852ed	-0.020547355
195	0xbccd6c5a	-0.02507608
196	0xbcd67de6	-0.02618308
197	0xbdd8216f	-0.10553252
198	0x3d10222c	0.03518884
199	0x3defa20a	0.117008284
200	0xbd1fe1bf	-0.039033648
201	0x3cd215e5	0.025645206
202	0x3d3c41d8	0.04596123
203	0x3d622f00	0.055220604
204	0xbdcb84f7	-0.099374704
205	0xbd5512e0	-0.052019954
206	0x3d7ab2c5	0.061205644
207	0xbc042db3	-0.008067536
208	0xbd35081a	-0.04419718
209	0xbdf46ecb	-0.119351946
210	0x3c3aa776	0.011392465
211	0x3d6a19aa	0.05715338
212	0x3d0ae58b	0.033910315
213	0x3bb71801	0.0055875783
214	0xbd46971b	-0.04848395
215	0x3c4fe3a0	0.012688547
216	0xbc382444	-0.011239115
217	0x3e00d297	0.12580334
218	0x3dfbd19e	0.12295841
219	0xbdaa432b	-0.083135925
220	0xbac26110	-0.0014829952
221	0x3db0cea3	0.08633163
222	0xbd3bb554	-0.045827225
223	0xbb93f3a1	-0.004515127
224	0xbd452624	-0.048132077
225	0xbd6c8027	-0.057739403
226	0xbd8125e4	-0.06306055
227	0xbdde994f	-0.10869085
228	0xbdf37656	-0.11887805
229	0x3dd06bcb	0.1017681
230	0x3d66e780	0.05637312
231	0x3dcd9a48	0.100391924
232	0xbc73901d	-0.014865902
233	0xbd53ae17	-0.051679697
234	0xbc3afbf3	-0.011412608
235	0xbccb32e9	-0.02480455
236	0x3da6aeb0	0.08138788
237	0x3d50ca0e	0.050973944
238	0xbc8f20ef	-0.017471759
239	0xbad665f4	-0.0016357289
240	0xbca692aa	-0.020333607
241	0x3d6b4b2d	0.05744474
242	0x3dc257d5	0.09489409
243	0x3d6d74e2	0.057972796
244	0xbdd67db2	-0.10473193
245	0xbdbd8cf6	-0.09255402
246	0x3d4f4872	0.0506062
247	0xbd7b26d4	-0.061316326
248	0xbd762c5c	-0.0601009
249	0xbd8f3c81	-0.06993962
250	0xbd773ae7	-0.060358908
251	0xbdbf9b2c	-0.093557686
252	0xbdf97ffc	-0.12182614
253	0x3dd456e6	0.10368137
254	0x3d395f39	0.045256827
255	0xbdb4e534	-0.088327795

attn_layers.layers.1.0.0.weight f4 [74]
0	0x3f7eeeb9	0.9958301
1	0x3f7fad89	0.9987417
2	0x3f7b7956	0.9823202
3	0x3f80cfa5	1.0063368
4	0x3f7fb751	0.99889094
5	0x3f7ec09d	0.99512655
6	0x3f7acad4	0.9796574
7	0x3f8089e6	1.0042083
8	0x3f7ed658	0.9954581
9	0x3f80fdf6	1.0077503
10	0x3f7b7369	0.98222977
11	0x3f7ffe54	0.9999745
12	0x3f801fda	1.000972
13	0x3f7e1f0e	0.99266136
14	0x3f823f1d	1.0175511
15	0x3f7ea9ed	0.99478036
16	0x3f7f84ff	0.9981231
17	0x3f7ecfe9	0.99535996
18	0x3f7ffdac	0.9999645
19	0x3f800756	1.0002239
20	0x3f7f4d54	0.9972737
21	0x3f8030b8	1.0014868
22	0x3f80ebd2	1.0071967
23	0x3f7fee68	0.99973154
24	0x3f7f579f	0.99743074
25	0x3f81b903	1.0134586
26	0x3f827ae2	1.0193751
27	0x3f824dd7	1.0180005
28	0x3f8050bf	1.0024642
29	0x3f80a1bf	1.0049361
30	0x3f80bda0	1.0057869
31	0x3f8009f5	1.0003039
32	0x3f80aa58	1.0051985
33	0x3f7faddb	0.9987466
34	0x3f807e4b	1.0038542
35	0x3f80fa71	1.0076429
36	0x3f80ea8c	1.0071578
37	0x3f80cbd9	1.0062209
38	0x3f7f044a	0.9961592
39	0x3f7d9f29	0.99070984
40	0x3f806a30	1.0032406
41	0x3f7fe660	0.999609
42	0x3f809114	1.0044274
43	0x3f7ecaa2	0.99527943
44	0x3f7c27e5	0.98498374
45	0x3f7f1670	0.9964361
46	0x3f7cfd06	0.98823583
47	0x3f7e2d2a	0.99287665
48	0x3f8074b7	1.0035619
49	0x3f7cbf0d	0.9872902
50	0x3f817d45	1.0116354
51	0x3f7da748	0.99083376
52	0x3f7e1876	0.99256074
53	0x3f7f8191	0.9980708
54	0x3f8010a0	1.0005074
55	0x3f7e6618	0.9937453
56	0x3f7f721a	0.9978348
57	0x3f8058d5	1.0027109
58	0x3f7eec87	0.9957966
59	0x3f80e2d5	1.0069224
60	0x3f805079	1.0024558
61	0x3f814bf5	1.0101305
62	0x3f7ecb36	0.99528825
63	0x3f80f9ed	1.0076271
64	0x3f7e24ef	0.99275106
65	0x3f7dc770	0.9913244
66	0x3f803a19	1.001773
67	0x3f80cc96	1.0062435
68	0x3f80fa88	1.0076456
69	0x3f7fefde	0.99975383
70	0x3f7fa4f9	0.99861103
71	0x3f7f720e	0.9978341
72	0x3f809782	1.0046237
73	0x3f7e8add	0.9943064

attn_layers.layers.1.0.0.bias f4 [74]
0	0xbb311f60	-0.0027026758
1	0xbb0f3f5a	-0.0021857829
2	0xbc07fd1c	-0.008300092
3	0x3b72f16d	0.003707017
4	0x3ba4d489	0.005030219
5	0xbb8729ca	-0.0041248547
6	0x3afdce90	0.0019363929
7	0xbbc7facb	-0.006102895
8	0x3ba80f27	0.0051287594
9	0x3b814039	0.0039444235
10	0x3c711224	0.014713798
11	0x3b83f963	0.004027532
12	0x3b1bf83d	0.0023799085
13	0x3ba3e2d0	0.0050014034
14	0x3b0e2343	0.0021688498
15	0x3bf13e03	0.0073621287
16	0xba229d09	-0.00062032096
17	0xbbd1e8ba	-0.006405917
18	0xbbd5f8a8	-0.0065298863
19	0x3ba14ef3	0.0049227416
20	0xbb6d8dbf	-0.0036247817
21	0xbb6a1488	-0.0035717804
22	0x3a7627e4	0.00093900994
23	0xbb73113c	-0.003708913
24	0x3c19a662	0.009378048
25	0xba17553e	-0.0005772895
26	0x3b571bc6	0.003282295
27	0xbb94b59f	-0.0045382525
28	0x3c533b0b	0.012892495
29	0x3acee7b4	0.0015785606
30	0x3aad5cf8	0.0013226559
31	0x3b64da8d	0.0034920305
32	0x3b3dc5a7	0.0028956921
33	0x3b820b47	0.0039686295
34	0x3b6daed1	0.0036267529
35	0x3b7fc6f4	0.0039028497
36	0xba1efabb	-0.00060645834
37	0x3a8164ff	0.0009872018
38	0x3b380ea0	0.002808489
39	0x3a870e27	0.00103039
40	0x3afb082f	0.0019152219
41	0xbbf1f7db	-0.007384283
42	0x3b028ecf	0.0019921546
43	0x3caf6a58	0.021413013
44	0xbb370201	-0.0027924778
45	0x3b29db60	0.0025918111
46	0x3b85afd0	0.0040797964
47	0x3bcb697e	0.006207644
48	0x3bfc4c07	0.007699493
49	0xbc276afe	-0.01021838
50	0x3b216381	0.002462596
51	0x3bdca974	0.0067340676
52	0x3bebf14f	0.007200397
53	0xbb0e0419	-0.0021669923
54	0x3b937874	0.004500443
55	0x3b858c74	0.004075581
56	0x3aa42b85	0.0012525177
57	0xbbceb04c	-0.0063076373
58	0xbb93f23e	-0.0045149615
59	0x3ba8a306	0.005146387
60	0xbb410668	-0.0029453281
61	0xbc65cea4	-0.014026318
62	0xbbcc2544	-0.0062300283
63	0x3b2a784e	0.0026011649
64	0xbc06d26a	-0.008228878
65	0xbb924cf2	-0.004464739
66	0xbc07ab0e	-0.008280529
67	0xba812a28	-0.0009854482
68	0x3a92bc07	0.0011194953
69	0xbb9e6a93	-0.004834482
70	0xbc1152f3	-0.008869874
71	0xbc530ed7	-0.012881956
72	0xbad0b838	-0.0015924042
73	0xbc101e01	-0.008796216

attn_layers.layers.1.1.ff.0.0.weight f4 [296, 74]
0	0x3dd215e8	0.102580845
1	0x3d6c52aa	0.057696022
2	0x3c9e9056	0.019355934
3	0x3d8ec476	0.06971066
4	0x3ddfc0ad	0.10925422
5	0x3ce23750	0.027614266
6	0xbda8344b	-0.08213099
7	0x3da303a6	0.0795968
8	0x3dbe5984	0.092944175
9	0xbca8a108	-0.020584598
10	0x3d4e1b4f	0.050319012
11	0xbdacff5f	-0.08447146
12	0x3cfa5b21	0.030561032
13	0xbc5c93b4	-0.01346295
14	0x3cb5b0a0	0.022178948
15	0xbd1f1f0f	-0.03884798
16	0x3dd8ec26	0.10591917
17	0x3ce819e8	0.028332666
18	0xbc9001c1	-0.017578961
19	0x3cadca0b	0.021214506
20	0x3d30aeed	0.043135572
21	0xbcff1964	-0.031140037
22	0xbd95937d	-0.07303522
23	0xba2bd0ad	-0.00065542274
24	0xbdcedd54	-0.10100809
25	0x3d0beff4	0.034164384
26	0x3dcf551b	0.101236545
27	0xbdbe2d95	-0.09286038
28	0x3d405fa6	0.046966217
29	0xbd14b942	-0.036309488
30	0x3c974b6d	0.018468583
31	0xbca44566	-0.020052623
32	0x3dbe7363	0.09299352
33	0x3dd20384	0.10254577
34	0xbde23362	-0.11044957
35	0xbde5f6d2	-0.11228718
36	0x3dab9859	0.083786674
37	0xbcd844f0	-0.02640006
38	0x3cbb2119	0.02284293
39	0x3c8a7d6d	0.01690551
40	0x3da3de62	0.080014005
41	0xbb15118c	-0.0022746054
42	0xbc87ffc1	-0.016601445
43	0x3d9f9271	0.07791603
44	0xbcf24994	-0.0295761
45	0x3d1ad083	0.03779651
46	0x3dcbd06d	0.099518634
47	0xbd7dde25	-0.06197943
48	0xbd706b0f	-0.05869585
49	0xbd8acff6	-0.06777947
50	0x3dd5228a	0.104069784
51	0x3da257f1	0.0792693
52	0x3d313709	0.043265376
53	0x3cdbef31	0.026847454
54	0xbd4e7a88	-0.050409824
55	0x3daa845a	0.08326025
56	0xbc029a33	-0.007971334
57	0x3ce833b4	0.028344966
58	0x3d7f8ab5	0.06238814
59	0xbd137a44	-0.036005273
60	0x3dc05184	0.09390548
61	0x3dbf903f	0.09353685
62	0x3d21af1c	0.039473638
63	0xbd377f91	-0.04479939
64	0xbdd5d814	-0.10441604
65	0xbdabb391	-0.08383859
66	0xbd923447	-0.07138877
67	0xbdec220c	-0.115299314
68	0x3dcd49d8	0.1002385
69	0xbdec1cc5	-0.11528925
70	0xbdd369e7	-0.10322934
71	0xbdb93fab	-0.09045347
72	0xbd5540ac	-0.05206363
73	0xbc831fc3	-0.016006356
74	0x3d81326c	0.06308445
75	0xbcc54063	-0.024078554
76	0xbddcca41	-0.10780764
77	0xbd2003f6	-0.039066277
78	0xbd750ec0	-0.05982852
79	0x3cb4ba92	0.02206162
80	0x3c9d28e0	0.01918453
81	0xbdb4f6e5	-0.08836154
82	0x3c85adcc	0.016318224
83	0xbdc0cfc7	-0.094146304
84	0x3d90fe84	0.07079795
85	0xbd9583f8	-0.07300562
86	0xbdd471c2	-0.1037326
87	0xbbcb28e0	-0.006199941
88	0xbdc3cacd	-0.095601656
89	0xb99b0533	-0.00029567778
90	0xbd5aae8c	-0.053389117
91	0x3c9c6be4	0.019094415
92	0x3c1ef709	0.009702452
93	0xbddb4ebc	-0.10708377
94	0xbdc7446a	-0.09729846
95	0x3dd4fa7a	0.10399337
96	0xbde70dd1	-0.11281932
97	0xbd0d7781	-0.034537796
98	0xbd172a79	-0.03690574
99	0xbd51c32a	-0.051211514
100	0x3dba1fe6	0.090881154
101	0x3b357475	0.0027687822
102	0x3cb603ad	0.02221855
103	0xbbafbe5b	-0.0053632683
104	0xbdc703d2	-0.097175255
105	0x3dbef458	0.093239486
106	0xbd49582d	-0.049156357
107	0xbdabd34c	-0.08389911
108	0x3da0e652	0.0785643
109	0xbd9da87d	-0.07698152
110	0x3def53d0	0.11685908
111	0x3cb595f8	0.022166237
112	0x3d34632a	0.044039883
113	0xbda4f376	-0.08054249
114	0x3de87591	0.11350549
115	0x3d879ac5	0.06621317
116	0xbc2dcc1c	-0.0106077455
117	0x3ce54a54	0.027989544
118	0x3d19a107	0.037507083
119	0x3d9f7b13	0.077871464
120	0x3d821a7e	0.06352709
121	0x3d6d0ee2	0.05787552
122	0xbdbd8437	-0.092537336
123	0x3bc2a700	0.005940318
124	0xbd406979	-0.046975587
125	0x3d9ad99d	0.07561038
126	0xbd7557f3	-0.059898328
127	0x3d111fb6	0.035430633
128	0xbd24985a	-0.040184356
129	0x3b626e3d	0.003455057
130	0x3c91d96b	0.017803868
131	0xbd1134e3	-0.035450827
132	0x3d85ce51	0.06533492
133	0x3cc7179d	0.024303252
134	0x3d8a6507	0.06757551
135	0xbcc6aa2a	-0.024251062
136	0xbd099bea	-0.033595957
137	0xbc1ec723	-0.009691033
138	0xbd32bb69	-0.04363576
139	0xbda26f3c	-0.079313725
140	0x3ccbb1fa	0.02486514
141	0x3dea950d	0.114542104
142	0x3c56652a	0.013085643
143	0xbd9b485e	-0.07582162
144	0x3a63be78	0.0008687745
145	0x3dd25c4d	0.10271511
146	0xbdb6062d	-0.08887897
147	0x3d5b79d2	0.053582974
148	0x3d657896	0.056023203
149	0xbd294686	-0.041327022
150	0xbbf562e7	-0.0074885967
151	0x3ccce387	0.025010837
152	0xbde975ae	-0.11399399
153	0xbd1f5680	-0.038900852
154	0xbdbb5c6b	-0.09148487
155	0x3dde2a9d	0.108479716
156	0x3d8885f0	0.066661716
157	0xbbad67da	-0.005291921
158	0x3c1c15a9	0.009526649
159	0xbd856baa	-0.06514676
160	0xbd2f3264	-0.042772666
161	0xbdf60951	-0.12013496
162	0xbd7b2534	-0.061314777
163	0x3dc1dd84	0.09466079
164	0x3d9adbaf	0.075614326
165	0xbd78f37f	-0.06077909
166	0xbda56237	-0.080753736
167	0xbdcbc697	-0.099499874
168	0xbb130819	-0.0022435247
169	0x3d931a51	0.07182754
170	0x3dc8c270	0.09802711
171	0xbce43a50	-0.027859837
172	0xbd8f508c	-0.06997785
173	0x3de6e679	0.11274428
174	0x3ba901cc	0.005157685
175	0xbcd1502e	-0.025550928
176	0x3dcce64e	0.10004865
177	0x3dde2204	0.10846332
178	0x3d6d46c5	0.05792882
179	0xbd2f2640	-0.042761087
180	0xbd594dae	-0.053052597
181	0xbdc6d63b	-0.0970883
182	0x3d953bc3	0.07286789
183	0x3dbfe5da	0.093700126
184	0xbd27ea4c	-0.040994927
185	0xbd562e37	-0.052290168
186	0x3d967103	0.07345774
187	0xbd6e26da	-0.05814252
188	0x3ba0adfb	0.0049035526
189	0x3d98bed5	0.07458273
190	0x3b1ccc0f	0.002392534
191	0xbb80c35a	-0.0039295377
192	0x3d4eb8fd	0.050469387
193	0xbd02f21b	-0.03196917
194	0x3c42195e	0.011846868
195	0xbd1e8b23	-0.03870691
196	0x3c397db8	0.011321478
197	0xbce8e0e3	-0.028427547
198	0xbd06c3c1	-0.03290153
199	0x3dd4b6c7	0.103864245
200	0xbd4cab09	-0.0499678
201	0x3de2a1d6	0.11066024
202	0x3da7a4d1	0.08185733
203	0xbdae8710	-0.08521855
204	0xbd91d47f	-0.071206085
205	0x3ba15296	0.004923175
206	0x3d497b8d	0.049190093
207	0x3daf935d	0.08573029
208	0xbc9f3c70	-0.019437999
209	0xbb4f9d8e	-0.0031679603
210	0x3d841dd6	0.06451003
211	0x3d11ba84	0.035578266
212	0x3dcba51b	0.09943601
213	0x3cac1b8d	0.021009231
214	0xbdec5a93	-0.11540713
215	0xbd28e035	-0.041229445
216	0xbdc7d1df	-0.097568266
217	0xbdd7acb1	-0.10530985
218	0x3ce8247a	0.028337706
219	0xbd940295	-0.07227055
220	0xbd12d603	-0.03584863
221	0xbd882e4f	-0.06649458
222	0x3dacda91	0.08440126
223	0x3d347ad2	0.044062443
224	0x3d523657	0.051321354
225	0x3ca8d997	0.020611567
226	0xbbc4adfe	-0.006002187
227	0x3d7e5d24	0.062100545
228	0x3d4765b9	0.048680995
229	0xbda2b181	-0.079440124
230	0x3cac83cb	0.021058938
231	0xbd3c3e77	-0.04595801
232	0x3da92b69	0.08260233
233	0xbda15e34	-0.07879296
234	0x3dbf3dc3	0.09337952
235	0xbd82e946	-0.063921496
236	0x3ca7806e	0.020446982
237	0x3d89c17d	0.06726358
238	0xbd1c2620	-0.038122296
239	0x3dab8885	0.083756484
240	0xbd9a8b43	-0.07546093
241	0xbd287046	-0.041122697
242	0x3dd47450	0.10373747
243	0x3de3f010	0.11129773
244	0xbd9b87a2	-0.07594229
245	0x3cdd34b5	0.027002672
246	0xbddf16b4	-0.10893002
247	0xbdd39b37	-0.10332339
248	0x3db5b37e	0.08872126
249	0x3d015edf	0.031584617
250	0xbd84e77b	-0.06489464
251	0xbb2a2ce1	-0.0025966691
252	0xbb9e3d40	-0.004829079
253	0x3d75146f	0.05983394
254	0xbd10614b	-0.035249036
255	0x3d4b5055	0.049637157

attn_layers.layers.1.1.ff.0.0.bias f4 [296]
0	0x3cfdbf3c	0.030974977
1	0x3d900b0e	0.070333585
2	0xbde94afc	-0.11391255
3	0x3d88fa6f	0.066883914
4	0x3bda62c6	0.0066646067
5	0x3dd1bd6c	0.102412075
6	0x3d525e3e	0.051359408
7	0xbdb9dcf9	-0.0907535
8	0x3db3f32c	0.08786616
9	0xbdac9dcf	-0.08428537
10	0x3dea9934	0.114550024
11	0xbde63931	-0.11241377
12	0xbd68574c	-0.056723878
13	0x3d90e699	0.07075233
14	0xbd30a737	-0.04312822
15	0xbd9b364c	-0.07578716
16	0xbca893c7	-0.020578278
17	0x3c1c0e47	0.009524888
18	0xbdd2f4f0	-0.10300624
19	0x3cd0f0cf	0.025505451
20	0xbdd6d09b	-0.10489007
21	0x3d8bbd20	0.06823182
22	0xb9ce4cb1	-0.0003934852
23	0x3cc821f6	0.024430256
24	0xbdc80d8e	-0.0976821
25	0xbd524d4f	-0.05134326
26	0xbc9fea2c	-0.019520842
27	0x3ddf9fa3	0.1091912
28	0xbbc62aff	-0.006047606
29	0x3df262ce	0.11835252
30	0xbde93965	-0.113879
31	0xbdadc971	-0.084856875
32	0xbd81f2e7	-0.06345158
33	0x3d2cb4d8	0.042164654
34	0x3d2701e9	0.040773306
35	0xbd3695f7	-0.04457661
36	0x3d8ddfd7	0.0692746
37	0xbd9ef455	-0.077614464
38	0xbc254f39	-0.010089689
39	0x3dd6b195	0.1048309
40	0xbb9cd6d2	-0.0047863508
41	0xbdbd987c	-0.092576
42	0x3dcc8480	0.0998621
43	0xbce8487f	-0.028354881
44	0xbd9000bb	-0.07031389
45	0x3d41dfc4	0.04733254
46	0xbd391fcb	-0.045196336
47	0xbde411b8	-0.11136192
48	0xbd0d7c64	-0.034542456
49	0xbd8b05b8	-0.067882
50	0x3b80b765	0.0039281123
51	0xbbedbe1e	-0.0072553298
52	0x3d2d3434	0.042286113
53	0x3d13c969	0.03608075
54	0xbd946719	-0.07246227
55	0xbdd831a9	-0.10556347
56	0xbc227a89	-0.00991691
57	0xbcd829d6	-0.026387136
58	0x3d9d9fb9	0.0769648
59	0xbde794e7	-0.11307698
60	0xbd8f3230	-0.069919944
61	0x3d522415	0.05130394
62	0xbd0e997c	-0.034814343
63	0xbd540254	-0.051760033
64	0x3c3c5c57	0.011496625
65	0x3d1d9b66	0.038478278
66	0xbd97878c	-0.073989004
67	0xbcb00171	-0.021485062
68	0xbd215b47	-0.03939369
69	0xbd172e96	-0.036909662
70	0x3da95aed	0.08269296
71	0xbdd2ac62	-0.10286786
72	0xbdc9770e	-0.09837161
73	0x3d6744cf	0.056462105
74	0x3c8c1320	0.017098963
75	0x3daf5ed9	0.08563013
76	0xbde3364b	-0.1109434
77	0xbd584818	-0.05280313
78	0xbd9be5e5	-0.07612208
79	0xbda3c9da	-0.079974845
80	0x3d31429f	0.043276425
81	0xbd655f8b	-0.05599932
82	0x3d426ff9	0.047470067
83	0xbdd823c3	-0.10553696
84	0x3b1eaa9b	0.0024210576
85	0x3c3069fc	0.010767456
86	0x3c001c3e	0.007819233
87	0x3c80c136	0.01571713
88	0xbd8ae547	-0.067820124
89	0xbdf46a17	-0.119342975
90	0x3d36dbbf	0.04464316
91	0x3c177b48	0.009245701
92	0x3dda4108	0.10656935
93	0xbcf588fa	-0.029972542
94	0x3da65dda	0.081233695
95	0xbd0cf248	-0.034410745
96	0x3bbc050a	0.0057379054
97	0xbc4b5ecc	-0.012412738
98	0xbc4d7c69	-0.012541869
99	0x3d2ecf81	0.04267836
100	0xbde3a238	-0.11114925
101	0x3d81ca13	0.06337371
102	0x3c1ffbd7	0.009764633
103	0xbd6b7ee2	-0.05749405
104	0x3da6aeb6	0.08138792
105	0xbcabd15a	-0.02097385
106	0xbcf16ad8	-0.029469892
107	0xbc360cbb	-0.011111434
108	0xbcc29095	-0.023750583
109	0x3d35b528	0.044362217
110	0xbb928277	-0.004471119
111	0x3dd5c18d	0.104373075
112	0xbb7f1784	-0.0038923929
113	0xbda9f72f	-0.082991
114	0x3d84c147	0.06482177
115	0x3dbb3832	0.09141578
116	0x3bf6cc35	0.0075316676
117	0x3ddd2c91	0.10799516
118	0x3c9b49b0	0.018956035
119	0xbc9aac3e	-0.01888096
120	0x3cea3242	0.028588418
121	0xbd43fd31	-0.047848884
122	0x3d3b9d7e	0.045804493
123	0xbcbfe552	-0.023424778
124	0xbdc4b7a9	-0.09605343
125	0x3dcf8837	0.10133403
126	0xbdc38437	-0.09546702
127	0xbd37e26d	-0.04489367
128	0x3dba52f0	0.0909785
129	0xbd2d40c5	-0.042298097
130	0x3d959701	0.07304192
131	0xbd5017b3	-0.05080385
132	0x3a498621	0.0007687528
133	0xbd3a2636	-0.045446597
134	0xbd014844	-0.03156306
135	0x3d410fed	0.04713433
136	0x3d50bed6	0.050963245
137	0x3d9b5222	0.07584025
138	0xbcd2dc66	-0.02573986
139	0x3ccc3025	0.0249253
140	0x3ddd6f0a	0.10812195
141	0x3cbd9e8b	0.023146888
142	0xbdeb15a9	-0.11478741
143	0xbd646d35	-0.05576821
144	0xbcc2e077	-0.023788674
145	0xbdcb2069	-0.09918291
146	0x3dd65c3e	0.104668126
147	0xbcfe1d5c	-0.031019859
148	0x3c98dc4b	0.018659731
149	0x3d1d6ad9	0.038431976
150	0xbd8f926d	-0.070103504
151	0x3cfb3862	0.030666534
152	0x3db730ba	0.08944841
153	0xbd2ae712	-0.041724272
154	0xbdcda7dc	-0.10041782
155	0xbde65195	-0.11246029
156	0x3d0801ef	0.03320497
157	0xbd021271	-0.03175587
158	0x3de1cb47	0.110251
159	0x3c8ca025	0.017166207
160	0xbdbde7c6	-0.09272723
161	0xbdc96c21	-0.09835077
162	0x3ce42e6b	0.027854165
163	0x3d049ad0	0.032374203
164	0x3c17346b	0.009228806
165	0x3dde86fb	0.10865589
166	0x3d910dc7	0.07082706
167	0xbdcb5235	-0.09927789
168	0x3dead83d	0.114670254
169	0xbd4df0b3	-0.050278377
170	0xbd315149	-0.04329041
171	0x3d751921	0.059838418
172	0x3dbd2124	0.09234837
173	0x3d09ac3f	0.033611532
174	0x3bc16358	0.0059017353
175	0xbcfe2a60	-0.031026065
176	0x3b7476b1	0.003730219
177	0xbde767c7	-0.11299091
178	0x3d1d56aa	0.038412727
179	0xbd8b1cfd	-0.067926385
180	0xbdb82e9d	-0.08993266
181	0xbd371f76	-0.044707738
182	0xbc296c8b	-0.01034082
183	0xbd30ff6e	-0.043212347
184	0x3da25eff	0.07928275
185	0xbdca629c	-0.098820895
186	0xbdcc9c5c	-0.09990761
187	0xbd2dbe25	-0.042417664
188	0x3dce315c	0.10068008
189	0xbd59d0bd	-0.053177584
190	0xbb2a0e87	-0.00259486
191	0x3bc61bd9	0.0060458
192	0x3be8fee0	0.0071104616
193	0x3be9325c	0.007116599
194	0x3dcfb14e	0.1014124
195	0x3b321493	0.0027172908
196	0x3d9a6dc8	0.0754047
197	0x3dbf8dbf	0.09353208
198	0xbd0c8896	-0.034309946
199	0xbccefed9	-0.025268005
200	0x3d5822a7	0.052767422
201	0x3d15d009	0.03657535
202	0x3c0434a9	0.008069196
203	0x3de101a3	0.1098664
204	0x3d560bde	0.05225741
205	0xbd97734e	-0.073950395
206	0x3d6db807	0.05803683
207	0xbcb50ea9	-0.022101717
208	0xbdd7d16f	-0.10537993
209	0x3dd85697	0.10563391
210	0x3d7ed215	0.06221207
211	0x3c8ed980	0.017437696
212	0xbd587d94	-0.052854136
213	0x3c0fee12	0.008784788
214	0x3c7656bf	0.01503533
215	0xbd0c19fa	-0.03420446
216	0xbc8d16e2	-0.017222825
217	0x3cb3ca78	0.02194713
218	0xbdb8dbe2	-0.09026314
219	0xbd047928	-0.032342106
220	0x3dad3399	0.08457107
221	0xbc7b7eb1	-0.01535003
222	0x3dd8ed4c	0.10592136
223	0xbdc4e531	-0.09614027
224	0xbc8fe2e1	-0.017564239
225	0x3d63c4ba	0.055607535
226	0xbc65ed1e	-0.014033584
227	0xbcbf4abe	-0.02335107
228	0x3dac100a	0.08401497
229	0xbd226365	-0.03964557
230	0x3ce34ed5	0.027747551
231	0xbd37fd1c	-0.04491912
232	0xbd663a3c	-0.05620788
233	0x3d49a3e2	0.049228556
234	0x3c8664ed	0.016405547
235	0xbdc63afc	-0.09679219
236	0xbd89123d	-0.06692932
237	0xbdb77d52	-0.0895945
238	0x3c1ef64e	0.009702278
239	0xbae2273f	-0.0017254128
240	0xbc9be851	-0.019031676
241	0x3de4b0b7	0.11166518
242	0x3db3a3c3	0.087714694
243	0xbdc7a67f	-0.097485535
244	0xbcb0e275	-0.021592358
245	0x3d131616	0.035909735
246	0xbdcc1ae3	-0.09966066
247	0xbdb9f055	-0.09079043
248	0x3dcef85c	0.101059645
249	0x3d8cd043	0.0687566
250	0x3d6a0dff	0.057142254
251	0xbd9b1d6a	-0.0757397
252	0xbd1a7554	-0.03770955
253	0x3d86cd74	0.06582156
254	0x3c7ee6a4	0.015557919
255	0x3d51bf64	0.051207915
