ipnets_output/split_3/checkpoint.pt (torch, 71458 bytes, 12 tensors)

single_channel_interp.kernel f4 [37]
00000000: 10ac 73be 49e8 c4bd 043d ad3d 8cc1 bd3c
00000010: 385b 313d 4251 9fbe 41f8 39be 79cb be3e
00000020: 0c5b 30be a24b aa3d 2740 2c3d f460 87be
00000030: 3c4d e2bd c61a 69be 80db d6bd 302b 63be
00000040: ab7d c43d 74e6 80be be58 003e aa92 9cbb
00000050: d623 973d f10a 51bd d086 b4bd 109d 64bd
00000060: 699b 75be 96a3 40be 9212 2a3c 2f9c 65be
00000070: 2290 313a 7f12 0e3e b48e aa3d 01ce 973d
00000080: 8250 b03e e1cc d93d f31e 293e 84c4 27bd
00000090: cef1 fc3a
-0.23796105 -0.096146174 0.084589034 0.02316358 0.043299884 -0.31116682 -0.18161108 0.37264612
-0.17222232 0.08315207 0.042053368 -0.26441157 -0.110498875 -0.2276412 -0.10491085 -0.22184443
0.09594282 -0.25175822 0.12533852 -0.004778226 0.07379882 -0.051035825 -0.08814776 -0.05581385
-0.23985066 -0.18812403 0.010380404 -0.2242286 0.00067734916 0.13874243 0.08328 0.07412339
0.34436423 0.10634781 0.16515712 -0.040958896 0.0019298138

cross_channel_interp.cross_channel_interp f4 [37, 37]
00000000: e5ae 823f 72e3 593d 75ce 16bd 28f5 4bbd
00000010: 24cb 643b dfa8 52bc 7e93 8bbb 6594 04bd
00000020: e05c b63b babf e83b 3c5f 433c 2566 3c3d
00000030: a952 603c 451a c9bc 2878 3c3c 5537 df3c
00000040: 5be8 03bd 76a0 2ebd 7c1d d93c e423 d2bc
00000050: 0d5e cebc 3acd c3bb c8e7 65bd ab84 23bc
00000060: 8fee 0d3c 259c 6ebc b9a6 633d 760b 113b
00000070: fae4 953d 0f00 023d 0a39 143b 10f1 b73d
00000080: 9cfb 65bd afac 763c 15b1 0bbd 2a4c 993c
00000090: 42d3 9ebc e8b7 12bd da68 6d3f ed4e 903c
000000a0: 5d0d db3d a0f1 2cbc 1d29 f43d 210c b33d
000000b0: 0380 89bd 999b 4b3d ad67 fe3c 5150 c73d
000000c0: 0928 67bd 18de 9d3d e703 ecbd 3225 82bd
000000d0: 5a2d ea3d 817c 833d 88d6 c73c ccda 45bd
000000e0: 0b12 25be ece8 e53d 51a9 c53d 31d8 103d
000000f0: 1b0a cbbc 7b7b d43d fb48 1fbd b5b5 a8bd
00000100: f583 ba3d 837f e03c 69c3 22bd 78e4 ecbb
00000110: f579 d1bd dad6 fcbd a52d 643d 3be9 eabd
00000120: 8e53 f33d bd64 9b3c 76a7 f13d 2ae7 d1bd
00000130: 6d28 6f3f 7ed8 563e e897 e03c 3ee3 eabd
00000140: 6b38 a6bd 7fed f13c 5eeb 673d 1a55 3f3d
00000150: 535a 2fbd b043 4c3d dbb6 1c3d 5ce9 01bd
00000160: 1f53 bdbd 57c1 7d3c 4337 263d 3d8d 0abe
00000170: 48c1 23bd e3fc 923d 3cf7 dbbc 041c 1f3e
00000180: 9c7c 2b3e 692d 543c 5b5d 12bd 349c d03d
00000190: 4ae7 0b3d 0dc6 c2bd e1e8 413b e802 383c
000001a0: 2158 ccba 6e3d 103e cfba 193d 0bac 12bd
000001b0: bbde 223c e89b 03be f41a ecba c021 8f3d
000001c0: 967f a6bd 08a1 303e cec0 6f3f e486 b93c
000001d0: bbc1 93bd 5efd 08bc 93f3 83bc 515c 513d
000001e0: 7a23 a53d dee4 023d 8ff1 b0bb b315 983d
000001f0: 6213 bbbd e559 5abd f52e 9f3d 1433 7d3d
00000200: 79d7 8fbc 4c4e 35bd bb0a 55bc 36db 10bd
00000210: 2c6a 1a3e 1741 ee3d 9bae 5cbc 6872 d23b
00000220: 41ac 123d 725a 19bb 2093 cdbd 0b36 ab3c
00000230: ff2c 8b3b d65c 0dbb 636b cb3d d3aa 643c
00000240: 3569 b8bb bdbd 15bd d1ea 66bd 37ab 86ba
00000250: 5232 b93d 7615 503c c3cd a83d 97ed 413d
00000260: 1ff5 8a3f 0e24 45be 669d 09be 375a 053e
00000270: fb43 2f3d 667f ab3c a31e 25be e1ae 5f3e
00000280: c005 94bd 807d 893d 44e1 41bd e2fb 0bbe
00000290: 350d 26bc 19aa 9cbd a0b4 073e fbbe 473e
000002a0: c2f2 66bd 6f75 6e3d 7c2a ed3d ddc1 b73d
000002b0: 2681 5bbd 69cf 1f3b 77bc 253e c5f6 093c
000002c0: e6c3 32be e3b3 623d 08f8 be3d 9aac 413d
000002d0: 2040 463d ea1d 21bc b64c 213e 729a 08be
000002e0: 20b0 2cbe c4f7 24be 087b 913d 59a4 a63d
000002f0: 44f3 183e c7b1 26bd 57db 893f 7122 be3d
00000300: 0f03 88bd f8f6 ca3e 7218 07bc 6810 cd3d
00000310: 6200 9fbd 0269 f23c 4845 62be c380 243e
00000320: 79a2 473d cb78 4a3e 071d 0a3d efe2 a0bd
00000330: b67f cdbd 012a 7c3e 383c cdbd 9f2a d9bd
00000340: 13b4 10bc 9f82 a33d f678 ddbd 3d71 bbbd
00000350: c226 09be 76cf 01bd 57e1 1abd 3cea d3bd
00000360: 42cb 78be a07a 45bd b2dc f5bc 3270 1bbd
00000370: d3bb 043e 8dcd 453d d333 f2bd 9d06 ab3d
00000380: 88b2 1bbd a193 d73d ebc8 edbd bde8 383e
00000390: 609e 813f a8a2 99bd 75ac a73b e17c 253d
000003a0: 74ab 153e bbf5 43be fbf6 fc3c 644c 51be
000003b0: f53a 323d 9bbe 223e 3e11 45bd fb04 043e
000003c0: 48b4 9cbd e866 4bbe ed34 a63d e10a 133d
000003d0: af7c 8ebd 93a9 17be 7692 f23d a525 abbd
000003e0: 635d 0abe 5d92 19be a209 c43d 2018 debd
000003f0: 1bd3 9cbd 765c f7bd 17fa e6bd a862 0abd
1.0209624 0.053195424 -0.036817987 -0.049794346 0.003491112 -0.012857645 -0.004259526 -0.032368083
0.005565271 0.0071029337 0.011924561 0.04599585 0.013691583 -0.02454866 0.011503257 0.027248064
-0.032204013 -0.042633496 0.026503317 -0.02565188 -0.025191331 -0.0059753926 -0.056129247 -0.009980361
0.008662834 -0.014563595 0.05557892 0.0022132075 0.073190644 0.031738337 0.0022617006 0.08981526
-0.056148157 0.015055819 -0.034104425 0.018713076 -0.019387845 -0.035819918 0.92738116 0.01761576
0.10695908 -0.010555655 0.11921904 0.08742548 -0.067138694 0.049708936 0.031055296 0.09732116
-0.056434665 0.07708377 -0.11524182 -0.06354751 0.114344314 0.064202316 0.024394289 -0.048304364
-0.16120164 0.11226067 0.09651435 0.035362426 -0.024785092 0.103751145 -0.03888796 -0.08237783
0.091072 0.027404552 -0.03973714 -0.007229384 -0.102283396 -0.12345667 0.055707593 -0.114702664
0.11881171 0.018968934 0.11799519 -0.10249169 0.9342106 0.20981023 0.027416185 -0.11469124
-0.081162296 0.029532192 0.056620948 0.04671202 -0.04281075 0.04986924 0.038260322 -0.03171669
-0.0924437 0.01548799 0.040580045 -0.1353044 -0.03997925 0.071771406 -0.026851289 0.15538031
0.16746753 0.01295028 -0.035733562 0.101860434 0.03415612 -0.095104314 0.002958827 0.011231162
-0.0015590229 0.14085934 0.03753167 -0.035808604 0.009940798 -0.12852442 -0.0018013404 0.06988859
-0.08129804 0.17248929 0.9365357 0.022647329 -0.072146855 -0.008361189 -0.016107356 0.05111343
0.08063407 0.031956546 -0.00539989 0.07426014 -0.09134556 -0.053308386 0.07772628 0.06181629
-0.0175588 -0.044264123 -0.013003047 -0.035365306 0.15079564 0.11633509 -0.013469364 0.0064223297
0.035808805 -0.0023399857 -0.100378275 0.020899793 0.0042473073 -0.0021570227 0.09932592 0.013956743
-0.005627776 -0.0365579 -0.056376282 -0.0010274415 0.09042801 0.012700429 0.08242371 0.047345724
1.0856055 -0.19252035 -0.13438949 0.13022695 0.04278944 0.020934772 -0.16124968 0.21844055
-0.07227659 0.0671339 -0.04733397 -0.13670304 -0.010134985 -0.07649631 0.13252497 0.19506447
-0.056383856 0.058217462 0.11580369 0.08972523 -0.053589962 0.00243851 0.16185175 0.008420651
-0.17457542 0.055347335 0.09324652 0.047283746 0.048400998 -0.009833792 0.15751919 -0.13340166
-0.16864061 -0.1611014 0.071035445 0.081368156 0.14936548 -0.040696885 1.0770062 0.09283913
-0.066412084 0.39641547 -0.008245574 0.10012895 -0.07763745 0.029591087 -0.22096741 0.16064744
0.04873893 0.19772641 0.03371909 -0.07855784 -0.100341246 0.24625398 -0.100212514 -0.106038325
-0.008831996 0.07983898 -0.10814087 -0.09152458 -0.13393691 -0.03169199 -0.037812557 -0.10347411
-0.24296287 -0.048212647 -0.030012462 -0.037948795 0.12962274 0.04829173 -0.11826291 0.08350871
-0.038012058 0.10526205 -0.11610588 0.18057533 1.0126457 -0.07501727 0.005116994 0.040402297
0.14616185 -0.19136707 0.030879488 -0.20439297 0.043513257 0.15893023 -0.048112147 0.12892525
-0.076515734 -0.19863474 0.081155635 0.035899047 -0.06957375 -0.14810781 0.118443415 -0.083567895
-0.13512187 -0.1499724 0.0957215 -0.10844445 -0.07657453 -0.120781824 -0.112781696 -0.033785492

demo_encoder.0.weight f4 [32, 8]
00000000: b174 3d3e 1b74 a6be ac7a 6a3d 0b32 a4be
00000010: 7297 603d d732 ae3d 0866 24be 2bf1 813d
00000020: 748a d7bb 1cb0 613e 11b6 413e be4e 79be
00000030: a393 4d3e 79db b03e 78b7 dfbe 11bf 223e
00000040: 487f f8bc d83c 773d 8033 03bc 7c0a a63e
00000050: 0c9c a73d 09bc b2be bc39 463e 5edd 1abe
00000060: 462c 9fbe 94b5 633e bc6d 93bd 7d06 6fbe
00000070: 9f93 17be 6b2b 053d a1d3 b83e 4385 81bd
00000080: 559c 65bd 907a 0fbe 8042 aabe b515 723e
00000090: 51bd e53d db96 283e c55c 0cbe ec48 2bbe
000000a0: 9f36 d93e df2c 773d 280d 563e 6ed6 fdbd
000000b0: 36f9 723e 62ca 57bc e2b8 233d 11d9 673d
000000c0: 0972 eabe addb 8dba f454 253e b992 ad3e
000000d0: 3b7c 063e 85ee 0b3e 934a 703e c2dc 8b3e
000000e0: a904 923e e128 3a3e bf12 ea3c d175 a8be
000000f0: 2e7e cabe ccc5 2bbd 3fdd a1bd 76cb a93e
00000100: 8386 9fbe 24ed 2d3d cfa4 92bc ded0 463d
00000110: 3011 a13d 8d91 0b3f be67 b9be ce22 243d
00000120: 64a2 c13c c572 a6bd fea7 4a3e 8c3d 64be
00000130: f7b1 b7bd 699a 47be ee73 d03e 9c84 53be
00000140: f6be 5fbd 83da 5e3e e936 523e 6125 73be
00000150: 9fe2 c33c aac2 bb3e 9415 503e 8749 a9be
00000160: 31c6 83be cd7e 713e 74c6 153e fc53 27be
00000170: 391b 1fbe 4bb1 863e be66 7b3e 44de b8be
00000180: f057 273e 227d eabd 7efa bdbe 7825 fc3c
00000190: e8f9 c4be e09e 32bd b94e 86be 3698 c43e
000001a0: a749 be3e 95fc 913e 3db0 913d a5da 6a3e
000001b0: 799b 4e3d a197 3dbe 1d3e 31be b1c2 6f3e
000001c0: b1a5 3c3e db13 90be 120f a2be 655b 65be
000001d0: f131 7abe adf8 eb3d 166c 0f3e 6cf5 953e
000001e0: bcba 39be 5cbb 503e 7875 09be f393 33be
000001f0: 9a04 fbbd 10ad 85bd 5d2d f3bd 4192 d53e
00000200: 842d 2c3d 0920 6dbe f1a7 e63e 65ef b9bd
00000210: 61b9 cf3d 1113 b7bc 134a 783e a1b8 e23e
00000220: ae81 b8be 7935 73be cfea 4abe 1a20 74be
00000230: 8319 a5be 5ac3 363c e749 2fbe 4784 a2bc
00000240: 600c 703e 6263 d9bd e756 8e3e a0b3 c63e
00000250: 02ac 3b3e 4271 e13e 49ff 6bbe 6507 07be
00000260: c106 bcbc c813 6abe a0be 25be 8729 e33e
00000270: 37f2 d7be 7393 a13e 8561 f1bd 5cb7 9bbe
00000280: eff8 88be d6f4 b93a 8bc1 11be e42d eebe
00000290: 3ea5 bc3e 55c4 3f3d c96b 063d 3653 afbe
000002a0: 9f36 0dbe d014 573c 107e ba3e 71f1 b73e
000002b0: 2964 3e3e b0e6 c1bd 5280 963e b32d 263d
000002c0: 2e01 6fbd d257 b4be 751f 14bd 2e8c 273e
000002d0: e6af 8e3d c518 2a3e d569 c3be fc05 85bd
000002e0: 4790 60be 18b2 1fbe 1856 2fbe 33a7 2cbe
000002f0: 77ce 8dbd 5f5f 3fbe 9897 a23d 7cfa ac3e
00000300: 896b 823d 5ce7 263e 4c7d 16be 0d63 143e
00000310: 4c3f 903d 6ce1 843e 2f94 a4bd ec68 e7bd
00000320: 5a86 96be 28bc 683d 17c2 093e 345d 73bb
00000330: c805 89be 1603 543c d321 813c d655 833e
00000340: d2c5 e53e 3524 14bd e187 47bd 3309 dbbd
00000350: 10ad 933d 884a b63d a4da ee3e f52b 24be
00000360: fbd7 a7bd 28a7 813e 1390 abbe f293 d7bd
00000370: d8d9 0bbd 2626 dabe 683b 9ebe a403 7d3e
00000380: c5d2 b73e 5a9d f23c 7453 84bd 9255 33be
00000390: 238b d8bd 414c 3d3c 87ca b33d 536f 3fbc
000003a0: fb87 013d 5c75 04be 81b7 a3be b1ff e33e
000003b0: ff06 693e 0b62 f9be 89d0 303e 12b6 873e
000003c0: 7a39 e2be e1eb 473e 5870 963e 95e9 573e
000003d0: 1a64 7bbe 31ab fc3e 4925 40be b596 573e
000003e0: 0127 8d3c 3e9f 5cbe f011 973e 3bad 343e
000003f0: d174 cabd 83b0 e2be 2b69 563e 442a 533d
0.18501545 -0.32510456 0.057245895 -0.3206943 0.05483193 0.08505791 -0.16054547 0.06344827
-0.006577784 0.22039837 0.18917109 -0.24346444 0.2007585 0.34542444 -0.43694663 0.15893199
-0.03033413 0.06036076 -0.008007884 0.32429874 0.081840605 -0.34909084 0.19357961 -0.15123507
-0.31088465 0.22237235 -0.071986645 -0.23342319 -0.14802407 0.03251211 0.3609896 -0.06324246
-0.056057293 -0.14011598 -0.3325386 0.23641093 0.1121775 0.16463797 -0.13707264 -0.16727036
0.42424485 0.060345527 0.20903456 -0.12394415 0.23727879 -0.01317081 0.03997124 0.056603495
-0.45790127 -0.0010822915 0.16145688 0.33901003 0.13133328 0.13665207 0.23465948 0.27316862
0.2851918 0.18179657 0.028573392 -0.32902387 -0.39549392 -0.04193668 -0.079035275 0.3316304
-0.31157312 0.042462483 -0.017900852 0.048539035 0.078646064 0.5451897 -0.36211962 0.040072255
0.023637004 -0.08127359 0.19790646 -0.22289103 -0.08969491 -0.19492497 0.40713447 -0.20656055
-0.054625474 0.21763043 0.20528759 -0.23744728 0.023911772 0.36671954 0.20320731 -0.3306391
-0.25737146 0.23583527 0.14626485 -0.16340631 -0.15537728 0.2630714 0.24550912 -0.36107075
0.16342139 -0.114496484 -0.37105173 0.030779585 -0.38471913 -0.043608546 -0.26231936 0.38397378
0.37165567 0.28513017 0.07113693 0.22934969 0.05044124 -0.18514873 -0.1730885 0.23414113
0.18422581 -0.2814015 -0.31652123 -0.22398145 -0.24433114 0.115220405 0.14006075 0.29288805
-0.1813764 0.20383972 -0.13423717 -0.17536907 -0.12256737 -0.0652715 -0.11873887 0.41713145
0.042035595 -0.23156752 0.45050004 -0.09078864 0.1014278 -0.022347959 0.24247007 0.44281486
-0.36036438 -0.23750867 -0.19816135 -0.23840371 -0.32246026 0.011154974 -0.17118035 -0.019838465
0.2344222 -0.10614659 0.27800676 0.38808918 0.18327335 0.4403172 -0.23046602 -0.13186415
-0.02295244 -0.22859108 -0.16185999 0.4436762 -0.42176983 0.31557807 -0.117861785 -0.3041333
-0.2675242 0.0014187347 -0.14233987 -0.46519387 0.3684482 0.046818096 0.032817636 -0.34243172
-0.13790368 0.013127521 0.36424303 0.35926393 0.18592896 -0.09467828 0.29394776 0.040570926
-0.058350734 -0.35223252 -0.036162812 0.16362068 0.06967144 0.16611011 -0.3816668 -0.06495282
-0.21930037 -0.15595281 -0.17122686 -0.16860656 -0.06924146 -0.18688725 0.079390705 0.33784854
0.06368167 0.16299194 -0.14696234 0.1449091 0.07043323 0.25953233 -0.08036076 -0.11299309
-0.29399377 0.056820065 0.13452946 -0.003713441 -0.26762223 0.012940189 0.015763199 0.25651425
0.44877487 -0.036167342 -0.04871357 -0.10695114 0.072107434 0.089009345 0.46651185 -0.16032393
-0.08195492 0.25322843 -0.33508357 -0.10526265 -0.0341433 -0.4260723 -0.30904698 0.2470842
0.35902992 0.029616047 -0.0646123 -0.17513111 -0.10573413 0.011553825 0.087788634 -0.011684257
0.03162382 -0.12935394 -0.3197594 0.44531015 0.22756575 -0.48707613 0.1726705 0.26506096
-0.44184476 0.19523574 0.29382586 0.21085198 -0.24549904 0.4934936 -0.18764223 0.21053584
0.017230513 -0.21545121 0.29505873 0.17644207 -0.09885562 -0.44275293 0.20938556 0.05155398

demo_encoder.0.bias f4 [32]
00000000: eeba c03d d029 87bd 6391 813b 4971 863e
00000010: 1769 8ebe 1c30 3b3e 240d 3dbe abd2 5a3d
00000020: 9251 b23e 6c80 463e 2dad b83d 3e2d c43e
00000030: e5dd 3b3e 322e b03d d38d 913e 3a11 5cbc
00000040: 00cb 0cbd d4f4 b3bd 2e5c 963e d53e 813e
00000050: 3794 593e 7f8d 7f3e 6527 863e 5609 39be
00000060: 956e e43c 64fd 6bbe 08d9 cb3e d23d 753e
00000070: 6d16 e13e e898 ae3e ba85 873c 1173 b0bd
0.09410654 -0.06599772 0.003954099 0.26258305 -0.27814552 0.18280071 -0.18462044 0.053423565
0.34827858 0.19384927 0.09017406 0.38315767 0.18346365 0.08602561 0.28428516 -0.0134318415
-0.034373283 -0.08786932 0.29367203 0.2524325 0.21247946 0.2495632 0.2620193 -0.18069968
0.02788476 -0.2304588 0.3981402 0.23949364 0.43962422 0.34101033 0.016543258 -0.08615697

demo_encoder.2.weight f4 [32, 32]
00000000: 5a22 c33d f266 0e3e 019b 303e c5ff 16be
00000010: b1ae 8bbe 311d 3cbc 01f3 e9bd b0a1 34be
00000020: 7aea 2b3d b5f7 4ebc 9c95 f6bd 66de 54be
00000030: a9d4 4fbd cd05 f83d 570a 88bc 1ee8 1d3d
00000040: e92e 4fbb 9784 fa3d 7f5d cfbd 6d60 d0bd
00000050: b1f3 9a3d 8dd5 fe3d 072b bebc 74cc adbd
00000060: e6bd d6bc 0355 59bc 068c 1ebe dc19 8d3d
00000070: 9013 d93d 2cb2 6d3e 437c 8ebe 3d3d 1b3e
00000080: aa5f 273d d28f 283e 0c49 30bd a53f a9bd
00000090: 3552 e13d c4e2 b13c 83df 143d 7567 fdbd
000000a0: 1886 0bbe 9d6a e43c 4d24 a13d 2481 24be
000000b0: e62c bc3d 79c8 d9bd b1f9 dfbd 7b9d ebbd
000000c0: 515b b13d 02ce 013d b7a0 ff3a 867e e739
000000d0: 9bee ad3d 3001 e9bd 261b fd3d 4d01 1bbe
000000e0: b9d0 873d df21 c53d 5a36 05be 4286 9bbd
000000f0: bd0e 153e b33e 44be 38eb 473e f823 15be
00000100: 5f60 b2bd a9c0 e9bd a1ac 08bd 63a5 35be
00000110: 5fea a1bd 97c4 e63b 088c babd 5ce8 713d
00000120: a3ca 85be 744b b9bd 1299 34be c2ac aebc
00000130: a882 823e 70bd 573e 726e 873d e134 1b3e
00000140: 51d1 b33d dffa 2bbd 5769 62be 04e5 e4bb
00000150: 27f2 78be 849b fc3d 0699 adbd 39ed 8ebd
00000160: 8115 a2bd cdda 5fbd f618 e7bc f429 e03d
00000170: 3fff 8bbc cb15 55bd 6b71 74be fb49 c2bc
00000180: f97a 9bbc 3d0d c3bd 8027 283d 7d8b a83d
00000190: 3635 94be bacc 7f3e 320f a23c 0c45 013e
000001a0: 9ac6 8f3c 06a0 e63d e32e bcbd 4be3 263c
000001b0: f3de 3f3e 5651 1d3d ded9 fe3d 4eb3 73bc
000001c0: 11e6 d7bd c0b6 30bd 59de 22be 8938 01bd
000001d0: 7eb2 8abe 0b37 d3bc 80e3 42be 1684 cbbd
000001e0: bf22 dabd bde7 c83c 356e 7d3e eec9 703e
000001f0: fe25 663e 2c7b 473e 926c 9dbd 97c0 8bbd
00000200: 02ba 523d 5f8f 3fbe 99d4 20bd 6d48 73bd
00000210: a60a 93bd d992 2d3e 78c6 5abe 8820 f9bc
00000220: 969d a0be 6a2b 21bd ff03 063e 7c73 0abe
00000230: f2fb 89bd 01a4 d33d 2413 1b3d 7e5e ed3d
00000240: f460 ffbd 01e4 83be 74da 4dbe 7fd4 cbbb
00000250: a295 45be 75fc d73d 84c0 47be f323 7abe
00000260: 24d0 ac3d 25a0 1b3d a636 e4bc 5195 ad3d
00000270: 2ffd af3d 7211 05bd 6763 5fbe bd11 cbbd
00000280: 8cf1 68be 209f 42be 09e3 2a3e 5294 513c
00000290: f204 03be 70a3 9cbd d849 8abe b7a3 2abe
000002a0: 2074 09be 1c91 44bd 2a86 a43c dbad 9b3c
000002b0: a2f0 603d 0887 dbbd c3b6 b23d 4ee2 ea3d
000002c0: 7759 e93d 1900 5ebb 3be8 8dbd 5e17 7fbe
000002d0: d25f ccbd 5586 223e bf60 fbbd d154 95bd
000002e0: 1d1e bdbd 7a23 64bd 1621 843b 458d ca3c
000002f0: f3e1 08be 2424 653e 1cf2 ecbd 6fad b43d
00000300: cf66 10be c201 70be 4d06 933d ddbc 99bd
00000310: e9a2 203e ba88 06be 8930 2cbe 0e41 9dbe
00000320: 4cd5 2b3e b21e 39be 0e47 693d 5ab0 ee3d
00000330: c653 0e3e 2c1a 50be d538 03be 68e0 1dbd
00000340: 0a63 26bd f7e9 23bd 0b1a 143e 7f24 2f3d
00000350: 27e5 a2bc 0a1f 063c aef7 dd3d 4462 74be
00000360: be6e dcbb 5904 e63d 33ef 66be 4128 4fbe
00000370: ef98 81be 3a3d 8ebc 8614 b5bd 17de 0dbe
00000380: 8454 e73c 06f8 2ebe e001 e23b 21e2 453e
00000390: 76fc 2c3d 894b ffbc aa17 003e 6ea9 8fbb
000003a0: 26ce 5ebb 7d70 4bbd 1b22 82bd 6fb1 dbbd
000003b0: 94c3 1f3d 13ad 903d 8593 d13d cb7a f9bd
000003c0: e349 72be 2a66 033e 9540 2fbe 4dd4 9ebd
000003d0: de9d 193e f64e d2bd f910 bfbc 1345 a9bd
000003e0: fe82 9d3c e431 4d3d f2d6 f23d f00c 813d
000003f0: 47e2 873d 7254 8ebc f373 cdbb 6848 57bd
0.095280364 0.13906458 0.1724663 -0.14746006 -0.27281716 -0.011481569 -0.114233024 -0.17639804
0.04197166 -0.0126323 -0.120402545 -0.20787963 -0.050739918 0.121104814 -0.016606493 0.038551442
-0.0031613654 0.12232321 -0.10125255 -0.10174642 0.07566012 0.12443075 -0.023213876 -0.08486262
-0.026213598 -0.013264897 -0.15483102 0.06889698 0.105994344 0.23212498 -0.2782918 0.1516008
0.040862717 0.16461113 -0.043038413 -0.08264092 0.11002008 0.021714576 0.03634597 -0.123732485
-0.13625371 0.027882868 0.07868252 -0.16064888 0.09188251 -0.1063394 -0.10936297 -0.115046464
0.08659995 0.031690605 0.0019502853 0.0004415402 0.08492776 -0.113771796 0.12358694 -0.15137215
0.066316076 0.09625601 -0.13009015 -0.07593967 0.14556403 -0.19164543 0.19523323 -0.14564502
-0.087097876 -0.114137 -0.033367757 -0.17738871 -0.07906031 0.0070424783 -0.0910874 0.059059486
-0.26131162 -0.09047595 -0.17636517 -0.021322612 0.25490308 0.21068358 0.06612863 0.1515689
0.08780158 -0.041987296 -0.22110496 -0.0069853086 -0.24311124 0.1233435 -0.084764525 -0.069788404
-0.07914258 -0.054652024 -0.028210144 0.10945502 -0.017089484 -0.052022737 -0.2387139 -0.023716917
-0.018979536 -0.095240094 0.041053295 0.0822973 -0.28946847 0.2498044 0.019782636 0.12623996
0.017550755 0.11260991 -0.091886304 0.010186027 0.18737392 0.038407646 0.124438986 -0.014874293
-0.105419286 -0.043143034 -0.15905131 -0.031548057 -0.27089304 -0.025783082 -0.19032097 -0.09937303
-0.106511585 0.024524564 0.24749072 0.2351453 0.2247543 0.1948058 -0.07686724 -0.06823843
0.051446922 -0.18707035 -0.03926525 -0.059395242 -0.071797654 0.16950549 -0.21364772 -0.03041102
-0.3137023 -0.039348044 0.13087462 -0.13520616 -0.06737508 0.10334016 0.03786005 0.115902886
-0.12469664 -0.2575989 -0.20102865 -0.0062204 -0.19295362 0.10546199 -0.19507033 -0.24427776
0.08438137 0.037994523 -0.02785809 0.084757455 0.08593213 -0.03248734 -0.21815263 -0.09915493
-0.22748393 -0.19006014 0.1668817 0.01279171 -0.12794855 -0.07648361 -0.27009463 -0.16664015
-0.13423204 -0.04798995 0.020083506 0.0190038 0.054916985 -0.107191145 0.08726265 0.114689454
0.11394017 -0.003387457 -0.0692906 -0.24911258 -0.09979214 0.15871556 -0.12274312 -0.07291568
-0.09234259 -0.055697896 0.0040322645 0.024725566 -0.13367443 0.22377068 -0.11569616 0.08822142
-0.14101718 -0.2343817 0.07178936 -0.07506726 0.15687145 -0.13138095 -0.1681539 -0.30713695
0.16780585 -0.18078116 0.05695253 0.1165473 0.13899145 -0.20322484 -0.12814648 -0.03854409
-0.040621795 -0.04001805 0.1446306 0.042759415 -0.019884659 0.008186111 0.10838257 -0.2386561
-0.0067270687 0.11231298 -0.22552185 -0.202302 -0.25311992 -0.01736318 -0.08841805 -0.13854252
0.028238542 -0.17086801 0.006897196 0.19324543 0.042232953 -0.031163948 0.12509027 -0.0043842113
-0.0033997386 -0.049667824 -0.06354161 -0.10727202 0.039004877 0.07064261 0.10233215 -0.12181624
-0.23660998 0.12831941 -0.1711448 -0.07755337 0.15001628 -0.10268967 -0.023323523 -0.08265128
0.019227501 0.050096408 0.11857404 0.06301296 0.06634956 -0.017374251 -0.0062699257 -0.052559286

demo_encoder.2.bias f4 [32]
00000000: e508 7bbd c01b 24bd 9a42 983d 40e7 943d
00000010: 7435 7d3d b276 0bbe f7dd 83bd 0a8f 27be
00000020: 0ab1 dabd af5a 1a3e 9c7a 3e3b cf56 35be
00000030: 9a2a d83d 1500 b23d f6c8 e33b 78dd be3d
00000040: a515 9bbc 2c58 613e c4cf 83bd b3f3 f0bc
00000050: 4972 823d f27b 133d cd74 4d3e a9c2 1ebe
00000060: 7dd4 c53c d90d 94bd 9ed9 b93c 85df 27be
00000070: 296c 763d c6f0 d3bc 42a0 303b ee40 db3d
-0.06128778 -0.040065527 0.07434578 0.0727067 0.061818555 -0.13619497 -0.06438821 -0.16363159
-0.10678299 0.15073656 0.002906478 -0.17708896 0.105550006 0.08691422 0.0069514466 0.093195856
-0.01893122 0.22006291 -0.064361125 -0.02941308 0.063694544 0.036006875 0.20064087 -0.15503944
0.024149174 -0.07229204 0.022686776 -0.1639386 0.060161743 -0.025871646 0.002695099 0.10705744

gru.weight_ih_l0 f4 [96, 111]
00000000: bcc9 a33d c81a 893d 3fed 983d 260c c03d
00000010: e9ec b5bc 34ca ac3c 2cf5 b53c 9018 84bd
00000020: 6be1 263e 0c88 ecbd ab77 9fbd 9b7c 4ebe
00000030: 5086 8e3d 929e c1bd 2197 cabd 5e80 043d
00000040: ca96 863d da16 953d d427 373d bf0a 903c
00000050: 4afe 61bd cb2a d03d 61b0 243e 5d12 14be
00000060: cc7e e73d 0e84 c5bd 7c03 3f3e e172 c93c
00000070: 4d13 c83d 4034 ce3d bdd9 1f3d 7289 d9bd
00000080: b6c6 073e 8bf4 513d d3f1 aabd 7d25 523e
00000090: 7a9a 233e 9017 e03d 16c5 f23d ef48 c83d
000000a0: edbe cfbd 6541 083e d6a8 d4bd 658a 383e
000000b0: ba30 0ebe d8f9 3f3d de85 0d3d 8783 083d
000000c0: e338 01be 0f20 2a3e 70e1 d43b d767 0f3e
000000d0: 6aa2 8fbd 41d7 c1bb 9443 483e 7821 0a3e
000000e0: 6ce7 1c3e 7ae6 d0bd 49ae c23d ba21 01be
000000f0: 7707 f7bc 6534 fcbd 446d 283e 846e 4d3e
00000100: 29ba 5a3d 6798 e33d 98f2 953d 13ce f93d
00000110: a91c 4d3d 71a0 4bbd 56f4 e1bd 8042 0a3e
00000120: d2ae efbc ab49 2f3d 475c 333d 08c0 003e
00000130: 7612 dcbd 3f71 1bbe d3e2 4b3e 7293 543c
00000140: f933 203e 1887 b13d e893 443d b362 1d3e
00000150: 92f1 a23d b635 cfbd 35bc 07be c471 473e
00000160: 72ec 393d 45b9 33be 398b 6f3d d74b 57be
00000170: e8a3 65bd b4aa 553e a811 36be 68a0 ee3d
00000180: 1487 cc3d e794 e3bd 1faf c5bd 71f0 9ebd
00000190: 882d 9bbd f435 7abd 7208 c5bd 5747 98bd
000001a0: e2c9 4b3c a561 b0bb da4f fd3d 6ab9 87bb
000001b0: 9e1b b83d 8f55 bf3d e3d0 5b3d b025 243e
000001c0: 82ee d43c 5e06 76be 4645 b7bd 5ab8 8f3d
000001d0: 5801 813e 522f 163e d08f efbd ce97 c53d
000001e0: 285e 1fbd 0a48 0f3e ab6c 193e c11d 5b3c
000001f0: c855 7e3d 62d2 89bb 4a3d 00be 7e9c 103e
00000200: 1996 8d3d 5594 78bd 9dce 223e 0c91 853d
00000210: 7a76 2b3d 6bcc 8fbd b23d 8dbd e3a1 12bd
00000220: 5a24 94bd 05a3 71be 1086 65bc a464 3ebd
00000230: bfd8 39be 9575 2a3e 0dfb a63c 86bb 50be
00000240: 624d cd3d 1310 b3bd 9fd7 053d 1ae0 1a3e
00000250: 33ff d53c f3e4 eb3c 010a 9e3d 556d dabd
00000260: 308c babd 7eff 47bd 635c 13be a698 ddbd
00000270: e35d 09bc ed60 53bc 608d 443e 4fd5 863d
00000280: 6b5e 183e 3ebd 383d c295 d63c e185 f73d
00000290: a8ca 593e d4f6 8f3d d2d3 073d a950 1bbe
000002a0: 02ec af3c afb4 69bd 89dd e0bc 82c8 403d
000002b0: 38ae 66bc be03 a53c 60f4 463e c2b2 cb3d
000002c0: befa b83d b133 4cbe fe36 fe3d 39b0 7cbe
000002d0: 8a6e e73c d129 a33d 84c0 40bd 115c dc3a
000002e0: b75d aabd 4503 013e 757d 203e c94c cc3c
000002f0: 6de8 ce3d 02d0 f43d 1401 043e 82e8 f4bd
00000300: 6010 cf3d c431 df3d e46b 23bd 2cd6 babd
00000310: aa63 503e b13f 6ebd 43a8 11be 3cad 4b3d
00000320: 1d22 e7bd 7663 033e 7abe 913d 1d7a b4bd
00000330: 8fed fa3a f334 7abc 90a9 053e bd2e 9f3d
00000340: 7b19 a4bd 2fde c93d 5ce2 143e df78 c0bb
00000350: db0d c43d cf9c 6ebd 71c6 293d e583 be3d
00000360: 91b6 a63c 3a4a 343e 701c a83d fdcf 113e
00000370: 29a3 b6bd 6f57 95bd ef57 62bd 8245 febc
00000380: e9be 073d 4be6 0f3e a55f 6dbe c847 5d3e
00000390: 68c8 90bd 0631 223d fd38 c93d ec22 35bd
000003a0: 1a9d 95bd fe45 413d 19dd 24be e497 0bbe
000003b0: f928 e3bd b5f6 5d3d 5b35 f43d 0b78 fb3c
000003c0: 6210 103e a896 883d 6190 6a3c c915 283e
000003d0: 965b 563e eb53 673e 6886 08bc ede3 6a3e
000003e0: 2ce8 63bb dbbc 1a3d bcaf d13c 9854 b6bd
000003f0: 5b68 eabc 7919 553e 20b4 f03d 3104 15be
0.07997462 0.06694561 0.07467126 0.09377317 -0.022207694 0.021092512 0.022211634 -0.064499974
0.16296928 -0.115493864 -0.07786497 -0.2016472 0.06959212 -0.09454073 -0.09892107 0.032348983
0.065717295 0.07279749 0.044715717 0.01758325 -0.05517415 0.10164412 0.16082908 -0.1446013
0.113034815 -0.09644328 0.18653673 0.024590911 0.09769306 0.1006856 0.03902601 -0.10621919
0.13259396 0.051258605 -0.083469056 0.20522113 0.15976897 0.10941994 0.118539974 0.09779536
-0.10143838 0.13306196 -0.103837654 0.18021543 -0.13885775 0.04686913 0.034551494 0.03332856
-0.12619357 0.16613792 0.006496601 0.14004456 -0.070134 -0.005915553 0.19557029 0.1348933
0.15322655 -0.1020021 0.095058985 -0.12610522 -0.030154927 -0.12314681 0.16447932 0.2006169
0.053400192 0.11113053 0.07321662 0.12197509 0.05007616 -0.049713556 -0.110329315 0.1350193
-0.029258166 0.042794865 0.043789174 0.12573254 -0.10745709 -0.15179919 0.19910745 0.012974607
0.15644826 0.08668345 0.047992617 0.15369682 0.07956232 -0.101176664 -0.13255389 0.19476992
0.045391507 -0.17551143 0.058482382 -0.21025024 -0.056064516 0.208659 -0.17780173 0.11651689
0.099867016 -0.11112385 -0.09652542 -0.07760704 -0.07577044 -0.06108661 -0.096207514 -0.07435482
0.012438269 -0.005382734 0.12368746 -0.004141976 0.089896426 0.09342491 0.053666007 0.16030002
0.025992636 -0.24025866 -0.0894876 0.07017584 0.25196338 0.14666489 -0.11697352 0.09648095
-0.038908154 0.13992324 0.1498286 0.013373793 0.062093526 -0.004205988 -0.1252338 0.14122197
0.069133945 -0.060688335 0.15899129 0.06521806 0.041861035 -0.070214115 -0.06896533 -0.03579892
-0.07233496 -0.23597343 -0.014009014 -0.046482697 -0.18149088 0.16646416 0.020383382 -0.20384035
0.10024525 -0.087433 0.032676335 0.1512455 0.026122665 0.028795695 0.07716752 -0.10665385
-0.0910877 -0.04882764 -0.14390711 -0.10820131 -0.008384201 -0.012901527 0.19194555 0.06583654
0.14879768 0.04510235 0.026194457 0.12086082 0.21268713 0.070295006 0.033160992 -0.15167488
0.021474842 -0.05705708 -0.027449386 0.04706622 -0.014079623 0.020143386 0.19429159 0.09946205
0.090322 -0.19941594 0.12412833 -0.24676599 0.028250951 0.0796696 -0.047058597 0.0016812106
-0.08318656 0.12598903 0.15672858 0.024938958 0.101029254 0.11953737 0.12891036 -0.1195841
0.10110545 0.10898164 -0.039897814 -0.09122881 0.20350519 -0.05816621 -0.14224343 0.049725756
-0.112858035 0.1283091 0.07116409 -0.08812354 0.0019144284 -0.015271413 0.13052964 0.077725865
-0.080126725 0.09856831 0.14539474 -0.005873784 0.09572955 -0.058255013 0.041449014 0.09302501
0.020350726 0.1760644 0.08208549 0.14239497 -0.08917839 -0.07292067 -0.05525964 -0.031039003
0.03314105 0.14052694 -0.23181017 0.21609414 -0.070694745 0.039597534 0.09825323 -0.044222757
-0.07305355 0.04718589 -0.16099967 -0.1363216 -0.11091799 0.054190356 0.11924239 0.03069689
0.1406875 0.066693604 0.014316649 0.1641456 0.20933375 0.22590606 -0.008332826 0.2293851
-0.0034775836 0.037777763 0.025596492 -0.08902854 -0.028614214 0.20810498 0.11753106 -0.1455238

gru.weight_hh_l0 f4 [96, 32]
00000000: 9f3f 183d f610 d03d 2dcc 85bd 9774 89bd
00000010: 4111 bcbc 9912 01be b84a 61be 710c 57be
00000020: c763 f7bd 983e d3bd c9f2 10bc f63f 86be
00000030: ea2a e23d 3a77 85bc beb3 ab3c a4d1 623e
00000040: ffd0 05be ff64 103c 83eb 0d3d a62c dfbd
00000050: 3a99 bbbc e925 203e 397c c63d 4f6e db3d
00000060: 9908 303e 97fc b5bd 3614 fb3c 2f2a 753e
00000070: f85c 0b3e 0024 df3d 4997 d5bc 57d6 fa3d
00000080: 3b93 cfbc 1a84 25bd 4dc0 113e 2db4 90bc
00000090: 4747 313e 7994 c9bd e686 923d 9a97 36be
000000a0: c62b 463e 61f0 863d 13cc e63d 2479 1e3c
000000b0: 5e0c 203d 3e19 30be 478c 95bd c3a0 fd3c
000000c0: 91a6 a8bd c2e4 9fbc 038d 683d 400e febd
000000d0: cdee 0dbe 080a c1bc e0d4 b63d ff89 24bd
000000e0: 1795 c9bd ceb2 46be f9b3 0fbe 707b 253e
000000f0: 8776 1f3e 3a4d 53be eff2 b1bd e66a ce3d
00000100: f5ae 0d3e 6fb0 b23c 0b8b 4b3d e1cc 8dbc
00000110: 953d 86bd 4073 383e 1d3e de3d 4d52 0e3d
00000120: 4a17 14bd 8f75 d0bd be5b b33d c5c7 82bc
00000130: 50d8 fabc 4c44 793d bf75 f93d c56a 8f3d
00000140: 1c39 45be 9dcb 2abd b76f b83d 495d 9e3d
00000150: 2066 e2bd 7936 113c 3ba9 e5bd b1f8 083d
00000160: 59c6 1d3e 31bf 37bd 8da2 24bd 10e8 173e
00000170: ed75 2e3e b104 ddbd 96fa c5bd 3e78 d0bd
00000180: b522 213d 2554 abbd d0a2 a3bd 1d83 1ebe
00000190: bb27 68bd a731 a0bd d26b d23c 5c08 213e
000001a0: daab 38be 0441 9a3d a723 7d3e 108e c03d
000001b0: 75e4 e93c 901a 8cbd 57dc 1a3e 984f 643e
000001c0: 2677 31be 1cbf 8a3d 00ea 543d 9e15 463e
000001d0: 7d8d bdbd f99d 133e 8746 1dbe b35a f8bc
000001e0: 1114 1bbb 570a 1c3e 8897 bc3d 36c8 99bd
000001f0: 7578 013e 191b b83d ae00 25be bfd3 15bc
00000200: f6a3 0abd b58f adbd 77fa efbd 9997 6c3b
00000210: d1ce 06bc d230 733c 2086 b33d eb4e 07bd
00000220: b4dc 47be 5809 45be 1076 2a3e 2fef 613d
00000230: 0bf0 01bd b0a4 1b3e c8ce 393e ce7a 15bd
00000240: 4570 c03c 1e98 69be c9d2 fe3d 9725 b9bc
00000250: fafb c4bd 4a71 043e 9c25 d2bd 87fa 3f3a
00000260: 2a91 08bd ab73 babd 7d29 923b 8198 483c
00000270: eac4 223e 78c7 273d 9539 2bbe 03f1 303e
00000280: 8dc8 7f3e 6ead acbd ffc2 d0bd ea5c 133e
00000290: 8f41 573e a21b d73d bec3 573c 37e5 2cbe
000002a0: c68f 1c3e 9f96 cd3d 6c03 a3be c588 cd3d
000002b0: 2608 a7bd 53b0 82bc 8656 18be a5f8 0a3e
000002c0: 6a9a ffbd f6fb 593d c740 25be 0e2d 6a3d
000002d0: a1e2 31ba ff88 7bbc a24e c33d f9c9 b93d
000002e0: e081 053e 30e6 14be 1a8f 8ebd 010c bb3d
000002f0: 0e22 8fbd 97d6 e0bd 2e6a 023c ce18 8abd
00000300: c455 e43d cd09 393e 26b9 dcbd 48aa b7bd
00000310: 8a62 1dbd c6cf f83d 4685 9fbc 364f 90bd
00000320: ef0b 53be a732 65be 074c 18bd 6f41 ab3d
00000330: f64c b93d 4627 e33c 7e6d 803e 68fc 8f3c
00000340: 779f 10bd d6b2 45bd a19c 433e 073c 8a3d
00000350: 6846 2cbd 3da3 143d ab0d 3cbe a089 11bc
00000360: a33e 57be 7e82 223e 86af 22be f1c8 20be
00000370: 86f3 7a3d e406 9a3d 86cb a6bd c263 0fbe
00000380: c24c d23d 699b b93d 8546 b03d 0419 8d3b
00000390: 63d2 663d b09e 1cbe 959d a63d bbb1 29be
000003a0: cc79 c4bb 43ef 94bc 7c86 a6bd 2aaf 8abc
000003b0: 6ca2 2f3e e54b 84bd 2f6a a53b aafc 7239
000003c0: a243 2cbd 75e9 2fbd 63a8 0fbe a2c4 6d3c
000003d0: c7bf 57be a152 cb3b 1f90 d3bc e2e7 c8bd
000003e0: a4df 163e 6d57 a63d 525e 10be f2c8 b4bb
000003f0: c819 023e 5387 923c 9393 4ebe a10b 11bd
0.03717005 0.10159485 -0.06533084 -0.06711691 -0.022957446 -0.1260475 -0.22001159 -0.2100084
-0.12079578 -0.10314673 -0.008846947 -0.26220673 0.110433415 -0.016292203 0.020959731 0.22150284
-0.13068007 0.008813142 0.03464843 -0.10897188 -0.022900213 0.15639462 0.09691662 0.10714399
0.1719078 -0.08886068 0.030649286 0.23941873 0.13609684 0.10895538 -0.026073115 0.12247913
-0.02533876 -0.040409185 0.14233513 -0.01766404 0.17312346 -0.09842772 0.07154636 -0.17831269
0.19352636 0.065888174 0.11269393 0.009672437 0.039074294 -0.17197129 -0.073021464 0.030960446
-0.08234895 -0.01951826 0.056775104 -0.12405062 -0.13860627 -0.023564354 0.089273214 -0.040170666
-0.0984289 -0.19404146 -0.14033498 0.16160369 0.15572558 -0.20634928 -0.08688914 0.10078983
0.13836272 0.021812646 0.04969315 -0.017309608 -0.065547146 0.18012714 0.10851691 0.034746457
-0.036155023 -0.101786725 0.08757733 -0.015964398 -0.030620724 0.06085615 0.121806614 0.070027865
-0.19260067 -0.041698087 0.09005683 0.077326365 -0.11054635 0.008863085 -0.11213919 0.033440296
0.15407695 -0.04486007 -0.040194083 0.14834619 0.17037173 -0.107919104 -0.09666936 -0.101791844
0.03933974 -0.08365659 -0.079900384 -0.15479703 -0.056678515 -0.078219704 0.025686178 0.15725845
-0.18034306 0.07531932 0.24720632 0.09402096 0.02855132 -0.06841004 0.15123115 0.22295988
-0.17330608 0.067747325 0.051980972 0.19344184 -0.092555024 0.1441573 -0.15358935 -0.030316686
-0.0023663084 0.1523832 0.0920859 -0.0750889 0.12643607 0.089895435 -0.1611354 -0.0091447225
-0.03384777 -0.084746756 -0.11717694 0.0036101101 -0.00822802 0.014843183 0.08765817 -0.033034246
-0.19517785 -0.19241846 0.166466 0.055159744 -0.031723063 0.15199542 0.18145287 -0.03649407
0.023491034 -0.22811934 0.12442548 -0.022600932 -0.09618373 0.12933841 -0.1026108 0.0007323403
-0.033341564 -0.09104093 0.004460512 0.012243391 0.15895429 0.040961713 -0.16721185 0.17279439
0.24978848 -0.084315166 -0.101934426 0.14390913 0.21021102 0.105033174 0.013169227 -0.16884314
0.1528922 0.10038494 -0.31838548 0.10035852 -0.08155851 -0.015953219 -0.14876756 0.13571413
-0.12480624 0.053218804 -0.16137992 0.057171874 -0.00067857845 -0.015352487 0.095364824 0.09071726
0.13037825 -0.14540935 -0.06960888 0.09133149 -0.06988917 -0.1097843 0.0079598855 -0.06743012
0.11149171 0.18070145 -0.10777502 -0.089680254 -0.038424052 0.12149005 -0.01947273 -0.07046358
-0.20610021 -0.22382604 -0.03718188 0.0836209 0.09047882 0.027728688 0.25083536 0.017576411
-0.035308328 -0.048266254 0.19102718 0.067497306 -0.042059332 0.03628849 -0.18364589 -0.00888291
-0.21019988 0.15870091 -0.1588727 -0.15701653 0.0612674 0.075208455 -0.08144288 -0.14002898
0.10268547 0.09062845 0.086072005 0.0043059606 0.056352984 -0.1529491 0.08135525 -0.16571705
-0.0059959646 -0.018180495 -0.081311196 -0.016929228 0.17151803 -0.06459788 0.0050480585 0.00023173043
-0.042056687 -0.04294725 -0.14029078 0.014512213 -0.21069251 0.0062049185 -0.025825558 -0.09809853
0.1473375 0.08122144 -0.1409848 -0.0055171186 0.12705147 0.017886793 -0.20173483 -0.03541148

gru.bias_ih_l0 f4 [96]
00000000: b2bd b63d 99e7 c83d c7e8 573e 9125 583d
00000010: 006c f93d a73c 10bc 873e 583e 5d84 563d
00000020: 4573 d13d d2a1 0a3e eac2 073e 449d 193e
00000030: 1c2d 01bd 76b1 87bd 806f b33c ae67 8f3d
00000040: 0654 373e e863 0b3e 080f f7bd 6a71 253b
00000050: 792a 23be abf8 08be ced4 f03d 336c 70bd
00000060: 588b 2aba 7793 06be 69ef c23c ecd8 963d
00000070: faf2 383e eb60 1d3e 086c 0f3e b573 a0bd
00000080: a777 8b3d 8901 e43d 522a 4f3e 0380 033e
00000090: 0122 4d3e 8648 b63c 65cc 9dbd 7eec 6f3d
000000a0: cf07 283e 9358 033c 1992 843e 7335 093e
000000b0: b313 883d ed7b 41bd db65 de3d 7c4d 853e
000000c0: 6f03 103e 0f70 61bb e7fe 4fbe e86a adbd
000000d0: bb8b a33d 6ad7 6dbd cef6 063e 5f65 dcbd
000000e0: b76d 86bb 8cf3 693b a5e2 b1bd dabc b1bd
000000f0: 6362 1dbd 2631 183e e212 acbd 9d81 0dbd
00000100: 2d44 133e 575f 67bd 6895 833d 1608 113c
00000110: 49ce b63d 120f ad3d 44ec b83c 66f6 59bc
00000120: fe6d ef3d b42b 14bd abec f93d 9222 623e
00000130: e6ab 893d a9ef 423e f4ed 78bd 3c86 8a3d
00000140: 8c28 b23d c5b1 073e 9f3d ab3d 1e75 973d
00000150: f7bf 25be 3496 483e aae2 8ebd cb07 2cbe
00000160: a69d dfbd 5e66 eabc 884f b33d f831 c8bd
00000170: c18c 9abc 2282 2bbd ee0b 853d b18f 03be
0.089229 0.09809799 0.21084891 0.0527702 0.121788025 -0.008803523 0.21117602 0.052372325
0.10227064 0.13538292 0.13257948 0.15001398 -0.03153716 -0.06625645 0.021903753 0.07002197
0.17903146 0.1361233 -0.12063414 0.0025244602 -0.15934171 -0.1337611 0.11759339 -0.058696937
-0.0006505749 -0.13142191 0.0237958 0.07365593 0.18061438 0.15369003 0.14006054 -0.07834569
0.06809931 0.11133105 0.20230988 0.12841801 0.20032503 0.022251379 -0.07705001 0.058575146
0.16409229 0.008016723 0.25892714 0.13399296 0.06644382 -0.047237325 0.10859271 0.26035678
0.1406381 -0.0034399068 -0.20312081 -0.084676564 0.07985636 -0.058066763 0.13180086 -0.107615225
-0.0041024345 0.0035698144 -0.08685807 -0.08678599 -0.038423907 0.14862499 -0.08402039 -0.034547437
0.14381476 -0.056487408 0.06424981 0.0088520255 0.089260645 0.0845014 0.022573598 -0.013303375
0.11690901 -0.03617449 0.12203344 0.220835 0.0672224 0.19036736 -0.060773805 0.067638844
0.0869914 0.13251407 0.08361363 0.07395385 -0.1618651 0.19588548 -0.069768265 -0.16799848
-0.10918741 -0.028613266 0.08755404 -0.09775156 -0.018865945 -0.04187215 0.06496416 -0.12847783

gru.bias_hh_l0 f4 [96]
00000000: 9c08 d63d cad1 063e 7921 183e 590e 043e
00000010: 512b 7dbd 1724 af3d 5c6f 9a3c 8024 3d3c
00000020: f841 6bbd baa9 d93d 27b1 0e3e fa2a 26bc
00000030: 8139 233e 4ce3 503d da9d a73d 4c19 133e
00000040: a40a 163e 2829 173e b6d6 7c3d 4504 363e
00000050: f815 aebd 6564 67be cbd4 6d3e 145f 043e
00000060: 4b76 213e c41a 0d3d ecb6 86bc f2ce 433d
00000070: f4d0 363e a387 27be cd7d 083e 5992 383e
00000080: 00d3 593e c7d5 1cbe cac5 9ebd 5844 92bb
00000090: 2080 143d c0a8 7bbd 0544 5d3e 96f5 093e
000000a0: 7500 07bc cced e3bc 6fb5 d03d c008 373e
000000b0: 3de9 013e fe47 293e a4e1 bbbd e545 663e
000000c0: f2be 123e 9607 9a3d b462 8d3d 9a4a 523e
000000d0: 73c2 633e 2e8d aabd e6a0 43bc d146 f13c
000000e0: 7f9e 83be 5f28 b9bd 677a c33d 7ec9 b23d
000000f0: 6ddc 6dbd 95a7 7bbd d4e9 013e 146a 223d
00000100: 59a4 db3d 57a2 38bb 2aa5 c1bb 1a3f 4bbe
00000110: 4265 57be 40bf e9bd 8bb5 403d 2c85 183e
00000120: 862f 59bd 8ace c4b9 a195 3d3e 44d9 33bc
00000130: 778c c13b b647 d4ba 2118 513e b96e b53d
00000140: 7a16 d53d 0f50 38be 6ac3 0fbe 3f2e 933e
00000150: 3e7f 283e a5c4 f1bd e345 003d 0883 243c
00000160: a80d ee3d 3e45 e93d d3ff b03d 230a b8bd
00000170: f937 bebc 8011 803a d01b 163e 63d9 acbd
0.10450861 0.13165966 0.14856519 0.12896098 -0.061808888 0.085518055 0.018851928 0.011544347
-0.05743596 0.10628076 0.13934766 -0.010142082 0.15939905 0.050998017 0.08184405 0.14365119
0.14652497 0.14761794 0.0617282 0.17775066 -0.08500284 -0.22596891 0.23225705 0.12926894
0.15767781 0.034449354 -0.016444646 0.04780478 0.17853147 -0.16360335 0.13329239 0.18024577
0.21271896 -0.15315925 -0.07752569 -0.0044637136 0.036255002 -0.06144023 0.21607979 0.1347259
-0.008239855 -0.027823351 0.10190856 0.17874432 0.1268663 0.16531369 -0.09173897 0.224876
0.14330652 0.07520978 0.06903592 0.2053627 0.22242145 -0.08327709 -0.011940217 0.029452713
-0.2570686 -0.09040903 0.09544831 0.08729838 -0.058071543 -0.061439116 0.12686855 0.039651945
0.10724706 -0.0028172934 -0.0059095817 -0.1984829 -0.2103472 -0.11413431 0.047048133 0.14894551
-0.053023838 -0.00037537917 0.1851411 -0.010977093 0.0059066373 -0.0016195688 0.2041936 0.08859009
0.10404678 -0.1799929 -0.14039388 0.2874622 0.16454789 -0.11805085 0.03131665 0.010041006
0.116236985 0.1139016 0.086425446 -0.089863084 -0.02322005 0.000977084 0.14659047 -0.08439901

output_layer.weight f4 [2, 32]
00000000: bbf2 51be 0dbe 233e 9f02 70be 6c3c 8cbc
00000010: eaef 73be 3a47 74bd eee9 bc3d 6b9c d33c
00000020: 639a ad3d e462 993c ddc5 0d3d 9012 8abd
00000030: fa69 9a3d 2d2b 803e da77 483c f2f2 86bd
00000040: 7717 5bbd e5dd e1bd 6dae 883d 0b32 bb3d
00000050: 12f6 87be f324 fc3d 5a7d 56be ec5e 53bd
00000060: 8dd4 af3d 633b 443e ea59 803c 0f41 5dbe
00000070: 2c11 6bbc 5f4c 343e 135b 02be a026 56be
00000080: a0e4 263d 0cbf 11bd f34e 753c 24bf 7d3e
00000090: 0a74 513d 966f 413e 62ba 87bd fd91 68be
000000a0: ed1a 743e 7a27 633e b27f 08be dc06 47be
000000b0: c621 933a 853c 97bd 7852 23be 716d 6b3e
000000c0: 1e16 453e c29a 1d3e e788 d2bc 333e cebd
000000d0: 9a7e 563d 7df6 cbbd e924 cb3d c61a 02be
000000e0: 4a1d adbd 81aa 66be 105a 483e 142f e7bd
000000f0: aa0d 39be c6c2 923c 4ac8 ea3d fb2b e83d
-0.2050275 0.15990467 -0.234385 -0.017118655 -0.23821989 -0.05963824 0.09224306 0.025831422
0.084767126 0.018723913 0.034612525 -0.06741822 0.07539745 0.2503294 0.012235606 -0.06589307
-0.053489175 -0.11028651 0.06673894 0.09140404 -0.26554924 0.12311735 -0.20946255 -0.051604196
0.08585463 0.19163279 0.015667874 -0.21606849 -0.014347356 0.17607258 -0.12730055 -0.20913172
0.040745378 -0.035582587 0.014972436 0.24779946 0.051136054 0.18890223 -0.066273466 -0.2271194
0.23838396 0.22183028 -0.13329962 -0.1943621 0.0011225275 -0.0738459 -0.15949428 0.22990967
0.19246718 0.15391067 -0.025700046 -0.10070457 0.05236683 -0.09959123 0.099191494 -0.12705526
-0.08452852 -0.2252598 0.19565606 -0.11288276 -0.18071619 0.01791514 0.11463983 0.113365136

output_layer.bias f4 [2]
00000000: 2ff3 083e 856f 5cbe
0.13374017 -0.21526916
