grud_output/split_3/checkpoint.pt (torch, 410402 bytes, 22 tensors)

rnn.cell.kernel_z f4 [128, 37]
0	0xbf08313c	-0.53200126
1	0x3e073592	0.13204029
2	0xbf085db5	-0.53267986
3	0xbe939427	-0.2882397
4	0xbf4f6338	-0.8101077
5	0x3fb8c474	1.4434953
6	0xbc57d6ed	-0.013173801
7	0x3eada60f	0.33915755
8	0x3e781ca5	0.24229677
9	0xbc849866	-0.01618595
10	0x3e6ccc0a	0.2312471
11	0xbfc69055	-1.5512797
12	0x3f0667cd	0.5250214
13	0x3e9b272f	0.30303332
14	0xbe5337ee	-0.20626804
15	0x3f035e8b	0.51316136
16	0x3f78f3a2	0.97246754
17	0x3ef36e0e	0.47544903
18	0x3e3865f5	0.18007644
19	0x3d2ecc48	0.042675287
20	0x3f120fca	0.5705534
21	0x3e87af2e	0.2650084
22	0xbed1325d	-0.40858737
23	0x3e45473d	0.19265456
24	0x3e013785	0.12618835
25	0x3ee31f34	0.44359744
26	0x3e79ff50	0.244138
27	0x3e113b53	0.14182787
28	0x3f2319a7	0.6371102
29	0xbeb6f26f	-0.35731837
30	0xbe86caf3	-0.26326713
31	0xbe3fe247	-0.18738662
32	0x3d8d45f2	0.06898107
33	0x3e26f52c	0.16304463
34	0xbe3b6bda	-0.18302861
35	0x3f3ad0ff	0.7297515
36	0xbe141a4d	-0.14463158
37	0xbf4e8366	-0.8066925
38	0xbdb69221	-0.089145906
39	0xbed2c104	-0.41162884
40	0xbd41ae3f	-0.047285315
41	0x3e4f2d54	0.20232135
42	0x3f307ead	0.6894329
43	0x3f2af762	0.66783726
44	0xbed90802	-0.42388922
45	0x3e54dc12	0.20787075
46	0x3e408739	0.18801583
47	0xbdc8d7f7	-0.09806817
48	0xbf39952c	-0.72493243
49	0xbf1a5130	-0.6028013
50	0xbee51e07	-0.44749472
51	0x3ebbc52b	0.36673865
52	0x3f89a2b1	1.0752774
53	0x3d4a6d94	0.049420908
54	0xbf31523f	-0.6926612
55	0x3ef35568	0.47526097
56	0x3d8dcdd8	0.06924027
57	0x3f0c20fd	0.54737836
58	0xbf34d1a8	-0.7063241
59	0x3daa80bf	0.083253376
60	0xbf189ea2	-0.59617054
61	0xbf3dd71c	-0.74156356
62	0xbeacf55f	-0.33780953
63	0xbe9e69d9	-0.3094013
64	0x3eb3dc40	0.35128975
65	0xbd4db39f	-0.05022013
66	0xbec7cbc2	-0.39022642
67	0xbe820123	-0.25391492
68	0xbed9a3ad	-0.42507687
69	0x3f40db59	0.753347
70	0xbf46c441	-0.7764321
71	0x3e380f57	0.17974602
72	0x3f2ea1ac	0.6821544
73	0xbe5ee6cd	-0.21767731
74	0xbd8a2e27	-0.06747084
75	0xbf75988b	-0.9593589
76	0xbee84976	-0.45368546
77	0xbe3b85e4	-0.18312794
78	0xbf570773	-0.8399574
79	0x3e5e79dc	0.21726173
80	0x3d0b1fca	0.033965863
81	0xbc2639c8	-0.010145612
82	0x3de3771a	0.11106701
83	0xbe9d0ba3	-0.3067294
84	0x3e9319f7	0.28730747
85	0x3ed306a2	0.41215998
86	0x3dc86b1b	0.09786054
87	0x3c59c43a	0.013291413
88	0x3e9428cd	0.2893738
89	0xbcd08e16	-0.025458377
90	0xbe9da975	-0.30793348
91	0x3f009f38	0.5024295
92	0xbdcbbd0e	-0.09948169
93	0x3d5f73a0	0.054553628
94	0x3dc49171	0.09598053
95	0x3e1ec125	0.15503366
96	0x3e6007b4	0.21877939
97	0x3e5a8eb1	0.21343495
98	0x3cefbeb2	0.029265735
99	0xbe17a1dd	-0.1480784
100	0xbd6efb4e	-0.05834513
101	0xbf2bd6df	-0.6712474
102	0xbdcb8fb0	-0.099395156
103	0xbe60eaa5	-0.2196451
104	0xbca4a81d	-0.020099694
105	0xbea92bac	-0.33041131
106	0xbc867577	-0.016413433
107	0x3e170cbf	0.14750956
108	0x3d409dd0	0.0470255
109	0x3ec85bbb	0.39132485
110	0xbcf3eca7	-0.02977593
111	0x3ec3b82b	0.38226447
112	0x3e253159	0.16132106
113	0xbeccdcf9	-0.4001234
114	0x3d6c080c	0.05762486
115	0x3f1a49bb	0.60268754
116	0x3db193af	0.086707465
117	0xbebeea99	-0.3728836
118	0x3dcfa397	0.10138624
119	0x3e526659	0.20546855
120	0xbd490683	-0.049078476
121	0x3ce5db25	0.028058598
122	0x3e603515	0.21895249
123	0x3e090f0b	0.13384645
124	0xbe082f58	-0.1329931
125	0xbf4d7d1d	-0.8026903
126	0x3e928f19	0.286248
127	0xbe0acc7b	-0.13554566
128	0x3dbc93d0	0.092078805
129	0xbd3defc0	-0.04637122
130	0x3e3d9332	0.18513182
131	0xbf29cced	-0.66328317
132	0x3b8d24b3	0.0043073534
133	0xbe6da0ec	-0.23205918
134	0xbdba0f74	-0.09084979
135	0xbe4b37f7	-0.19845568
136	0x3cc838ed	0.024441207
137	0xbeec041d	-0.46096888
138	0x3e85952a	0.26090366
139	0xbe6646b6	-0.22487912
140	0xbe0c40cf	-0.13696598
141	0xbe11b2cf	-0.14228366
142	0xbea0a451	-0.31375363
143	0x3f16f2cc	0.5896423
144	0xbd6ab2ea	-0.057299532
145	0x3eae5429	0.34048584
146	0x3ecfa904	0.40558636
147	0x3e8fc3b9	0.28079012
148	0x3ede495a	0.43415338
149	0xbf81a020	-1.0126991
150	0xbf2d1bd8	-0.6762061
151	0xbe4a64b8	-0.19764984
152	0x3fa5ca38	1.2952337
153	0xc0225589	-2.5364707
154	0xbfe12113	-1.7588218
155	0x3f995b7b	1.1981043
156	0xbb747d42	-0.0037306105
157	0xbec82a29	-0.39094666
158	0xbf2b0c0d	-0.66815263
159	0x40309f92	2.7597394
160	0xbe7660b1	-0.24060322
161	0x3fc97ef1	1.5741864
162	0xbf0c2c6c	-0.5475528
163	0xbf4a2add	-0.78971654
164	0x3f971061	1.1801873
165	0xbff92418	-1.946414
166	0x3e82a4f9	0.2551649
167	0x3ca2fc28	0.019895628
168	0xbf9a58bf	-1.2058333
169	0xbecbe198	-0.39820552
170	0xbeb9a045	-0.36255088
171	0x3e969bc9	0.2941573
172	0x3e846fee	0.25866646
173	0x3fe4517f	1.7837371
174	0x400dc2c8	2.2150135
175	0x3e40a956	0.18814597
176	0xbeefb00e	-0.46814007
177	0x3f1a493a	0.60267985
178	0xbd9f4cdd	-0.077783324
179	0x3f2b8605	0.6700137
180	0x3f5bed2b	0.85908765
181	0xbebd3edd	-0.36962023
182	0x404152a9	3.0206702
183	0xbfab1108	-1.3364573
184	0xbf715322	-0.94267476
185	0xbea07db9	-0.3134592
186	0xbe571c43	-0.21006875
187	0x3d400381	0.04687834
188	0x3de11b9f	0.109915964
189	0xbdfe8d78	-0.12429327
190	0x3eecead0	0.46272898
191	0xbecf8825	-0.40533558
192	0xbe0bb69e	-0.13643882
193	0x3e4a6757	0.19765984
194	0x3e0b029d	0.13575216
195	0x3ef4679c	0.47735298
196	0xbf15fdc6	-0.5859035
197	0x3edf210a	0.43579894
198	0xbe83e4f4	-0.25760615
199	0x3e61e999	0.22061767
200	0xbe7fb8b5	-0.24972804
201	0x3e3a45ab	0.18190639
202	0x3f21cf6c	0.63207126
203	0x3dd2f3ec	0.10300431
204	0xbdba5566	-0.0909832
205	0x3ee76077	0.45190784
206	0x3d98c695	0.074597515
207	0xbede16f6	-0.43376893
208	0x3f366ed8	0.71262884
209	0x3d66167d	0.05617379
210	0x3d2bd2ad	0.041948963
211	0x3ea656e2	0.3248816
212	0xbeecc848	-0.46246552
213	0x3cf74ab6	0.030186992
214	0xbdf13f9d	-0.117797114
215	0xbeb60f8f	-0.35558745
216	0xbf3292a2	-0.69754994
217	0xbf070797	-0.52745956
218	0xbe3ad459	-0.18245067
219	0x3d84c5f5	0.0648307
220	0x3e2ad396	0.16682276
221	0xbdc335e0	-0.0953176
222	0xbcabe283	-0.020982033
223	0xbce8a31b	-0.028398087
224	0xbddb67e0	-0.10713172
225	0x3da52f3e	0.08065651
226	0x3d290d2a	0.04127232
227	0xbd151073	-0.03639264
228	0x3d7d415d	0.061829913
229	0x3e8b6727	0.27227136
230	0x3df7b05b	0.12094184
231	0xbebd8280	-0.37013626
232	0xbdfbe98f	-0.12300407
233	0x3f153745	0.5828746
234	0xbd5f32ca	-0.054491796
235	0x3e4ed31e	0.20197722
236	0xbeab8442	-0.33499342
237	0xbdaf994c	-0.08574161
238	0x3eb59368	0.35464025
239	0xbebaac43	-0.3645955
240	0x3e38320a	0.17987838
241	0xbe030f5a	-0.12798825
242	0xbd85a7fb	-0.0652618
243	0xbe081171	-0.13287903
244	0xbd9a8d18	-0.07546443
245	0xbe6f3ce0	-0.23363066
246	0x3e8c9a44	0.27461445
247	0x3edd7a92	0.43257576
248	0x3e211629	0.1573111
249	0x3ee98cf6	0.45615357
250	0x3ce64200	0.028107643
251	0x3e62213d	0.22082992
252	0xbde64d23	-0.112451814
253	0x3e022701	0.12710191
254	0x3e6a4aeb	0.22880141
255	0xbeafcf0a	-0.34337646

rnn.cell.kernel_r f4 [128, 37]
0	0xbf553377	-0.83281654
1	0xbf0551ed	-0.52078134
2	0xbf82ca9a	-1.0218079
3	0xbf93dbe5	-1.1551481
4	0x3ec88b96	0.39168996
5	0x3e0590a6	0.1304346
6	0xbec27bf0	-0.37985182
7	0xbf31be47	-0.69430965
8	0xbe2dcc5e	-0.16972491
9	0x3bbaf944	0.0057059843
10	0x3d044d16	0.032300077
11	0xbee14f43	-0.44005784
12	0x3eee0e83	0.46495447
13	0x3f3f9dfa	0.7485043
14	0xbf442515	-0.7661908
15	0xbf0ae926	-0.54262006
16	0xbdc00d3b	-0.093775235
17	0x3f5f39e4	0.8719771
18	0xbe8f062b	-0.27934393
19	0xbe192466	-0.14955291
20	0xbe9a4146	-0.30127925
21	0xbfa2e5a9	-1.2726337
22	0xbf995f94	-1.1982293
23	0xbf5ac30e	-0.8545388
24	0xbf99ecae	-1.2025354
25	0x3f7df6da	0.9920479
26	0xbf0d8c47	-0.5529217
27	0x3f7fd42c	0.99933124
28	0x3f836444	1.0264974
29	0x3db542f3	0.0885066
30	0xbe94996a	-0.29023296
31	0xbf7d0f4b	-0.9885146
32	0x3ee4eefc	0.4471358
33	0x3f14d7c0	0.5814171
34	0x3ef17a5e	0.4716367
35	0x3f86dd11	1.0536214
36	0xbf29a2fd	-0.66264325
37	0xbe6a2119	-0.22864188
38	0x3f601907	0.8753819
39	0xbe829312	-0.2550283
40	0x3e9df3a0	0.30849934
41	0xbd0da08c	-0.034576938
42	0xbe969bf5	-0.2941586
43	0xbf347cfc	-0.7050321
44	0xbdb7f6cc	-0.0898262
45	0xbcf89dcd	-0.030348683
46	0x3ef491fc	0.47767627
47	0x3dc27d58	0.09496564
48	0xbf3cc827	-0.7374291
49	0xbe85e71d	-0.26152888
50	0x3cb5bab4	0.022183754
51	0x3e6d3d9a	0.2316803
52	0x3e6853cd	0.22688217
53	0xbfba327c	-1.4546657
54	0xbd3ce34a	-0.046115197
55	0x3dd18afd	0.10231588
56	0xbe01705d	-0.1264052
57	0xbf0b3df1	-0.5439139
58	0x3f84a9d3	1.0364326
59	0x3f2c5361	0.67314726
60	0x3f7031d3	0.93826026
61	0xbf204910	-0.62611485
62	0xbdbff57b	-0.093729936
63	0xbe054e71	-0.13018204
64	0x3c723577	0.014783255
65	0x3d7e9fe6	0.06216421
66	0xbbffad27	-0.007802624
67	0xbdafd89d	-0.085862376
68	0x3f50ff1b	0.8163926
69	0x3f41f89c	0.7576997
70	0x3d4cd38a	0.050006427
71	0x3f72a530	0.94783306
72	0x3eec47a0	0.46148396
73	0x3ecb2b75	0.39681593
74	0x3da33384	0.0796881
75	0xbe04d83f	-0.12973116
76	0x3ea6ce31	0.32579187
77	0x3f06a66e	0.525977
78	0x3d20d901	0.03926945
79	0x3ec1401e	0.3774423
80	0x3f02266f	0.50839895
81	0x3e3cbb43	0.1843081
82	0x3e82b5b5	0.25529256
83	0x3e1ccd7e	0.15312764
84	0x3e7387d0	0.23782277
85	0x3dd7f24b	0.105442606
86	0xbf0b1c61	-0.5434018
87	0xbe5f67f9	-0.21817006
88	0xbe3ff867	-0.18747102
89	0x3f211fa2	0.6293889
90	0x3eafee32	0.34361416
91	0x3e02a894	0.1275962
92	0xbe08fe73	-0.13378315
93	0x3c8b6e88	0.017020479
94	0xbe3e1571	-0.18562867
95	0xbf0b3aa0	-0.5438633
96	0xbe12f387	-0.14350711
97	0x3ed7c2e6	0.42140883
98	0x3ccdc2c1	0.02511728
99	0xbd67a347	-0.056552198
100	0xbd1b46a5	-0.03790917
101	0xbe84e9a2	-0.25959498
102	0x3f29bf33	0.6630737
103	0xbd8dffe3	-0.06933572
104	0xbdb924ed	-0.09040246
105	0xbdb2f7fa	-0.08738704
106	0xbf0d7c61	-0.5526791
107	0x3daf7f93	0.08569255
108	0x3e4ad70e	0.198086
109	0x3d70bdd2	0.058774777
110	0x3d481dd8	0.048856586
111	0xbddf9a7d	-0.10918138
112	0x3c01cc3d	0.007922229
113	0x3e04d911	0.1297343
114	0x3db73d66	0.08947258
115	0x3f1c1bf4	0.60980153
116	0x3eb99891	0.3624921
117	0xbd98feeb	-0.07470497
118	0xbe3a5340	-0.1819582
119	0xbe3abbba	-0.18235675
120	0x3d8322b6	0.06403105
121	0x3db88feb	0.09011825
122	0x3e43707e	0.19085881
123	0xbe84ca8f	-0.2593579
124	0xbe8fea3f	-0.28108403
125	0x3bf80d1a	0.007569921
126	0xbcf3661a	-0.029711772
127	0xbf015397	-0.5051817
128	0xbdaef86e	-0.08543478
129	0x3e3b92ca	0.18317714
130	0xbe14b2f8	-0.14521396
131	0x3e0fc2a4	0.14039093
132	0x3e95d279	0.2926214
133	0x3df899a6	0.12138681
134	0x3dfd475f	0.123671286
135	0x3eba4efb	0.36388382
136	0x3e1437e6	0.14474449
137	0x3e3d8e48	0.18511307
138	0x3ea13112	0.3148275
139	0xbdd6a4ac	-0.104806274
140	0x3e801240	0.25013924
141	0x3d309117	0.04310712
142	0xbd9cd39f	-0.07657551
143	0x3ed47b36	0.41500252
144	0xbee6f21f	-0.451066
145	0x3eb42386	0.35183352
146	0x3ef5bf0c	0.4799732
147	0xbd5e8070	-0.054321706
148	0x3efc0d5d	0.49228945
149	0x3e62377e	0.22091481
150	0xbec3b805	-0.38226333
151	0xbe3b779d	-0.18307348
152	0x3c240d83	0.010012987
153	0xbef3c6b0	-0.47612524
154	0x3f806fbb	1.0034097
155	0xbe61379d	-0.21993871
156	0x3c58aa11	0.013224141
157	0xbf1d1364	-0.6135771
158	0xbf05c76a	-0.52257407
159	0x3f8b983f	1.0905837
160	0xbea891b3	-0.3292366
161	0xbdbd0ca1	-0.092309244
162	0x3eec1ed3	0.46117267
163	0xbe3a571b	-0.1819729
164	0x3ecb900f	0.39758345
165	0xbe180aea	-0.14847913
166	0xbe108a64	-0.14115292
167	0x3df5d778	0.12003988
168	0x3edaa88d	0.4270672
169	0xbe93907d	-0.28821173
170	0xbeb7ee8c	-0.35924184
171	0xbf448e1e	-0.76779354
172	0xbfb300cf	-1.3984622
173	0xbf8bcd27	-1.0921983
174	0x3d81c747	0.06336837
175	0x3e20af71	0.15691926
176	0x3da41246	0.08011298
177	0x3f36e7e3	0.7144758
178	0x3e66cec0	0.22539806
179	0xbebe2439	-0.3713701
180	0xbe53ec75	-0.2069567
181	0xbeffffd4	-0.4999987
182	0xbe86c7f6	-0.26324433
183	0x3d7843b7	0.060611453
184	0xbca33b3e	-0.01992571
185	0xbe1f7a8e	-0.15574095
186	0xbe451104	-0.19244772
187	0x3e237456	0.15962347
188	0xbe15944b	-0.1460735
189	0x3f44efd0	0.76928425
190	0xbf4f79db	-0.8104531
191	0xbebc5c65	-0.3678924
192	0x3e366982	0.17813686
193	0x3e699a1b	0.22812693
194	0xbeeb1362	-0.45913225
195	0xbf0f8ac3	-0.5607111
196	0x3ee9ef76	0.45690507
197	0x3e0c477b	0.13699143
198	0x3ee37644	0.44426167
199	0xbe3c435c	-0.1838507
200	0xbe68c32c	-0.22730702
201	0xbe9c9a2b	-0.3058637
202	0xbc041691	-0.008062021
203	0x3e92abaa	0.28646594
204	0xbe292578	-0.165182
205	0x3f3cbfa7	0.7372994
206	0x3ee5b3ef	0.4486384
207	0x3dda9b92	0.10674204
208	0x3daa1a2b	0.083057724
209	0xbe62a073	-0.22131519
210	0xbe16cc72	-0.14726427
211	0xbf9220eb	-1.1416296
212	0x3c35f369	0.011105397
213	0x3e37fa6e	0.17966625
214	0xbf621033	-0.8830597
215	0x3f3c0108	0.73439074
216	0xbf1582b8	-0.58402586
217	0x3d95c762	0.0731342
218	0xbfc0cc40	-1.5062332
219	0xbe0198e3	-0.12655978
220	0x3e1835c2	0.14864257
221	0xbdad663d	-0.08466766
222	0xbd362f02	-0.044478424
223	0xbc0cf4f3	-0.008603322
224	0xbd7c27de	-0.061561458
225	0x3d2c0000	0.041992188
226	0xbe82d413	-0.25552425
227	0xbe0be9a7	-0.1366335
228	0x3e39df38	0.18151557
229	0x3e3abda4	0.18236405
230	0x3d2d6f90	0.042342722
231	0x3d7c9ddb	0.06167398
232	0xbd6c7ecb	-0.057738107
233	0x3e5c6c65	0.21525724
234	0xbd3edf3c	-0.04659961
235	0x3eafa529	0.34305695
236	0xbd9b765d	-0.075909354
237	0xbe0cbf04	-0.13744742
238	0xbe8be3ce	-0.2732224
239	0x3dc5f0e9	0.096650906
240	0xbd91d9c3	-0.07121613
241	0x3e3f59c2	0.18686584
242	0xbe19070d	-0.14944096
243	0xbdd592d0	-0.10428393
244	0x3e031880	0.12802315
245	0xbd87cc82	-0.06630804
246	0xbe402953	-0.18765764
247	0xbd6c1b2a	-0.057643093
248	0x3dc105c9	0.094249316
249	0x3dc4c2f9	0.096075006
250	0xbe8ba338	-0.27272964
251	0xbd173ea9	-0.03692499
252	0x3dc24bf0	0.0948714
253	0x3d2d4dbf	0.042310473
254	0xbe60ffad	-0.21972533
255	0xbd85a1cb	-0.06525

rnn.cell.kernel_h f4 [128, 37]
0	0x3ee14a30	0.44001913
1	0x3dc6aacc	0.09700546
2	0x3d0a7ee6	0.033812426
3	0xbe995ffb	-0.2995604
4	0xbeef4720	-0.46733952
5	0xbf142899	-0.5787445
6	0xbf55f5c5	-0.8357814
7	0x3e10c89b	0.14139025
8	0xbe86538e	-0.26235622
9	0x3ec0ac1e	0.37631315
10	0x3e215a10	0.15757012
11	0x3f2bc41e	0.67096126
12	0xbe460fda	-0.19341984
13	0x3f9acf87	1.2094582
14	0xbeaa01bb	-0.33204445
15	0x3e4d1a72	0.2002962
16	0xbe965605	-0.29362503
17	0xbdb354a5	-0.08756379
18	0x3f0d7173	0.55251235
19	0x3d3fca20	0.04682362
20	0xbf3dd585	-0.7415393
21	0xbf0216f3	-0.5081627
22	0xbf229d5f	-0.6352138
23	0x3ecee419	0.404084
24	0xbd8c636b	-0.068549
25	0x3e9a3439	0.30117968
26	0x3de7681e	0.11299156
27	0x3f2d4d17	0.67695755
28	0xbecabbae	-0.39596313
29	0xbf0b15b4	-0.5432999
30	0x3f0604bf	0.5235099
31	0xbd6cf9b8	-0.057855338
32	0xbedffdb2	-0.43748242
33	0xbf5a3f64	-0.85252976
34	0xbf9d06de	-1.2267721
35	0x3e08e641	0.13369085
36	0xbf16c02d	-0.58886987
37	0xbe88dc4f	-0.26730582
38	0x3e1f634b	0.15565221
39	0x3c979f16	0.018508475
40	0x3d9d772e	0.07688747
41	0xbf073c95	-0.52826816
42	0xbec10547	-0.3769934
43	0xbea3abb7	-0.31966946
44	0xbf0dfd61	-0.5546475
45	0xbf80f456	-1.0074565
46	0x3e98472b	0.29741797
47	0xbf5216c0	-0.82065964
48	0x3fc72919	1.5559417
49	0xbf37fb72	-0.7186805
50	0xbe29206a	-0.16516271
51	0xbe8ea001	-0.27856448
52	0xbcdf31f5	-0.027245501
53	0x3f1f5c1b	0.62249917
54	0xbf06509f	-0.5246677
55	0xbe04aead	-0.12957259
56	0xbe395978	-0.18100536
57	0x3e4116e9	0.18856396
58	0x3e879650	0.26481867
59	0xbec99879	-0.3937414
60	0xbf2fb137	-0.68629783
61	0xbeaa0f9c	-0.33215034
62	0xbe88d4e1	-0.26724914
63	0xbec7ed68	-0.39048314
64	0xbef79dec	-0.48362672
65	0xbeb070b9	-0.34461
66	0xbe895d84	-0.2682916
67	0xbce534ea	-0.027979333
68	0x3ec185cc	0.3779739
69	0x3e4f3ca4	0.20237976
70	0x3e543cca	0.20726314
71	0x3e18404d	0.14868279
72	0xbf960fdc	-1.172359
73	0x3f34b31c	0.705858
74	0x3e134e4a	0.14385334
75	0x3c6487b1	0.013948367
76	0x3e18e25c	0.14930099
77	0xbc97dcfc	-0.01853799
78	0x3df0b1bb	0.117526494
79	0x3d443e58	0.047911018
80	0x3d712c22	0.05887998
81	0x3d37d4c8	0.04488066
82	0xbe8a145c	-0.26968658
83	0xbd9a1d14	-0.075250775
84	0x3e13c734	0.14431459
85	0xbd014338	-0.031558245
86	0x3cc6c939	0.024265872
87	0x3d88c4bd	0.0667815
88	0x3c8c4ba1	0.017125906
89	0xbe3f9ec3	-0.18712907
90	0xbbc39230	-0.0059683546
91	0x3dfbff9b	0.12304612
92	0x3e1eb60e	0.15499136
93	0xbdd4f8bb	-0.10399004
94	0xbe1e0564	-0.15431744
95	0x3e000182	0.12500575
96	0x3e88dec0	0.26732445
97	0x3db6eab5	0.089314856
98	0xbd775049	-0.0603793
99	0x3ddac7cc	0.106826395
100	0xbe13175f	-0.14364384
101	0x3d8fecfe	0.070276245
102	0x3e08bd3e	0.1335344
103	0x3dc28469	0.094979115
104	0xbd4ed48a	-0.05049566
105	0xbe42ec2b	-0.19035403
106	0xbdcda1d0	-0.10040629
107	0xbcc1639c	-0.023607068
108	0xbe5ade5f	-0.2137389
109	0x3dbdfba6	0.09276514
110	0x3e0ee0af	0.13952897
111	0x3ec2f951	0.38080838
112	0x3ef5c630	0.48002768
113	0xbdb69e20	-0.08916879
114	0x3eb99cdc	0.36252487
115	0xbf3332f0	-0.699996
116	0xbd9433f3	-0.07236471
117	0xbbafc27d	-0.005363761
118	0xbf4f0ee8	-0.8088212
119	0x3ed73cd1	0.42038587
120	0x3e4da19c	0.2008118
121	0x3f0ccca0	0.5499973
122	0xbe3370dc	-0.17523521
123	0x3ed2c555	0.41166177
124	0xbf1a03e3	-0.6016218
125	0x3ee11289	0.43959454
126	0x3f1a99b6	0.60390794
127	0x3e7eb5e3	0.24874072
128	0xbf75e79e	-0.96056545
129	0xbf3ead0c	-0.744828
130	0x3d9b3b90	0.0757972
131	0xbe8c40aa	-0.27393085
132	0xbd02b3fe	-0.031909935
133	0x3e6872d2	0.2270005
134	0xbcd7a1d7	-0.026322288
135	0x3f3ca087	0.73682445
136	0xbf138034	-0.576175
137	0x3fa62012	1.2978537
138	0x3e8e8c66	0.2784149
139	0xbe7ea175	-0.24866278
140	0x3e6dd107	0.23224269
141	0xbec881e3	-0.39161596
142	0x3d86cabe	0.06581639
143	0x3dbae04c	0.091248125
144	0x3ea5fc9c	0.32419288
145	0xbf2cd45a	-0.6751152
146	0x3f62d79b	0.8861024
147	0xbc000f35	-0.007816126
148	0xbee08833	-0.43853912
149	0xbd1603b0	-0.03662461
150	0xbe0445ef	-0.12917303
151	0x3ce630ee	0.028099503
152	0xbb3c0c67	-0.0028693916
153	0xbf26531d	-0.6497057
154	0x3ea48828	0.3213513
155	0x3e025c1e	0.12730452
156	0xbe0a79f9	-0.13523091
157	0xbdbf1fac	-0.09332213
158	0xbea8fc2c	-0.33004892
159	0xbe3a7906	-0.1821023
160	0xbe8640b5	-0.26221243
161	0xbd7fa776	-0.062415563
162	0x3dd71b6e	0.10503279
163	0xbe09b39b	-0.1344742
164	0xbd37fba5	-0.04491772
165	0xbe136b18	-0.14396322
166	0xbe46f4d0	-0.19429326
167	0xbdb4baa1	-0.08824659
168	0x3dd88708	0.1057263
169	0xbd146dd8	-0.036237568
170	0xbe1a0e18	-0.15044439
171	0x3e7a6404	0.24452215
172	0xbda08fc3	-0.0783992
173	0xbe5f6e57	-0.21819435
174	0x3e28b512	0.16475323
175	0x3e86b8cc	0.26312864
176	0x3db651da	0.08902331
177	0xbdb70162	-0.089358106
178	0xbea305ba	-0.31840307
179	0x3cf64d3d	0.030066127
180	0xbe8716b0	-0.26384497
181	0x3e7d6f88	0.24749577
182	0xbe379e8b	-0.17931573
183	0x3eeb36f4	0.45940363
184	0x3dfe3b4d	0.124136545
185	0x3da885ac	0.08228621
186	0xbcba2f0f	-0.022727517
187	0xbe6c5f88	-0.23083317
188	0xbe83b6e5	-0.25725475
189	0x3db2235c	0.086981505
190	0xbdd9ea18	-0.10640353
191	0xbd1a9ccd	-0.037747193
192	0xbebcc665	-0.36870113
193	0x3e07361d	0.13204236
194	0x3d027b8c	0.031856105
195	0x3de72b37	0.112875395
196	0xbdc4c894	-0.0960857
197	0xbbc8ba83	-0.0061257496
198	0x3d7e2fe6	0.0620574
199	0x3e889ba8	0.26681256
200	0xbcbba68b	-0.022906562
201	0xbe8f031c	-0.2793206
202	0x3ca68e28	0.020331457
203	0x3bf8d8ff	0.0075942273
204	0x3d911a44	0.07085088
205	0xbdaeafd8	-0.08529633
206	0xbddc9593	-0.107707165
207	0x3d61c1b4	0.05511637
208	0xbc8a4f5a	-0.01688354
209	0x3d8417a0	0.064498186
210	0xbe1e199a	-0.15439454
211	0x3e065604	0.1311875
212	0x3d9bfe9e	0.07616924
213	0x3d8810b3	0.0664381
214	0x3df70447	0.12061363
215	0x3d4d2b0f	0.050089892
216	0xbe651999	-0.22373046
217	0xbe4466ec	-0.19179887
218	0xbe4e1ce6	-0.20128211
219	0x3d177598	0.03697738
220	0xbe0fb4f0	-0.14033866
221	0x3df49a72	0.119435206
222	0x3f6f0104	0.93360925
223	0x3ea51490	0.3224225
224	0xbb8698c2	-0.0041075656
225	0xbf155488	-0.5833211
226	0x3d078b38	0.033091754
227	0x3f9a2b8f	1.2044543
228	0x3e8802ed	0.26564732
229	0x3dff844b	0.12476405
230	0x3f527e25	0.8222373
231	0x3ef95ff7	0.48706028
232	0x3e178e23	0.14800315
233	0xbf6e6f28	-0.9313836
234	0xbc4aa0f4	-0.012367476
235	0xbddacaf8	-0.106832445
236	0x3f3ea543	0.7447092
237	0xbf2a73b4	-0.665828
238	0x3f425d48	0.75923586
239	0x3e89b854	0.26898444
240	0x3f1ed1c2	0.62038815
241	0xbdd70331	-0.104986556
242	0x3eaf078f	0.34185454
243	0x3fd36529	1.6515247
244	0x3fafd6a4	1.3737378
245	0x3fb9b057	1.450694
246	0x3f2abd0d	0.6669472
247	0xbf2da07a	-0.6782299
248	0xbed3077a	-0.41216642
249	0x3f56974e	0.8382462
250	0xbe1542cf	-0.14576267
251	0x3ee14aef	0.44002482
252	0x3f1e6666	0.61875
253	0xbd98fd11	-0.074701436
254	0x3e12f576	0.14351448
255	0xbea1348c	-0.31485403

rnn.cell.recurrent_kernel_z f4 [128, 128]
0	0x3f1c3cbc	0.61030173
1	0xbdd4fad2	-0.10399403
2	0xbf8c86ad	-1.09786
3	0x3eff2aae	0.4983725
4	0xbed4db73	-0.41573676
5	0x3f17c8dd	0.5929087
6	0xbc9cfd8c	-0.01916387
7	0xbbfe1c89	-0.0077548665
8	0x3f44b2e0	0.7683544
9	0x3f71b79a	0.9442078
10	0x3a8421b6	0.0010080847
11	0x3c7c5a50	0.015402392
12	0x3f7d306a	0.98902
13	0x3ee49877	0.4464757
14	0x3e0ded8a	0.13860145
15	0xbe7ccb11	-0.24686839
16	0xbdf65f4f	-0.120298974
17	0x3eb3e041	0.3513203
18	0xbf03b95b	-0.51454705
19	0x3f5840ff	0.84474176
20	0x3e0fd342	0.14045432
21	0x3f354129	0.7080255
22	0xbfb5f5e8	-1.421567
23	0x3d520b67	0.051280405
24	0x3ea57502	0.32315832
25	0xbea668e2	-0.32501894
26	0x3f6379f1	0.8885794
27	0xbef71e4c	-0.48265302
28	0x3df441df	0.119266264
29	0xbf0419b1	-0.516017
30	0xbeb822b9	-0.3596399
31	0x3f4f5399	0.80986935
32	0xbef7869a	-0.4834488
33	0x3efa6d64	0.48911583
34	0xbede710a	-0.43445617
35	0x3e85bd7a	0.26121122
36	0xbefa9caa	-0.4894765
37	0xbf4370fc	-0.76344275
38	0xbebc93ee	-0.3683161
39	0x3e976c1e	0.29574674
40	0xbef541bf	-0.47901723
41	0x3e961dc1	0.29319575
42	0xbf149803	-0.5804445
43	0xbea0fa7e	-0.3144111
44	0x3e8b5103	0.27210245
45	0xbe43a1fe	-0.19104764
46	0x3ebd7adb	0.37007794
47	0x3f61f96d	0.8827122
48	0x3f182a99	0.5944
49	0x3ea23fc2	0.31689268
50	0xbe2731ea	-0.16327634
51	0xbe974439	-0.29544237
52	0x3f1b2a61	0.6061154
53	0xbe0b58ec	-0.1360814
54	0xbd04309f	-0.03227293
55	0x3ee0600d	0.4382328
56	0xbf29fad9	-0.6639839
57	0x3e2d0530	0.1689651
58	0xbe889c94	-0.2668196
59	0x3ca2f5c9	0.01989259
60	0xbf388d3e	-0.7209052
61	0xbb014180	-0.001972288
62	0xbf8e1407	-1.1099862
63	0xbd1c90e2	-0.03822411
64	0xbef0d4ee	-0.47037452
65	0xbe118544	-0.14210993
66	0xbf2c6751	-0.6734515
67	0xbfa35c4a	-1.2762539
68	0x3ed3774d	0.41301957
69	0xbf39e9e3	-0.7262251
70	0xbedf77cf	-0.43646094
71	0xbfc05ea4	-1.5028882
72	0x3ec031e8	0.37538075
73	0xbee8ac5c	-0.45444
74	0xbe54a04b	-0.20764272
75	0x3e7706e3	0.24123721
76	0x3ef7f48a	0.48428756
77	0xbe4747c6	-0.19460973
78	0x3e18f7f3	0.14938335
79	0x3dda094d	0.10646305
80	0xbf0d5026	-0.5520042
81	0xbe9453bb	-0.2897013
82	0x3cd83c9f	0.026396094
83	0xbca63ba2	-0.020292107
84	0x3eef2d50	0.46714258
85	0x3ed386f0	0.41313887
86	0xbf969e55	-1.1767069
87	0xbf8d47c6	-1.1037529
88	0x3f004a57	0.50113434
89	0xbf5ee886	-0.8707355
90	0xbefa7b62	-0.4892226
91	0xbec4df45	-0.3845159
92	0x3f23aab2	0.63932335
93	0xbe2fed5c	-0.17180389
94	0x3edc29ef	0.43000743
95	0xbf5ea127	-0.8696465
96	0x3e25f794	0.16207725
97	0xbec852a5	-0.39125553
98	0xbe3c61d7	-0.18396698
99	0xbef759bc	-0.4831065
100	0xbe232557	-0.15932213
101	0xbf2e2ac9	-0.68034035
102	0x3f17600e	0.5913094
103	0xbeb3533a	-0.35024434
104	0xbf4a06e7	-0.7891678
105	0xbe8b1638	-0.2716539
106	0x3e38d2dd	0.18049188
107	0xbf5449cd	-0.8292511
108	0xbe2e4cb0	-0.17021441
109	0x3f175e7a	0.59128535
110	0x3f22c452	0.6358081
111	0x3f174c3c	0.591007
112	0x3f4d9b10	0.8031473
113	0xbf7838b8	-0.96961546
114	0x3eaeb3aa	0.34121448
115	0xbdf214d5	-0.1182038
116	0xbf07f86c	-0.53113437
117	0x3f0d2994	0.5514157
118	0x3dcb7f83	0.0993643
119	0xbf15f966	-0.58583677
120	0xbfdb418b	-1.7129377
121	0xbf02b004	-0.5104983
122	0x3edd7744	0.43255055
123	0xbf8e4d5e	-1.111736
124	0x3d116056	0.035492264
125	0x3f34cffd	0.70629865
126	0xbe91396b	-0.2836412
127	0xbf4c9976	-0.7992166
128	0x3f32d956	0.6986288
129	0xbd2502a7	-0.040285733
130	0xbdd8ab64	-0.10579565
131	0x3e706d25	0.23479135
132	0x3f473f9d	0.7783144
133	0x3d8d5fa7	0.0690301
134	0x3f6254bc	0.88410544
135	0x3de18b19	0.11012859
136	0xbe8242b0	-0.25441504
137	0x3f34a254	0.70560193
138	0xbdff91b4	-0.124789625
139	0xbed07056	-0.40710706
140	0xbe0a92d2	-0.1353257
141	0xbdda340c	-0.106544584
142	0xbea8dc76	-0.32980698
143	0x3ea0c89a	0.31403047
144	0xbe787cfd	-0.24266429
145	0x3f8fd8e0	1.123806
146	0xbd7fb0ef	-0.062424596
147	0x3e865180	0.26234055
148	0x3f456de0	0.7712078
149	0xbeaba6df	-0.3352575
150	0x3e21a1b3	0.1578434
151	0x3f130c2c	0.5744045
152	0xbeb0563d	-0.34440795
153	0xbf82bf22	-1.0214579
154	0xbe92186e	-0.28534263
155	0x3e2d8901	0.16946794
156	0xbebac6a8	-0.36479688
157	0x3eeab970	0.45844603
158	0xbf4af0f7	-0.79273933
159	0x3f06494c	0.5245559
160	0xbec854b0	-0.3912711
161	0xbed1d2cb	-0.40981135
162	0x3f3ceb41	0.7379647
163	0x3fbf4873	1.4943985
164	0xbeff5ef5	-0.49877134
165	0x3e82ab5e	0.25521368
166	0xbefc458c	-0.4927181
167	0x3eda064f	0.42582938
168	0xbf65af96	-0.8972105
169	0x3e7120d2	0.23547676
170	0x3ecd5c76	0.40109605
171	0x3d642072	0.055695005
172	0x3e3b3241	0.18280889
173	0xbe17266b	-0.14760749
174	0x3ecb4a3b	0.3970507
175	0x3e1fc5b0	0.15602756
176	0x3e44fb31	0.19236447
177	0x3e8b8443	0.27249345
178	0x3ea83605	0.32853714
179	0xbf0a11a6	-0.5393318
180	0x3e821663	0.25407705
181	0xbf04cba7	-0.5187325
182	0x3eda0276	0.42580003
183	0x3e25ecba	0.16203585
184	0x3e935f6a	0.28783733
185	0xbdb87279	-0.09006209
186	0xbf9ff7bb	-1.2497476
187	0xbeee9053	-0.46594486
188	0x3e3627a5	0.1778856
189	0xbdda7dfd	-0.106685616
190	0xbf214694	-0.6299832
191	0x3f36f017	0.714601
192	0xbf01388d	-0.50476915
193	0xbf54ef8e	-0.8317803
194	0xbf591b32	-0.8480712
195	0xbef39c40	-0.47580147
196	0x3eef88cd	0.46784058
197	0x3d25bd26	0.04046359
198	0x3e410b51	0.18851973
199	0x3ea6c69a	0.32573396
200	0xbf0a35ce	-0.5398835
201	0xbeaf30ef	-0.3421702
202	0x3e0dda22	0.13852742
203	0x3f0414a5	0.51594
204	0xbeca1273	-0.394672
205	0x3eee1346	0.4649908
206	0xbd8a4dab	-0.06753095
207	0x3ead34a0	0.33829212
208	0x3edd8f4b	0.43273386
209	0xbf022b7a	-0.5084759
210	0x3f057dd6	0.52145135
211	0xbf33ed55	-0.70284015
212	0x3c07dfdd	0.008293119
213	0xbf1e5115	-0.6184247
214	0x3ebd79b5	0.37006918
215	0xbe1882cb	-0.14893644
216	0xbf3e7425	-0.7439597
217	0xbf4600f3	-0.773452
218	0xbf525889	-0.82166344
219	0xbeef62d0	-0.46755075
220	0xbd5bb063	-0.053635012
221	0x3ec5072f	0.38482043
222	0x3f1e5990	0.6185541
223	0xbe743729	-0.23849167
224	0xbe3ead32	-0.18620756
225	0xbf731e8f	-0.94968504
226	0xbe8ff7f6	-0.28118867
227	0xbf1bc0eb	-0.60841244
228	0xbe8fb676	-0.28068894
229	0x3ea1e25a	0.31618005
230	0x3f21fd20	0.63276863
231	0x3ee7518e	0.4517941
232	0xbdfc4a26	-0.1231883
233	0x3e848115	0.25879732
234	0x3fb8207b	1.4384912
235	0xbe653971	-0.22385193
236	0xbf274e46	-0.6535381
237	0xbf712a2d	-0.9420498
238	0xbe235ab9	-0.15952577
239	0xbe94e3e7	-0.29080126
240	0x3f553a6b	0.83292264
241	0x3ea0a178	0.3137319
242	0x3f50daa5	0.81583625
243	0x3f56c273	0.83890456
244	0xbf786dc9	-0.9704252
245	0x3dbe4fd5	0.092925705
246	0x3eedd6ef	0.46453044
247	0xbd6fd51f	-0.058552857
248	0x3f0d328b	0.5515525
249	0xbf2d207e	-0.67627704
250	0xbf10bcc2	-0.5653802
251	0x3f481420	0.7815571
252	0xbe19207f	-0.14953803
253	0x3e5609b7	0.20902143
254	0xbf0d2ed8	-0.551496
255	0x3e9ea440	0.30984688

rnn.cell.recurrent_kernel_r f4 [128, 128]
0	0xbeb28e22	-0.34874064
1	0xbe93f909	-0.28900936
2	0xbf2c000a	-0.6718756
3	0x3f33de48	0.7026105
4	0xbe4cceaf	-0.20000719
5	0x3f0792db	0.5295846
6	0xbf1e0f08	-0.61741686
7	0x3e0965cc	0.13417739
8	0xbed0f906	-0.4081499
9	0x3e8dad86	0.2767145
10	0x3e1b4575	0.15163215
11	0xbe863d60	-0.262187
12	0xbde0f34c	-0.10983905
13	0xbdd16516	-0.10224359
14	0xbfbb7999	-1.4646484
15	0xbf3ab2ec	-0.72929263
16	0x3e2edca9	0.17076363
17	0xbeb4fca7	-0.35349008
18	0xbea52360	-0.3225355
19	0xbd1986de	-0.037482135
20	0xbe8a5cc1	-0.2702389
21	0x3e8e364a	0.27775794
22	0x3f5943db	0.84869164
23	0x3f049446	0.5178875
24	0x3ecf0a97	0.40437767
25	0x3eae2f5b	0.34020504
26	0xbf51b946	-0.8192333
27	0xbf693ba7	-0.9110665
28	0x3e971ed9	0.29515722
29	0x3f156fb4	0.5837357
30	0x3e8deac3	0.2771817
31	0xbe1ce54d	-0.15321846
32	0x3c0a6c17	0.008448622
33	0x3eabd080	0.3355751
34	0xbec45cad	-0.38351956
35	0xbebb98c2	-0.36639982
36	0x3eaedd10	0.34153032
37	0x3db9c249	0.0907026
38	0x3e5aeceb	0.2137944
39	0x3f4627df	0.7740459
40	0xbd6b055f	-0.05737817
41	0xbe78ad05	-0.24284752
42	0x3ec17134	0.3778168
43	0xbe6ce5df	-0.23134564
44	0x3ef60dca	0.48057395
45	0xbef9958d	-0.4874691
46	0xbecadee5	-0.3962318
47	0xbf6777be	-0.9041709
48	0x3f044bdf	0.5167827
49	0x3f791043	0.9729044
50	0xbed59f54	-0.4172312
51	0xbeb133e7	-0.3460991
52	0x3dd62dee	0.10457979
53	0xbf9d8abf	-1.2307967
54	0xbea5e7c3	-0.32403383
55	0x3ebf66e8	0.373832
56	0x3e788a08	0.24271405
57	0x3e6d01bd	0.23145194
58	0x3e97cb51	0.29647306
59	0x3e45dcca	0.19322506
60	0xbebe7c3f	-0.37204167
61	0x3f4f8562	0.810629
62	0x3ea9164f	0.33024833
63	0xbe85ea60	-0.26155376
64	0x3f446ff5	0.7673333
65	0x3f40f247	0.75369686
66	0x3dc56a22	0.09639384
67	0x3b68a1df	0.0035496873
68	0x3ecc712a	0.39930087
69	0xbf501493	-0.81281394
70	0xbe4a783c	-0.19772428
71	0x3ebca20b	0.3684238
72	0xbda89fa0	-0.08233571
73	0x3e82ed84	0.25571835
74	0xbf863006	-1.0483406
75	0x3f35fadd	0.7108591
76	0x3e0dc09c	0.13843006
77	0x3e102935	0.14078219
78	0x3ec10b19	0.3770378
79	0xbe48b62c	-0.19600743
80	0xbe2f2cfe	-0.17107007
81	0xbf15e546	-0.5855297
82	0xbe6466e2	-0.22304872
83	0x3edfcbdb	0.43710217
84	0x3ed3398d	0.41254845
85	0xbe136f95	-0.14398034
86	0xbe3f29e4	-0.18668324
87	0xbf4d0f12	-0.8010112
88	0xbde3a7cb	-0.11115988
89	0xbe8db4ed	-0.27677098
90	0x3efbe642	0.4919911
91	0x3c1e3d83	0.00965822
92	0x3efd9a6c	0.49531877
93	0xbd4cc1a3	-0.049989354
94	0xbd7220c6	-0.059113286
95	0xbf54975e	-0.8304347
96	0xbf683096	-0.90699136
97	0x3f7d4cba	0.989452
98	0xbf8fdfb8	-1.1240149
99	0xbe89255c	-0.26786315
100	0xbe9cfe42	-0.30662733
101	0xbe2ee6ae	-0.17080185
102	0x3e411f6d	0.18859644
103	0xbe4357c7	-0.19076453
104	0x3ebea889	0.37237957
105	0x3fa0a453	1.2550148
106	0xbdd148a1	-0.10218931
107	0xbf3c3d1a	-0.73530734
108	0xbf16c7a4	-0.5889838
109	0x3e7eb0a5	0.24872072
110	0xbe9379d5	-0.28803888
111	0x3d2d0129	0.042237435
112	0x3d9fe932	0.0780815
113	0x3e76a850	0.24087644
114	0xbe36874b	-0.17825048
115	0xbe88eb97	-0.2674224
116	0x3f103494	0.5633023
117	0x3e48e071	0.19616868
118	0xbe420117	-0.18945728
119	0x3f48b738	0.7840457
120	0xbf2a9636	-0.66635454
121	0xbe5e0b98	-0.2168411
122	0x3f63c036	0.88965166
123	0x3f122547	0.5708813
124	0xbe8919ea	-0.26777583
125	0xbf3c4f0c	-0.73558116
126	0xbf237ea9	-0.63865143
127	0xbf4e0b21	-0.8048573
128	0x3e80b083	0.25134668
129	0x3e80a1fd	0.25123587
130	0xbe0f6f7d	-0.14007373
131	0xbedc3ee9	-0.43016747
132	0x3e284fed	0.1643674
133	0xbf1fa351	-0.62358576
134	0xbe884a24	-0.26619065
135	0x3b9f3857	0.004859011
136	0x3eb915b9	0.36149386
137	0x3d88a7cb	0.06672629
138	0x3e939f61	0.28832534
139	0x3def1b2c	0.116751045
140	0x3e425c4c	0.18980521
141	0xbe1d50f5	-0.15362914
142	0x3e8c8337	0.2744386
143	0xbe5aec3e	-0.21379182
144	0xbe465ba2	-0.19370893
145	0x3f2cc7ea	0.67492545
146	0x3ea5155d	0.3224286
147	0x3e469728	0.19393599
148	0x3d02708e	0.03184562
149	0xbe815bb4	-0.25265276
150	0xbf10e911	-0.5660563
151	0xbd35d0d0	-0.044388592
152	0x3e5254dd	0.20540185
153	0xbe302cb2	-0.1720455
154	0x3e3c6d6d	0.18401118
155	0x3f1e0132	0.61720574
156	0x3f045f14	0.5170758
157	0x3ecaa677	0.39580128
158	0xbe4e5ad0	-0.2015183
159	0xbdfedf5d	-0.12444947
160	0xbf543e24	-0.8290732
161	0x3c7d5134	0.015461255
162	0x3e8217ee	0.25408882
163	0x3eb40a6d	0.35164204
164	0xbe98ab3a	-0.29818135
165	0xbd75d365	-0.060016055
166	0xbeebfaac	-0.46089685
167	0x3e40bd85	0.18822296
168	0x3eb5a8fc	0.35480487
169	0xbc88d1da	-0.016701628
170	0xbeb9f37a	-0.3631857
171	0xbe869ff8	-0.2629392
172	0xbe038375	-0.12843116
173	0xbf386510	-0.7202921
174	0x3de44241	0.111454494
175	0x3da75761	0.08170963
176	0x3c8590a7	0.016304327
177	0xbe90bc92	-0.28268868
178	0x3e0b6f03	0.13616566
179	0xbefb26e2	-0.49053103
180	0x3cb22d7e	0.021750208
181	0xbe4ffd11	-0.20311381
182	0xbd0fd89c	-0.035118684
183	0x3e3f3239	0.18671502
184	0xbe6d1fcb	-0.2315666
185	0x3dbc7002	0.09201051
186	0x3d6c4590	0.057683527
187	0xbd97473a	-0.07386632
188	0xbe4e617e	-0.20154378
189	0xbeb40bdc	-0.35165298
190	0xbec95c83	-0.39328393
191	0x3ee7b20c	0.45253026
192	0x3daf8cba	0.08571763
193	0xbef69f96	-0.4816863
194	0xbf96995a	-1.1765549
195	0xbf059215	-0.5217603
196	0xbd9f3768	-0.0777424
197	0xbca0ae73	-0.019614434
198	0xbebf552e	-0.37369674
199	0x3e527912	0.20553997
200	0xbf0a7180	-0.5407944
201	0xbeea3fc2	-0.45751768
202	0x3d8cff3b	0.06884619
203	0x3e522555	0.20522054
204	0xbf7860af	-0.9702253
205	0x3eb8df23	0.3610774
206	0xbedd70a0	-0.4324999
207	0x3e13aa15	0.1442035
208	0x3eaa2281	0.3322945
209	0xbf25d5ac	-0.6477916
210	0xbd7713d4	-0.060321644
211	0xbdfc0fca	-0.12307699
212	0x3e2dffbc	0.16992086
213	0xbe7dad2a	-0.24773088
214	0xbe865123	-0.26233777
215	0xbf13bfdb	-0.57714623
216	0x3e20c276	0.15699181
217	0x3e32c9aa	0.17459741
218	0xbe9163e6	-0.2839653
219	0x3df99c63	0.121880315
220	0x3e20723c	0.15668577
221	0x3cb6c044	0.022308476
222	0x3ef898af	0.48553988
223	0x3e6cb38a	0.23115364
224	0x3e439383	0.1909924
225	0xbd790d09	-0.060803447
226	0x3e91017e	0.2832145
227	0xbcdf6efd	-0.027274603
228	0x3e7aa803	0.24478154
229	0x3e294078	0.16528499
230	0xba305c9d	-0.00067276676
231	0x3d97319a	0.073825076
232	0xbe41e674	-0.18935567
233	0xbe4e0375	-0.20118506
234	0x3ec47822	0.38372904
235	0x3da3cab7	0.07997649
236	0xbea69230	-0.32533407
237	0xbea8cf7c	-0.32970798
238	0x3e9bde21	0.30442908
239	0xbe360575	-0.17775519
240	0x3f86fd35	1.0546023
241	0xbf2bec6f	-0.67157644
242	0x3f00a01b	0.502443
243	0x3e61d69a	0.2205452
244	0xbed70ff6	-0.42004365
245	0xbd1344ab	-0.03595416
246	0x3dbce203	0.09222796
247	0xbeb3bdcd	-0.35105744
248	0x3e20ec6d	0.1571519
249	0xbf0df06b	-0.55444974
250	0xbe664461	-0.22487022
251	0xbef40588	-0.4766047
252	0xbe31fdb6	-0.1738194
253	0x3e5c54ce	0.21516725
254	0xbe770216	-0.2412189
255	0xbe041856	-0.12899908

rnn.cell.recurrent_kernel_h f4 [128, 128]
0	0xbf2da817	-0.6783461
1	0xbe7b8fbf	-0.24566554
2	0xbfdbc389	-1.7169048
3	0x3ebfeea1	0.37486747
4	0x3f052825	0.5201438
5	0x3f6a6ee0	0.9157543
6	0xbdb3bf5f	-0.087767355
7	0x3d26e788	0.04074815
8	0xbec2ed32	-0.3807159
9	0xbd109155	-0.03529485
10	0x3df398f4	0.11894408
11	0xbf5a4906	-0.85267675
12	0xbd62c6f7	-0.05536553
13	0x3f314f7f	0.69261926
14	0xbec6baa4	-0.3881427
15	0x3d4b68e5	0.049660582
16	0xbe8dbe97	-0.2768447
17	0xbeafc9ab	-0.34333548
18	0x3ee4796c	0.44623888
19	0x3c544ee0	0.012958258
20	0x3ee2c138	0.4428804
21	0x3d803366	0.062598035
22	0x3e014da5	0.12627275
23	0xbdb44e94	-0.0880405
24	0xbe3697c5	-0.17831333
25	0xbd3468e5	-0.044045348
26	0xbe37ef97	-0.1796249
27	0xbdd22834	-0.102615744
28	0x3d3c9772	0.046042867
29	0x3e7d0d57	0.2471212
30	0xbef50333	-0.47854003
31	0x3e8929ee	0.26789802
32	0x3d74310a	0.05961708
33	0x3d5466c2	0.05185581
34	0xbe00c6dc	-0.12575859
35	0x3e8af2a9	0.2713826
36	0xbefa14d8	-0.48844028
37	0xbe90177e	-0.28142923
38	0xbe6e95d8	-0.23299348
39	0x3fce81f9	1.6133415
40	0xbdd3ed5f	-0.10348009
41	0x3ca2c04b	0.019867083
42	0x3f7e8239	0.99417454
43	0x3edf6dd3	0.43638477
44	0xbea5566a	-0.3229249
45	0x3c38ae14	0.011271972
46	0xbefc2210	-0.49244738
47	0xbee35728	-0.44402432
48	0xbe07248b	-0.13197534
49	0xbe571e83	-0.21007733
50	0xbdf3c899	-0.11903495
51	0x3e01d1c5	0.12677677
52	0xbdca8fd2	-0.09890713
53	0xbf3421ef	-0.7036428
54	0xbf07a679	-0.5298839
55	0xbe2a7f73	-0.1665018
56	0x3e01eb56	0.1268743
57	0xbe059dee	-0.13048527
58	0xbf118947	-0.56850094
59	0xbeb093f7	-0.34487888
60	0xbe0be094	-0.13659889
61	0xbd141ad0	-0.036158383
62	0xbe095622	-0.13411763
63	0x3e24726a	0.1605927
64	0x3e2847f8	0.16433704
65	0x3c37bba7	0.011214173
66	0xbea2951a	-0.3175438
67	0x3fa8da21	1.3191568
68	0x3ba635c4	0.0050723273
69	0xbcd781f1	-0.026307078
70	0xbe314723	-0.17312293
71	0x3df42779	0.11921591
72	0xbc6bbe53	-0.014388639
73	0xbe5f3a8c	-0.21799678
74	0x3d1186f6	0.0355291
75	0xbdd3519d	-0.10318301
76	0xbe890570	-0.2676196
77	0xbcf8b30c	-0.030358814
78	0x3e07ac50	0.13249326
79	0xbd89a9dc	-0.06721851
80	0xbe8e3430	-0.2777419
81	0x3e3f95d6	0.18709502
82	0xbc0a195f	-0.0084289005
83	0x3efb98e8	0.49140096
84	0x3e034cd3	0.12822275
85	0xbe2ad3e3	-0.16682391
86	0x3e2a6306	0.16639337
87	0xbdd70d7f	-0.10500621
88	0xbdf2ee98	-0.118619144
89	0xbbc67109	-0.0060559553
90	0xbd878fb9	-0.0661921
91	0x3e132040	0.14367771
92	0xbf3d17d9	-0.73864514
93	0xbd20164b	-0.03908376
94	0xbd31ce78	-0.043409795
95	0xbc03b590	-0.008038893
96	0xbdaebcfd	-0.085321404
97	0xbdc59653	-0.09647813
98	0x3cf55a8b	0.0299504
99	0xbeab8eea	-0.33507472
100	0xbc2146ac	-0.00984351
101	0xbe62ca01	-0.22147371
102	0x3e4574d6	0.1928285
103	0x3e7be9c2	0.2460089
104	0x3ee178e0	0.44037533
105	0xbeb5c439	-0.35501269
106	0x3e8058f5	0.2506787
107	0xbd1c2b15	-0.038127024
108	0x3f09d431	0.53839403
109	0xbdb15f01	-0.08660699
110	0x3dad18d8	0.08452004
111	0xbe30cc87	-0.17265521
112	0xbf6e64ef	-0.9312276
113	0x3e63aa8c	0.22233027
114	0x3e09c665	0.13454588
115	0x3e16e38d	0.14735241
116	0x3e551937	0.208104
117	0xbf33ed6e	-0.70284164
118	0xbe3c72b5	-0.18403132
119	0xbd062c58	-0.032757133
120	0xbe2dca64	-0.16971737
121	0x3dd8dac5	0.10588602
122	0x3ed353bd	0.41274825
123	0x3c647e57	0.013946137
124	0xbf054d20	-0.5207081
125	0x3d5efcff	0.054440495
126	0xbe54c135	-0.20776828
127	0xbe902bbe	-0.28158373
128	0xbeb6777c	-0.35638034
129	0xbed2bb8b	-0.4115871
130	0x3da63d98	0.08117217
131	0xbea52283	-0.32252893
132	0x3f5afeed	0.85545236
133	0x3e75b887	0.23996173
134	0x3e8d30af	0.27576205
135	0x3dc18616	0.09449403
136	0xbe87a9e3	-0.264968
137	0x3dde8d79	0.108668275
138	0xbddba44b	-0.10724696
139	0x3eb0371f	0.34417054
140	0x3e670050	0.22558713
141	0x3f199a26	0.60000837
142	0xbdf9c991	-0.12196649
143	0x3e4a3c64	0.197496
144	0x3dd61874	0.10453883
145	0x3f01ec10	0.5075083
146	0x3d21d15f	0.039506312
147	0x3e256e96	0.16155466
148	0x3dcf278e	0.10114966
149	0xbde5cd54	-0.11220804
150	0xbf0137a4	-0.50475526
151	0x3ecf94ec	0.40543306
152	0x3dc39545	0.09549955
153	0xbea93d15	-0.33054414
154	0xbeb07fc2	-0.3447247
155	0x3ea28fbe	0.31750292
156	0x3e805c92	0.25070626
157	0xbd05d0de	-0.032669894
158	0x3f29213b	0.6606633
159	0x3d2de962	0.0424589
160	0xbe2c2622	-0.16811422
161	0x3e59eaa9	0.21280922
162	0xbd67e924	-0.056618825
163	0xbdc87813	-0.09788527
164	0x3f68eace	0.90983284
165	0x3ec749f4	0.3892361
166	0x3b7cd4e0	0.0038579032
167	0xbf7c3dff	-0.985321
168	0xbe4f46d5	-0.20241864
169	0xbd8975c2	-0.06711914
170	0x3f3ddd69	0.7416597
171	0x3e99256e	0.2991137
172	0xbec720ef	-0.38892314
173	0xbb66c55a	-0.0035212846
174	0x3f36b745	0.713734
175	0xbe539104	-0.20660788
176	0xbe7509d3	-0.23929529
177	0xbcf730dd	-0.030174667
178	0xbdad860e	-0.084728345
179	0x3f5e54df	0.86848253
180	0xbe30c054	-0.17260867
181	0x3e71b559	0.23604335
182	0xbeceba79	-0.40376642
183	0xbedc1480	-0.4298439
184	0xbcbcdb08	-0.023053661
185	0xbdd3d35a	-0.103430465
186	0x3f46ee55	0.77707416
187	0x3e89162b	0.26774725
188	0xbc90dfb9	-0.017684804
189	0xbdd21cdf	-0.10259413
190	0xbea8cdcb	-0.32969508
191	0xbde9090b	-0.11378678
192	0xbebf5039	-0.37365893
193	0x3d0c9f9b	0.0343319
194	0x3f17c3b6	0.59283006
195	0xbed829a6	-0.42219275
196	0xbe6e49dd	-0.23270364
197	0xb9ecbc22	-0.00045153598
198	0xbe296580	-0.16542625
199	0xbe0dbab1	-0.13840748
200	0x3dfab3a4	0.12241295
201	0x3d65c14d	0.05609255
202	0x3e34c480	0.17653084
203	0x3d3fa070	0.046783864
204	0xbf1c3e66	-0.6103271
205	0xbdc496a5	-0.09599046
206	0x3e2350c4	0.15948778
207	0xbe659f65	-0.22424085
208	0xbddcbd44	-0.10778287
209	0x3e93ef13	0.28893337
210	0xbdd7f8a8	-0.10545474
211	0xbef2fdbb	-0.47459206
212	0xbe21b334	-0.15791017
213	0xbe8800a7	-0.26562998
214	0x3ddd188e	0.10795699
215	0x3eb39f09	0.35082272
216	0xbdf9f7f0	-0.122054935
217	0xbcfaa63e	-0.030596849
218	0xbf01d161	-0.5071011
219	0x3e833b2f	0.2563109
220	0xbd868a19	-0.06569309
221	0x3d3f4a7f	0.046701904
222	0xbe3a5e2a	-0.18199983
223	0xbd31ed03	-0.043438923
224	0xbe6e0dee	-0.23247501
225	0xb9c20b93	-0.00037011187
226	0x3dfcd233	0.1234478
227	0x3e4f2655	0.20229466
228	0x3db36769	0.08759958
229	0xbc1369a0	-0.008997351
230	0x3e339270	0.1753633
231	0x3e7ef54c	0.24898261
232	0x3ebe1e22	0.37132365
233	0xbed1ee59	-0.41002157
234	0xbf0c14af	-0.5471906
235	0xbe9cced6	-0.30626553
236	0xbf0a97eb	-0.5413806
237	0x3d1bc389	0.038028274
238	0xbde3819d	-0.11108706
239	0x3e510ee4	0.20415837
240	0x3ef15291	0.47133306
241	0x3ed5f267	0.417865
242	0x3eafef0c	0.34362066
243	0x3f1f723d	0.6228369
244	0xbe9b3361	-0.30312636
245	0x3eeed6d1	0.46648267
246	0x3da108d3	0.07863011
247	0xbd8b5c36	-0.06804697
248	0xbe89eb6d	-0.26937428
249	0xbe03d4b2	-0.12874106
250	0x3deddc78	0.11614317
251	0x3e790104	0.24316794
252	0xbf2e14e1	-0.6800061
253	0xbc7fc648	-0.015611239
254	0xbeaf84d2	-0.3428102
255	0x3e5d52db	0.21613638

rnn.cell.bias_z f4 [128]
0	0x41041a00	8.256348
1	0x00000584	1.979e-42
2	0x00000000	0.0
3	0x00000000	0.0
4	0x00000000	0.0
5	0x00000000	0.0
6	0x00000000	0.0
7	0x00000000	0.0
8	0x00000000	0.0
9	0x00000000	0.0
10	0x00000000	0.0
11	0x00000000	0.0
12	0x00000000	0.0
13	0x00000000	0.0
14	0x00000000	0.0
15	0x00000000	0.0
16	0x00000000	0.0
17	0x00000000	0.0
18	0x00000000	0.0
19	0x00000000	0.0
20	0x00000000	0.0
21	0x00000000	0.0
22	0x00000000	0.0
23	0x00000000	0.0
24	0x00000000	0.0
25	0x00000000	0.0
26	0x00000000	0.0
27	0x00000000	0.0
28	0x00000000	0.0
29	0x00000000	0.0
30	0x00000000	0.0
31	0x00000000	0.0
32	0x00000000	0.0
33	0x00000000	0.0
34	0x00000000	0.0
35	0x00000000	0.0
36	0x00000000	0.0
37	0x00000000	0.0
38	0x00000000	0.0
39	0x00000000	0.0
40	0x00000000	0.0
41	0x00000000	0.0
42	0x00000000	0.0
43	0x00000000	0.0
44	0x00000000	0.0
45	0x00000000	0.0
46	0x00000000	0.0
47	0x00000000	0.0
48	0x00000000	0.0
49	0x00000000	0.0
50	0x00000000	0.0
51	0x00000000	0.0
52	0x00000000	0.0
53	0x00000000	0.0
54	0x00000000	0.0
55	0x00000000	0.0
56	0x00000000	0.0
57	0x00000000	0.0
58	0x00000000	0.0
59	0x00000000	0.0
60	0x00000000	0.0
61	0x00000000	0.0
62	0x00000000	0.0
63	0x00000000	0.0
64	0x00000000	0.0
65	0x00000000	0.0
66	0x00000000	0.0
67	0x00000000	0.0
68	0x00000000	0.0
69	0x00000000	0.0
70	0x00000000	0.0
71	0x00000000	0.0
72	0x00000000	0.0
73	0x00000000	0.0
74	0x00000000	0.0
75	0x00000000	0.0
76	0x00000000	0.0
77	0x00000000	0.0
78	0x00000000	0.0
79	0x00000000	0.0
80	0x00000000	0.0
81	0x00000000	0.0
82	0x00000000	0.0
83	0x00000000	0.0
84	0x00000000	0.0
85	0x00000000	0.0
86	0x00000000	0.0
87	0x00000000	0.0
88	0x00000000	0.0
89	0x00000000	0.0
90	0x00000000	0.0
91	0x00000000	0.0
92	0x00000000	0.0
93	0x00000000	0.0
94	0x00000000	0.0
95	0x00000000	0.0
96	0x00000000	0.0
97	0x00000000	0.0
98	0x00000000	0.0
99	0x00000000	0.0
100	0x00000000	0.0
101	0x00000000	0.0
102	0x00000000	0.0
103	0x00000000	0.0
104	0x00000000	0.0
105	0x00000000	0.0
106	0x00000000	0.0
107	0x00000000	0.0
108	0x00000000	0.0
109	0x00000000	0.0
110	0x00000000	0.0
111	0x00000000	0.0
112	0x00000000	0.0
113	0x00000000	0.0
114	0x00000000	0.0
115	0x00000000	0.0
116	0x00000000	0.0
117	0x00000000	0.0
118	0x00000000	0.0
119	0x00000000	0.0
120	0x00000000	0.0
121	0x00000000	0.0
122	0x00000000	0.0
123	0x00000000	0.0
124	0x00000000	0.0
125	0x00000000	0.0
126	0x00000000	0.0
127	0x00000000	0.0

rnn.cell.bias_r f4 [128]
0	0x41040e00	8.253418
1	0x00000584	1.979e-42
2	0x3f68ae0f	0.9089059
3	0xbf8c0ee3	-1.0942043
4	0x3f0ad308	0.5422826
5	0xbee88483	-0.45413598
6	0xbe320cd7	-0.1738771
7	0x3ef949dc	0.48689163
8	0x3f8bbd0c	1.0917068
9	0xbf951f94	-1.1650262
10	0xbdb6ce76	-0.08926098
11	0xbd87903b	-0.06619307
12	0x3d95b07a	0.07309051
13	0x3c166ac8	0.009180732
14	0x3e65d421	0.22444202
15	0xbea59574	-0.32340586
16	0x3fa1eaf3	1.2649826
17	0xbf8f3a24	-1.1189618
18	0xbf76b049	-0.9636274
19	0x3fac5c63	1.3465694
20	0x3f368cbb	0.7130849
21	0xbf325ef8	-0.6967616
22	0xbf43d1fb	-0.7649228
23	0x3f298dc5	0.6623195
24	0x3f8fb79f	1.1227912
25	0xbf8eedf7	-1.1166371
26	0xbdcba280	-0.09943104
27	0x3e51a860	0.20474386
28	0x3dc7883b	0.09742781
29	0xbc8e869c	-0.017398171
30	0x3f3ce2bc	0.7378347
31	0xbf0834f2	-0.5320579
32	0x3fc25b2b	1.5184072
33	0xbfcac78d	-1.5842148
34	0xbe7a2fe3	-0.2443233
35	0x3ef87d94	0.48533309
36	0xbfacce87	-1.3500527
37	0x3fc2fe6a	1.5233891
38	0x3fc04ffb	1.5024408
39	0xbfa454b5	-1.283835
40	0x3f6d00a1	0.92579085
41	0xbef425b4	-0.47685015
42	0x3fd3f58f	1.6559314
43	0xbfe6fe6f	-1.8046397
44	0xbea58672	-0.32329136
45	0x3f1dfc94	0.6171353
46	0x3e48b9fa	0.19602194
47	0xbdeb86ef	-0.11500346
48	0xbf4fd79c	-0.8118837
49	0x3f52ff1e	0.8242053
50	0x3f616489	0.8804403
51	0xbf5315b0	-0.8245497
52	0xbd3f2448	-0.04666546
53	0x3d820377	0.06348317
54	0x3f329ea7	0.69773334
55	0xbf7a5397	-0.977838
56	0x3f866182	1.0498507
57	0xbf825169	-1.0181094
58	0xbefb823c	-0.49122798
59	0x3f27e993	0.6559078
60	0x3f5e67dd	0.8687723
61	0xbf870801	-1.0549318
62	0x3f5351bc	0.8254659
63	0xbf4c3f65	-0.7978423
64	0xbeb0410a	-0.3442462
65	0x3f218106	0.630875
66	0x40041d73	2.0642974
67	0xc01fb22c	-2.4952497
68	0x3f0856ba	0.53257334
69	0xbeadbf4a	-0.33935004
70	0x3e475dde	0.19469401
71	0xbd62e7fe	-0.055397026
72	0x3dc3f1a0	0.09567571
73	0xbe756b42	-0.23966697
74	0x3ec4507c	0.38342655
75	0xbee2facc	-0.44331968
76	0xbf763c71	-0.96185976
77	0x3f8ef2a9	1.1167804
78	0xbe49c68b	-0.19704644
79	0x3ea4cac8	0.3218596
80	0x3f43e5dd	0.7652262
81	0xbf41fc9d	-0.7577608
82	0x3beace40	0.0071657
83	0x3d0c3a92	0.034235545
84	0x3f9080c5	1.1289297
85	0xbfa8a1b5	-1.3174349
86	0x3f86be93	1.0526909
87	0xbf8e9cff	-1.1141661
88	0xbde3bfaa	-0.111205414
89	0x3d64d5ca	0.055867948
90	0xbd6780e4	-0.056519404
91	0xbd53d94e	-0.05172091
92	0xbdf9a394	-0.12189403
93	0x3e80ad05	0.25132003
94	0xbeb912d2	-0.3614717
95	0x3edac744	0.42730153
96	0x3dc7b726	0.0975173
97	0xbe566694	-0.20937568
98	0xbf4ef57b	-0.80843323
99	0x3f800084	1.0000157
100	0x3efa973c	0.48943508
101	0xbed1fe7c	-0.4101447
102	0x3f5b02c3	0.8555109
103	0xbf154576	-0.58309114
104	0xbd39af00	-0.04533291
105	0xbcfd97ec	-0.030956231
106	0x402f9bae	2.743877
107	0xc041c544	-3.0276651
108	0xbf0b73a3	-0.5447332
109	0x3f61942d	0.88116723
110	0x3e5a0301	0.21290208
111	0xbeb7e4f6	-0.3591687
112	0xbe897cee	-0.26853126
113	0x3f004052	0.50098145
114	0xbf8cc455	-1.0997416
115	0x3fa49a6d	1.2859627
116	0x3f2d5539	0.67708164
117	0xbf24258a	-0.6411978
118	0xbf1cf2a7	-0.6130776
119	0x3f775540	0.96614456
120	0xbef52dc6	-0.47886485
121	0x3f0595f2	0.52181923
122	0x3f5f0ebe	0.8713187
123	0xbf56ee60	-0.8395748
124	0xbf57627b	-0.84134644
125	0x3f9039dd	1.1267658
126	0x3f6d8408	0.9277959
127	0xbf8b1910	-1.0867023

rnn.cell.bias_h f4 [128]
0	0x41042000	8.2578125
1	0x00000584	1.979e-42
2	0x00000000	0.0
3	0x00000000	0.0
4	0x00000000	0.0
5	0x00000000	0.0
6	0x00000000	0.0
7	0x00000000	0.0
8	0x00000000	0.0
9	0x00000000	0.0
10	0x00000000	0.0
11	0x00000000	0.0
12	0x00000000	0.0
13	0x00000000	0.0
14	0x00000000	0.0
15	0x00000000	0.0
16	0x00000000	0.0
17	0x00000000	0.0
18	0x00000001	1e-45
19	0x00000000	0.0
20	0x00000000	0.0
21	0x00000000	0.0
22	0x00000000	0.0
23	0x00000000	0.0
24	0x00000000	0.0
25	0x00000000	0.0
26	0x00000000	0.0
27	0x00000000	0.0
28	0x00000000	0.0
29	0x00000000	0.0
30	0x00000000	0.0
31	0x00000000	0.0
32	0x00000000	0.0
33	0x00000000	0.0
34	0x00000001	1e-45
35	0x00000000	0.0
36	0x00000001	1e-45
37	0x00000000	0.0
38	0x00000000	0.0
39	0x00000000	0.0
40	0x00000000	0.0
41	0x00000000	0.0
42	0x00000000	0.0
43	0x00000000	0.0
44	0x00000000	0.0
45	0x00000000	0.0
46	0x00000000	0.0
47	0x00000000	0.0
48	0x00000000	0.0
49	0x00000000	0.0
50	0x00000001	1e-45
51	0x00000000	0.0
52	0x00000000	0.0
53	0x00000000	0.0
54	0x00000000	0.0
55	0x00000000	0.0
56	0x00000000	0.0
57	0x00000000	0.0
58	0x00000000	0.0
59	0x00000000	0.0
60	0x00000000	0.0
61	0x00000000	0.0
62	0x00000000	0.0
63	0x00000000	0.0
64	0x00000001	1e-45
65	0x00000000	0.0
66	0x00000000	0.0
67	0x00000000	0.0
68	0x00000000	0.0
69	0x00000000	0.0
70	0x00000000	0.0
71	0x00000000	0.0
72	0x00000000	0.0
73	0x00000000	0.0
74	0x00000000	0.0
75	0x00000000	0.0
76	0x00000001	1e-45
77	0x00000000	0.0
78	0x00000000	0.0
79	0x00000000	0.0
80	0x00000000	0.0
81	0x00000000	0.0
82	0x00000000	0.0
83	0x00000000	0.0
84	0x00000000	0.0
85	0x00000000	0.0
86	0x00000000	0.0
87	0x00000000	0.0
88	0x00000000	0.0
89	0x00000000	0.0
90	0x00000000	0.0
91	0x00000000	0.0
92	0x00000000	0.0
93	0x00000000	0.0
94	0x00000000	0.0
95	0x00000000	0.0
96	0x00000000	0.0
97	0x00000000	0.0
98	0x00000000	0.0
99	0x00000000	0.0
100	0x00000000	0.0
101	0x00000000	0.0
102	0x00000000	0.0
103	0x00000000	0.0
104	0x00000000	0.0
105	0x00000000	0.0
106	0x00000000	0.0
107	0x00000000	0.0
108	0x00000000	0.0
109	0x00000000	0.0
110	0x00000000	0.0
111	0x00000000	0.0
112	0x00000001	1e-45
113	0x00000000	0.0
114	0x00000001	1e-45
115	0x00000000	0.0
116	0x00000000	0.0
117	0x00000000	0.0
118	0x00000001	1e-45
119	0x00000000	0.0
120	0x00000000	0.0
121	0x00000000	0.0
122	0x00000000	0.0
123	0x00000000	0.0
124	0x00000001	1e-45
125	0x00000000	0.0
126	0x00000000	0.0
127	0x00000000	0.0

rnn.cell.input_decay_kernel f4 [37]
0	0x00000000	0.0
1	0x00000000	0.0
2	0x00000000	0.0
3	0x00000000	0.0
4	0x00000000	0.0
5	0x00000000	0.0
6	0x00000000	0.0
7	0x00000000	0.0
8	0x00000000	0.0
9	0x00000000	0.0
10	0x00000000	0.0
11	0x00000000	0.0
12	0x00000000	0.0
13	0x00000000	0.0
14	0x00000000	0.0
15	0x00000000	0.0
16	0x00000000	0.0
17	0x00000000	0.0
18	0x00000000	0.0
19	0x00000000	0.0
20	0x00000000	0.0
21	0x00000000	0.0
22	0x00000000	0.0
23	0x00000000	0.0
24	0x00000000	0.0
25	0x00000000	0.0
26	0x00000000	0.0
27	0x00000000	0.0
28	0x00000000	0.0
29	0x00000000	0.0
30	0x00000000	0.0
31	0x00000000	0.0
32	0x00000000	0.0
33	0x00000000	0.0
34	0x00000000	0.0
35	0x00000000	0.0
36	0x00000000	0.0

rnn.cell.input_decay_bias f4 [37]
0	0x00000000	0.0
1	0x00000000	0.0
2	0x00000000	0.0
3	0x00000000	0.0
4	0x00000000	0.0
5	0x00000000	0.0
6	0x00000000	0.0
7	0x00000000	0.0
8	0x00000000	0.0
9	0x00000000	0.0
10	0x00000000	0.0
11	0x00000000	0.0
12	0x00000000	0.0
13	0x00000000	0.0
14	0x00000000	0.0
15	0x00000000	0.0
16	0x00000000	0.0
17	0x00000000	0.0
18	0x00000000	0.0
19	0x00000000	0.0
20	0x00000000	0.0
21	0x00000000	0.0
22	0x00000000	0.0
23	0x00000000	0.0
24	0x00000000	0.0
25	0x00000000	0.0
26	0x00000000	0.0
27	0x00000000	0.0
28	0x00000000	0.0
29	0x00000000	0.0
30	0x00000000	0.0
31	0x00000000	0.0
32	0x00000000	0.0
33	0x00000000	0.0
34	0x00000000	0.0
35	0x00000000	0.0
36	0x00000000	0.0
