grud_output/split_2/checkpoint.pt (torch, 410402 bytes, 22 tensors)

rnn.cell.kernel_z f4 [128, 37]
00000000: 51ff 483e 12ef 27bf b50b 0f3f d956 433f
00000010: 6796 343f 8ce3 03bf 7340 833d 3971 243f
00000020: dee1 263f b6c9 cabe 49cc 94be 5dc4 913f
00000030: 7a30 ff3e a50b 26bf 2e7d 95be 9f17 bbbf
00000040: dbe5 363d c606 52be 82d3 2b3f 46fd b6bd
00000050: e886 b8bb 3737 093e 308f ba3e 9391 823f
00000060: e59d 173e 2c34 433f 19c2 3d3f 9a1a 1a3f
00000070: 50f9 71bf c54f e13e 5727 313f 15d4 2a3d
00000080: f5a0 dabe 9dd0 4bbf 3d5f 653f 3477 a5bf
00000090: edcb 05bf 52a0 a3bb e27f 02bf 69e0 69be
000000a0: bd79 f4be c161 4d3e 91d9 b53c 4fc0 22bf
000000b0: a983 653d 0460 b13e 4b1c 213f c8d9 8e3e
000000c0: e44d 49bd bc93 0fbc 2b3d 313f 3fef e23d
000000d0: 1dde a8be 036e 283f ec72 85be 39d6 5fbf
000000e0: fce8 04be c796 de3d 41e4 71be 11a5 fd3e
000000f0: 5f4b ddbd 4c92 be3d ed35 0c3f b158 f43e
00000100: e86e 4d3f 1c2f 10bd 955b df3e 14e3 ff3e
00000110: 2465 f9be 50b9 643e 9f50 8b3e a026 cc3e
00000120: af5c f8be ff3b 48bf f1b1 1e3f bebe 7a3e
00000130: 485a 31bf dad6 ee3e d4d8 203f 9b58 653d
00000140: fe14 cdbf 4c8f 99be f342 4abe 30cf a2be
00000150: ba45 373f 8833 c2be 3594 a9be a562 a7be
00000160: d420 e1be 267d 453f 72a9 433f 78db dd3d
00000170: be69 80bf 901d 02be 8453 983f 4bd4 76be
00000180: e375 6bbf 9e4d 0dbf d6e0 593f 24df 2ebe
00000190: a889 bf3d e921 a93d eb4d 153d 6bc7 9a3e
000001a0: 2a09 71bf 569d 623f 73fe ecbc ccf7 203f
000001b0: 6c04 1ebf 2e9e d4be 3b28 ee3d 417d ce3e
000001c0: ad9e 20c0 f92d 0cbf 5888 b5bf 362d 903f
000001d0: 4dbf 10c0 74df 0bc0 b700 793f 4257 95be
000001e0: b251 edbe 52a2 c5bf c0da eb3f 5ebe 363e
000001f0: ebab 8b3f 4d2b 23bf f833 8ebf 2f01 9dbe
00000200: b47a cabf e300 043e 9101 2bbe d5ce 59bf
00000210: c78b 103c 5c98 153f 6427 8d3f 07ca 843f
00000220: 06aa ac3f 6802 dc3f fcfb 1f3f 5ecc ebbf
00000230: c3f6 7c3f 061a 7e3f 22c0 3b3f 870e 01bf
00000240: cc4a 80bf d9d1 ee3f c717 5ebf 6fce bebd
00000250: b40c 36be fbdb 64bf a334 45be 4956 363e
00000260: 7f35 ac3e 79d6 c83e 10ee 80be 6d88 d73d
00000270: 8062 703f c39d 15bd 6251 cf3d 16df 7e3f
00000280: d77e 5e3f 3adb 07bf 817f 1bbf c77e 7fbe
00000290: 2f21 873f 6672 c53e 6cae eb3d b8b8 0bbe
000002a0: c4c2 67be 9869 a23e 7bdf b33d 5634 febd
000002b0: 6821 cfbe 12b0 ab3d e967 d03e 84ee 1fbf
000002c0: 0069 e23c 06eb 893e c873 19bf 6796 4dbf
000002d0: ce85 4bbe 8c3d 6ebe dbc5 1fbe 7464 61bf
000002e0: 27cd 53bf bb5c 363e 06a7 9b3e 8df8 a2be
000002f0: a528 033f 74f4 62be 0eed b6bd d4af c23e
00000300: 9b08 163e 3036 7f3e 4d96 74be 0413 1d3f
00000310: 2862 83be 9f04 82be d5ab 873c 24fc 483c
00000320: 25f1 e33c c811 843d 9dc4 15bf 6a67 b7be
00000330: 2c4c 1fbe 8401 063e 28ad ca3e d16c 9ebe
00000340: eafb 323f 1789 8bbe 22c9 b8bd 678a 633e
00000350: 7201 afbe 9efa 173f cc44 143f 21dd a1be
00000360: 13ba 5dbe ec38 a1be 306a 943e bdf6 ec3e
00000370: 7b1a 033e 1e52 3dbf b477 07bf 48c7 f13e
00000380: 5b33 5a3e 0cbc dcbd e7b7 21be 8346 af3e
00000390: 3d0b 0dbd 8cc2 973e 09e8 ad3d 0537 cbbd
000003a0: 230b fb3d 5f66 4abf 5ba1 3e3e 94a0 da3d
000003b0: 0b33 2ebe aaf1 a1be 5c54 213e ff43 8b3d
000003c0: 8b20 24be c40b fe3d 3973 26bf 487f cfbe
000003d0: 9219 acbe 89e5 533e fa3d 793c 30d6 b3be
000003e0: 7736 a83e 2312 723e 52b1 2fbe 41bb 05be
000003f0: c71f 9bbe 8759 473e 5fe3 aabc 5797 183c
0.19628645 -0.6559917 0.5587724 0.76304394 0.70541996 -0.51519084 0.06408777 0.64235264
0.65188396 -0.39607018 -0.29062107 1.138805 0.49841672 -0.6486152 -0.29197067 -1.4616584
0.0446528 -0.20510396 0.6711961 -0.08935027 -0.0056313165 0.13399969 0.36437368 1.0200676
0.14806326 0.7625148 0.74124295 0.6019684 -0.94521046 0.44006172 0.6920065 0.041706163
-0.42700925 -0.79615194 0.8959845 -1.2927003 -0.5226429 -0.004993477 -0.50976384 -0.22839512
-0.4774913 0.20056821 0.02219847 -0.6357469 0.056033764 0.34643567 0.62933797 0.2790053
-0.049146548 -0.00876325 0.6923396 0.11080789 -0.3298196 0.65792865 -0.2606424 -0.8743625
-0.12979501 0.10868602 -0.23622228 0.49539998 -0.108053915 0.09305248 0.54769784 0.47723916
0.80247355 -0.035201177 0.4362456 0.49977934 -0.48709977 0.22336316 0.27209947 0.3987322
-0.48508212 -0.78216547 0.6199027 0.24486825 -0.69278383 0.46648294 0.62830853 0.055992704
-1.6022031 -0.2999214 -0.19752102 -0.31798697 0.7159077 -0.3792994 -0.33120885 -0.32692447
-0.43970358 0.77144086 0.7643043 0.10832876 -1.003227 -0.1270659 1.1900487 -0.24104421
-0.91976756 -0.5519656 0.851087 -0.17077309 0.09352428 0.08258421 0.03645126 0.3023027
-0.9415461 0.88521326 -0.028929925 0.6287811 -0.617255 -0.41526932 0.11628767 0.40329936
-2.5096848 -0.5475765 -1.4182234 1.1263797 -2.261676 -2.1855135 0.97266716 -0.29168135
-0.4635139 -1.5440161 1.8426132 0.17846057 1.091184 -0.63737947 -1.110961 -0.30664966
-1.5818696 0.12890963 -0.16699816 -0.85081226 0.008822388 0.58435607 1.1027646 1.0374154
1.3489387 1.7188234 0.6249387 -1.8421743 0.9881403 0.9925846 0.73340046 -0.5041279
-1.0022826 1.865779 -0.8675503 -0.09316718 -0.17778283 -0.89398164 -0.1925836 0.17806353
0.33634564 0.3922613 -0.25181627 0.10524068 0.939003 -0.036527406 0.101229444 0.9955915
0.8691229 -0.5306889 -0.6074143 -0.24950705 1.0557002 0.38563842 0.11507878 -0.13644683
-0.22632891 0.31721187 0.0878286 -0.12412326 -0.40455174 0.08383192 0.40704277 -0.6247332
0.027637959 0.2693712 -0.59942293 -0.8030762 -0.19875261 -0.23265666 -0.1560282 -0.88043904
-0.8273491 0.17808811 0.30400866 -0.31830254 0.51233894 -0.22163564 -0.08931933 0.3802477
0.1465172 0.24923015 -0.2388546 0.6135714 -0.25660825 -0.2539415 0.016561428 0.012267146
0.027824948 0.06448704 -0.58503133 -0.35821086 -0.15556401 0.13086516 0.39585233 -0.30942395
0.6991564 -0.2725303 -0.09022738 0.22220765 -0.3418079 0.59366786 0.57917476 -0.3161402
-0.21653013 -0.3148874 0.28987265 0.46281996 0.1280307 -0.73953426 -0.5291703 0.47222352
0.21308653 -0.107780546 -0.1579281 0.34233484 -0.034434546 0.29640615 0.08491523 -0.099226035
0.122579835 -0.79062456 0.1861624 0.10675159 -0.17011659 -0.31629688 0.15754837 0.068000786
-0.16028039 0.12404588 -0.65019566 -0.40526795 -0.3361326 0.2069303 0.01521253 -0.3512435
0.32854053 0.23639731 -0.17157486 -0.13059713 -0.30297682 0.19467746 -0.020860372 0.009313426

rnn.cell.kernel_r f4 [128, 37]
00000000: c840 69bd b0a5 ba3d a83e 0dbe e32a 05be
00000010: 9239 113e 09b8 f23e 07fc 8b3e 7357 0cbf
00000020: 1162 7dbe 229d 8cbe 3044 8cbe dd1c 1ebf
00000030: 0d61 bf3d d7be 9d3e f53c bdbd 32e2 043e
00000040: 3972 5bbe 6751 a1bc f041 083e 2080 45bd
00000050: 7f97 02bf b06e cc3c e22b 0d3e 69e4 9fbe
00000060: c86b 033e 874c 153f 6991 bd3e 32ec 3abe
00000070: 3437 d7bd 18d0 b3bd df32 bb3e e35f 5c3e
00000080: 2409 28be 3bb6 9f3b 31bd 8bbd dbe5 923e
00000090: 9fa5 5fbe 1260 1e3f 0851 a63e 3c85 19bf
000000a0: ba20 8cbd a557 4ebf 97d0 d1be df17 ad3e
000000b0: 33a2 483e 448e db3d a8fa e8be e610 9fbe
000000c0: fa4d ca3e a57b 943e 42ea 1d3e 308f ebbe
000000d0: 4c0f 93be 6ecd 3cbe eb13 10be 89ee e83d
000000e0: 3084 3fbc 1235 743e 4228 f13d 2760 40bf
000000f0: bbc6 c63b 4ceb 94be 324a b43e ff7c 2abd
00000100: 6f9d 2abf 9c83 18be b158 5d3e dfa6 8fbe
00000110: 1053 dbbc 524a 2d3d 8553 5a3e 539a b8be
00000120: 025b 653d 3eb8 58be 0bc1 f6be 4898 d03e
00000130: 1ad3 ca3e b10d 823f e3c2 cabe facf d13e
00000140: d3c6 5f3e 000a dfbd 0302 a73e 2b48 95be
00000150: 4ae9 753d fcef 8abc 698e 00bf eccb e8bd
00000160: 3ea4 a13e 6bac 893f d229 c83e 9390 6bbc
00000170: eab4 823e 6a98 d3bd f75b cb3d 600d 9ebe
00000180: 52fa 39bf 9577 06bf 88bf 98be ccaa 99be
00000190: 6f19 ff3e 92c9 dbbe 3f2a fd3d d0b0 f33d
000001a0: 8b04 e0bd ad0a 303e 9705 c93e f6fb 503e
000001b0: 42b9 c1be 3a1b acbd e3bb 79bf 39d1 e53e
000001c0: b41b c1be 0c53 9b3e 74fd 883f f3dc 4e3e
000001d0: 1a2a 873e 8513 c43e 6097 a6be 7037 e53e
000001e0: 4da9 8cbe 5017 35bd 259f 6d3e 3c54 ab3d
000001f0: 0122 15be 2ee2 9ebe 7c93 14be 6a73 d93e
00000200: 0195 18bf eb49 333f 2009 a9bd 070d f73e
00000210: 8779 133e 2cfd 823e 65d5 483e 983b d0bd
00000220: 70b4 0bbe 19ab a0be aa2b 0d3f 237a 01be
00000230: 9b77 6bbe 85d2 0e3e 9ea9 3f3f e465 3bbe
00000240: 1382 f8bd e89f 2fbf af17 a13e 8c09 833e
00000250: 87e9 9c3f 5d97 76be 62b9 003f 61ed d23e
00000260: 0d13 c1be c037 3b3f 64b3 51bf 9f8c 883f
00000270: da86 243f 80a4 49bd e871 5abe 26aa dd3f
00000280: c287 c13f 8839 663f 2867 24bf d3e7 1bbf
00000290: b346 813f c700 9dbf af96 c83e 8892 d23c
000002a0: ea1d a3bf d802 fabd af51 d3be 4b68 923f
000002b0: 4a06 6f3d f48b b53e b12a 9fbe ffa2 a43d
000002c0: 9cdc 81bf df27 423f c8d3 b3bd f555 06bf
000002d0: 8baa 95be d6c1 cabc 143d a13d 047c bcbe
000002e0: 1771 0a3f de86 bfbc 42d6 8e3e 8b84 18bd
000002f0: b351 a73d fb45 833e e6ba 1fbe 1f1c 0dbe
00000300: 65d9 89bd 3ec1 55bc 796d a1bd b5f0 bfbd
00000310: 3727 b2bd 0ae8 38be 5689 d63b 59f4 0e3e
00000320: 6a81 aabd d850 0d3a c274 273e a62e 2bbe
00000330: 9791 d2bd 6700 5cbe b2d9 a7bd 3228 19be
00000340: 5027 5bbe ea72 0b3e 8842 c73d a9b0 aebc
00000350: 68af 50be 9836 2ebe 2e55 603e a768 a33c
00000360: 1195 1b3e cb13 9cbe deff 18be 9e90 283d
00000370: d24f b4bd 3dd6 6abd 0eae c2be 92ca 973f
00000380: 6203 11bf 3a2a 43be f427 c33e 3d46 963f
00000390: c341 af3f 9a64 913e 774e 0b3f 5ad3 343f
000003a0: 3fb0 233f af82 e0bf 3081 823f a5ce d6be
000003b0: cb49 013f 0c91 463f 11e2 5dbf 9af6 823f
000003c0: f1c8 e43e 6c68 343e 7f63 903e e36e ac3d
000003d0: 6417 00bd 9ed4 a9bd 8e09 fb3e 7d45 cabf
000003e0: 6771 5bbe afc5 ccbe 4043 ae3f b333 a0be
000003f0: 63a8 703f 30fd 11bf 6820 1ebf dcf7 9eba
-0.056946546 0.09113634 -0.13793433 -0.13004641 0.14182118 0.47406033 0.2734072 -0.54820937
-0.2474444 -0.27463633 -0.27395773 -0.6176279 0.09344683 0.30809662 -0.09240142 0.12976912
-0.21430291 -0.019692136 0.13306403 -0.048217893 -0.51012415 0.024955124 0.13786271 -0.3122895
0.12834084 0.58319896 0.37025002 -0.18254164 -0.10508576 -0.08779925 0.3656225 0.21520953
-0.16409737 0.0048740185 -0.06823195 0.2869099 -0.21840523 0.6186534 0.32483697 -0.59968925
-0.068421796 -0.80602485 -0.40979454 0.33807275 0.19593124 0.107204944 -0.45503736 -0.3106758
0.39512616 0.29000583 0.15421394 -0.4600768 -0.28722608 -0.1843774 -0.14070098 0.11373622
-0.011689231 0.2384837 0.11775257 -0.75146717 0.006066171 -0.29085767 0.35212857 -0.04162311
-0.66646475 -0.14893955 0.21615864 -0.28057 -0.026773006 0.042307205 0.21320923 -0.3605524
0.055994995 -0.21164033 -0.48194155 0.4074118 0.39614183 1.0160428 -0.39601812 0.40978986
0.21853189 -0.10890579 0.32618722 -0.29156622 0.060036935 -0.016960137 -0.502173 -0.1136702
0.3157062 1.0755743 0.39094406 -0.014377731 0.2552865 -0.10331805 0.0992965 -0.3086958
-0.72647583 -0.5252622 -0.29833627 -0.3001312 0.49824092 -0.42927223 0.123615734 0.11898959
-0.109383665 0.17191572 0.39262077 0.20408615 -0.37836653 -0.084036306 -0.9755232 0.44886187
-0.37716448 0.30336797 1.0702348 0.20201473 0.26399308 0.38296142 -0.32537365 0.44768858
-0.27472916 -0.044211686 0.2320524 0.08365676 -0.14563753 -0.31031936 -0.14509386 0.42470866
-0.5960236 0.70034665 -0.082536936 0.48252127 0.14401828 0.2558378 0.19612654 -0.101676166
-0.1364305 -0.31380537 0.5514475 -0.12644248 -0.22994845 0.13947494 0.7486819 -0.18300587
-0.12134185 -0.6860337 0.31463382 0.2559322 1.2258767 -0.24081178 0.5028287 0.4119673
-0.37709847 0.7313194 -0.81914353 1.0667914 0.6426827 -0.049229145 -0.21332514 1.731755
1.5119555 0.89931536 -0.64219904 -0.6090061 1.0099701 -1.2265862 0.39177462 0.025704637
-1.2743504 -0.12207574 -0.41273257 1.1438078 0.058355607 0.35458338 -0.31087258 0.080389015
-1.014545 0.7584209 -0.087806284 -0.5247491 -0.29231676 -0.024750631 0.07872978 -0.36813366
0.5407881 -0.02337974 0.2789784 -0.037235778 0.0816988 0.25639328 -0.1559864 -0.13780259
-0.06730918 -0.013046561 -0.078822084 -0.09372083 -0.08698886 -0.18057266 0.0065471334 0.13960399
-0.08325465 0.000539077 0.16353133 -0.16717014 -0.10281675 -0.21484528 -0.08195819 -0.1495674
-0.21401715 0.13618055 0.09729487 -0.021324473 -0.20379412 -0.17013013 0.21907493 0.019947363
0.15193583 -0.3048385 -0.14941356 0.041153543 -0.08804287 -0.05733322 -0.38023418 1.1858695
-0.56645787 -0.19059077 0.3811642 1.1740185 1.3691944 0.28397065 0.544166 0.70634997
0.63940805 -1.7539881 1.0195675 -0.41954532 0.50503224 0.77565074 -0.86673075 1.0231507
0.44684556 0.17617959 0.2820091 0.084195875 -0.031272307 -0.08292507 0.49030727 -1.5802456
-0.21429978 -0.3999457 1.3614273 -0.31289443 0.9400694 -0.5702696 -0.617682 -0.0012128311

rnn.cell.kernel_h f4 [128, 37]
00000000: 0598 1a3f be8f 5d3f 7bcd b7be 6d72 89be
00000010: eaa0 abbd cffd 413f 7f67 933e b480 8cbe
00000020: 9ac7 53be 3ba6 143f de77 d4be 8e68 53bf
00000030: be1e 45be c362 563e 6ecc ae3d 30b6 2a3f
00000040: 4098 e7be fff9 8e3d 2ce7 36bf 0614 32be
00000050: 3a97 573d beab 253f 85ee 493f 333d 233d
00000060: bbfc 8d3f cbae 85bf 7e27 e8be f538 15bf
00000070: 9f76 3e3e 6a2d a83e 26c9 46be 97ff 88bf
00000080: e003 983f 02df 383e f7c5 6abf 441c f73e
00000090: 5777 8c3e 59db 8ebd 46e4 41bc 48c9 1c3f
000000a0: 3288 283f 212b bbbc 34c2 8fbe 8d58 d4be
000000b0: 3ea3 45be 2407 57bd 65c7 743e 2db7 16be
000000c0: 5cf9 0f3e 8a3a c3bd 3500 0dbf 4800 6bbd
000000d0: 9e13 88bc c6f0 0abe 4e8f 353f ad82 163f
000000e0: f008 a8bc 208b 3ebe 83d2 69bd 5611 3ebe
000000f0: f5e1 6d3e 7537 093e 5a41 c2be 4fc5 813e
00000100: 8121 2abe 0e39 19be 3147 843e e686 b23d
00000110: e61d df3d 4dc1 0bbf 66d5 bebd a8c5 aa3d
00000120: b3bb 44be b50e f53e 404e f83d 5000 683f
00000130: b68f 62bf 25dc 153d 0a21 9ebc b8dd 123f
00000140: 4ad2 853f c381 f5be ad8e 2c3e 7760 7abe
00000150: 2d27 0d3f f68a ad3d a704 20bc 308b a13e
00000160: 967a b5bc 0b34 8cbe 73ef 4dbe a4fe a13f
00000170: e38b 0f3f 5784 b1bd 6471 663f 5a11 acbd
00000180: a80d bf3e 1605 e03e e319 f23d ef59 b23f
00000190: f504 aabf 2682 8abf d4e6 f6be fd3b 40bf
000001a0: fa89 abbd 6ecb a03e 7090 2b3f 3966 8bbe
000001b0: 0098 82be b04b cd3e ce73 2ebf e3a3 4cbe
000001c0: 10e0 ce3e cc18 ed3e dfc1 813f b400 73bf
000001d0: 0129 1ebf c3a9 713f a524 12bf 499a 92bf
000001e0: 3f19 d13e b6e5 053f 57bd 203e fe10 1d3f
000001f0: c9de e5be 6a16 ef3e 2c70 28bf d0cc 4fbe
00000200: 8e5a 2d3f 6ecd c63f 0d16 afbd fa7e 833f
00000210: 1dcf a63a c6c0 ebbf 11df 24bd f066 e83e
00000220: 8c9c 6abf 9b9f 91bf eaea 3fbf c8e1 71bf
00000230: dfdd 89be 5fb3 8d3f f51a 59bf 376c 15be
00000240: 478e 27bf 3562 07c0 c159 5e3f 2318 84bf
00000250: 469d cb3f ca7b 61bf 807a cabd 2b78 edbd
00000260: a867 95bf d0d3 09bf 7e91 41be 0864 a7bd
00000270: 358d 5e3e 204e 923f 4a97 1b3f 298d 0ebf
00000280: 7fb7 aebe 44e9 b03e 160d b23d a666 223f
00000290: 7aa9 b93d f52e b6be 8898 b03e 6027 9b3d
000002a0: c2ce 853e 3173 ad3e 8172 15bf 7a97 553e
000002b0: 3b07 d23f 43b1 903f bc26 8abe 0893 89bf
000002c0: 6fa2 7cbd 6a77 37bf c4f1 7f3e deec d73e
000002d0: 3031 4e3f de95 1abf e663 583f acff d93d
000002e0: 37c0 0fbf ec3c 2abf 02fd a23e 6a80 39be
000002f0: 45c6 ddbd c0b0 d43e 27d8 c2be 8423 48be
00000300: f7bc 95be 4e75 d7bd ad01 69be 3fb7 10be
00000310: 9472 bd3e a589 32bf f8a3 a0be e7e0 613e
00000320: d7d5 adbe 2403 36be 0af3 983d bc8b 883d
00000330: 5869 1abd 85b3 f0be ae02 08be 3f08 77bc
00000340: e76b 02bc 8e63 953d 411a a63e ddb3 003e
00000350: ba33 c4bd f8f5 2c3e 0aca a4be a1d4 6d3c
00000360: 011e 5fbe 1e01 c2be 749f 863d 4c07 893c
00000370: 1c67 e43c 82f4 d23e 9ef6 83be da3e bc3d
00000380: fc4d 6bbe 728d 22bc 22c8 ba3e b36c d5bd
00000390: 1ef8 4f3e 2e97 483e d29f 27be a828 31be
000003a0: 60e0 a2bd db57 d03e 4ca9 ba3e 521f 483d
000003b0: 8982 813e c9ab 83be 6727 67be d8e6 d13d
000003c0: fba6 82bc 60f6 d63d 0b52 5e3e 2df2 333e
000003d0: 2e2d f33c 6cab 0e3e c91c ad3d f7bd c0be
000003e0: 7a0d fbbd 5afb 0bbe a191 c8bd 878f 983e
000003f0: 82c8 6fbe 3c46 313c 56f4 5a3d 4763 093e
0.60388213 0.8654746 -0.35898957 -0.26845112 -0.08380301 0.75777906 0.287899 -0.27441943
-0.2068161 0.5806615 -0.414977 -0.8258141 -0.19250008 0.20936112 0.085350856 0.66684246
-0.45233345 0.06981277 -0.7144649 -0.17390451 0.052634455 0.6471518 0.78879577 0.039853286
1.1092752 -1.0443968 -0.4534263 -0.58290035 0.18599938 0.32847148 -0.1941267 -1.0703
1.1876183 0.1805382 -0.9170832 0.48263752 0.274348 -0.06975431 -0.01183421 0.6124463
0.6583282 -0.022847714 -0.28077853 -0.4147381 -0.19300553 -0.052497044 0.23904188 -0.14718314
0.14059967 -0.0953265 -0.5507844 -0.057373315 -0.016610917 -0.1356841 0.7092179 0.58793145
-0.020512074 -0.1860776 -0.057085525 -0.185613 0.23230727 0.13400061 -0.37940484 0.25345847
-0.16614343 -0.14963171 0.25835565 0.08717136 0.108943745 -0.5459183 -0.09318046 0.08338481
-0.19212227 0.47862783 0.121243 0.90625477 -0.88500535 0.0365869 -0.019302864 0.57369566
1.04548 -0.47950563 0.16851301 -0.24450861 0.551379 0.0847377 -0.009766734 0.31551504
-0.02215318 -0.27383456 -0.20110874 1.2655835 0.56072825 -0.0866782 0.9001677 -0.08401747
0.37315106 0.4375388 0.11821344 1.3933696 -1.3282763 -1.0820968 -0.48222983 -0.75091535
-0.08375926 0.31405205 0.6701727 -0.27226427 -0.25506592 0.40096807 -0.68145454 -0.19984393
0.4040532 0.4630798 1.013729 -0.9492295 -0.61781317 0.9439966 -0.57087165 -1.1453334
0.40839574 0.52303636 0.15697227 0.61354053 -0.44896534 0.46696788 -0.6579616 -0.20292974
0.677163 1.5531442 -0.08549128 1.0273125 0.001272652 -1.8418205 -0.040251795 0.45391035
-0.9164512 -1.1376833 -0.74967825 -0.9448514 -0.26927087 1.1070365 -0.8480676 -0.14592062
-0.65451473 -2.115369 0.86855704 -1.0319866 1.5907371 -0.8807951 -0.09886646 -0.11595186
-1.1672258 -0.53838825 -0.18903157 -0.08173376 0.21733554 1.1430092 0.60777724 -0.55684143
-0.3412437 0.34552968 0.08693902 0.6343788 0.09065528 -0.355827 0.34491372 0.075758696
0.26134306 0.33876947 -0.58377844 0.20858565 1.6408457 1.1304096 -0.26982677 -1.0747995
-0.061678346 -0.71666586 0.2499457 0.42172903 0.80543804 -0.6038493 0.8452743 0.10644469
-0.5615267 -0.6649921 0.31833655 -0.18115392 -0.108288325 0.415411 -0.38055536 -0.19544798
-0.2924573 -0.10520421 -0.22754546 -0.14132403 0.3700148 -0.6974128 -0.31375098 0.2205845
-0.3395221 -0.17774636 0.07468231 0.06667277 -0.03769812 -0.47011963 -0.13282272 -0.01507765
-0.007960296 0.07294379 0.32441905 0.12568612 -0.095801786 0.16890705 -0.32185394 0.014516027
-0.2178879 -0.37891477 0.06573382 0.016727112 0.027881198 0.4120217 -0.2577409 0.091916755
-0.22978967 -0.0099214185 0.36480814 -0.10421123 0.20309493 0.1958892 -0.1636956 -0.17300665
-0.079529524 0.40692028 0.36457288 0.048857994 0.25294903 -0.25717 -0.22573625 0.10249108
-0.015948763 0.10496211 0.21710984 0.17572851 0.02968463 0.1393258 0.08452756 -0.37644932
-0.1225843 -0.13670102 -0.097934015 0.29797003 -0.23416331 0.010819968 0.053455673 0.13416778

rnn.cell.recurrent_kernel_z f4 [128, 128]
00000000: 74cc adbe 7ab2 d2be f81f 3a3e 2044 6e3d
00000010: a9df 4fbc d4b8 503e cdfc ad3e f8ec f23e
00000020: b4a3 e53e c845 5cbf 69ef 4c3e 106b b9be
00000030: fddc f2be 8840 9fbf 6e2e 09bf e877 99be
00000040: 19f4 653e d1bc 64be 8d8e 2e3e 335b f5bd
00000050: 3a3d 8cbe 0473 31be d66e 9ebe 1cc7 95be
00000060: a7a4 3f3e 09c1 ec3d 8447 f43e c7d3 053f
00000070: 5d4d 013f c3e3 7abe 905d a3ba 12c2 fd3d
00000080: 7da1 a63e d5d4 c3be e2aa 5b3f 1a81 14be
00000090: 132e 503f 6cbc 473e d0da 04bf 8a2a eebc
000000a0: 9595 a0be d231 603e 650a 823f d3d7 fa3e
000000b0: 0454 6b3d f15a 37bf f1e4 aabe 7e7d 7f3f
000000c0: a95f debd a410 e2bd 1baf 40bc 1c2c cabe
000000d0: e29b 38bf 3be5 9abe 5272 21bf 74b9 48bb
000000e0: 1dbe 853d 0223 09bf b5fa 84be afac 523f
000000f0: ba2a b4bc 3e9d 3c3f d9ba 563f d71a b23e
00000100: a7c5 b83e 1a23 673f ce10 04bf d976 003f
00000110: 051a b9be e9c6 5ebf bfd7 98bf 8934 0c3f
00000120: 8f8b 92be 1a2a ad3f ad44 ae3d 5791 94bd
00000130: 1115 29bf bb30 05bf 983c 7a3e 68ad fb3d
00000140: ef8e dabe 65c0 7e3f 2ffc 97be 86f5 11be
00000150: ff55 02bf fb59 103f 25f3 963e 1a88 833e
00000160: 81c5 c5be ee8f 04bf d1f1 8c3e afd5 97be
00000170: edee 983e 52d4 01be a58f ac3d 7ccd 18bf
00000180: 421e b23c e751 023f 291b 22be 2ae6 b3be
00000190: f0a8 173f ad80 b93e 4b15 66be c62c 1a3e
000001a0: 2963 19be 9cd8 11be 2495 a23d 55e0 8d3e
000001b0: 78d6 a4be 59f3 523f 0347 513f 8898 e43e
000001c0: 3c94 09bf 4802 89bb 093b bb3e ac81 aabe
000001d0: a118 1a3e a87c 923e 3881 85bd 2ffa 80be
000001e0: 2857 aabe 0a28 8bbe ca95 a6bd e640 163f
000001f0: 7f34 c9bd 1219 8fbe c544 66be 52d0 e6be
00000200: 1a92 24bf 59fa 0fbc 7c95 7abf 041f 0a3f
00000210: 9b57 843e 4803 9fbe 99f2 58bc ffa7 0bbe
00000220: 19d5 693e eba6 63bf a77d 703e 1715 7a3d
00000230: 1845 37be e29f e0be 906e 3f3d 132e a9be
00000240: 6cfe 33bf 6eff 01bf 174d bfbe 5d7c 803b
00000250: b3eb d4be 7769 0d3d 69c3 bb3d 13b3 01bd
00000260: 9b41 9dbe cd1f 4c3e 858c a53e 0088 3a3d
00000270: 4c7a 613f 2fab 04bf 6448 a63e 3622 573d
00000280: ce42 7f3d 44cd 0fbd 1ae0 063d 731d 04bc
00000290: e8b1 383d c199 313c 1bfb 11bf a6a5 b5be
000002a0: ae0d bbbe 0b95 dcbd 8743 2d3f 5b0d 9c3e
000002b0: e2fb 0f3e 1014 37bf 22f2 8fbf e7e3 0a3f
000002c0: ed8f 5bbe 4d76 3fbe d72c 1dbe c8a7 773e
000002d0: ed07 cabe 21cc 51be df5c 52bf 6448 27bf
000002e0: f6dc 5abe a3bb 3b3e 8b07 19bf d448 33be
000002f0: dcc8 e0bd 6f81 6b3e bf5f 4d3e 525c b83e
00000300: e6fa 8c3c 823f bd3e 6925 443e ef31 1dbe
00000310: 2bf8 92be fee2 d1bd 8464 ddbd 6f98 463f
00000320: aeb3 673d baaf 52bf 0bf5 babe 25f6 b9bd
00000330: 88b8 db3d 000f 22be 8008 a4bc 0087 85be
00000340: e438 60be d1bf 80be 23b2 69be 0f51 9cbe
00000350: de58 08bf 3765 a3be 320d aabf bbe1 293d
00000360: a390 aebc 7ccb cbbe 5343 3f3e 7282 09bf
00000370: 6bf0 df3e 49a2 d9be 0967 1ebe e1aa 4d3e
00000380: 6a1f 7dbe a457 07be 9319 84be ad39 543e
00000390: 4afe 723e 682f 223f 31a8 2e3d 955a 2fbe
000003a0: 3fec 27be 4d55 f63d 9bc2 edbd 491f 203e
000003b0: 4675 f3be f954 a63e 9d8b 1c3f 5c04 643e
000003c0: 7d0e ddbe f10b 16bf ac80 013f e0cd b3be
000003d0: 77c5 0d3f a7bc 18bf f92b 8d3d f185 acbe
000003e0: b29d 793e c213 42be 22cb 8b3b 539d 183e
000003f0: 8283 39bf 9826 a9bd 71a8 b5be 0662 c13d
-0.33945048 -0.41151792 0.18176258 0.058170438 -0.012687602 0.20383006 0.33981934 0.47446418
0.44851458 -0.8604398 0.20013203 -0.36214495 -0.47434226 -1.2441568 -0.5358647 -0.29974294
0.22456397 -0.22337653 0.17046566 -0.119802855 -0.27390462 -0.17329031 -0.30943936 -0.2925347
0.18715154 0.11560256 0.47710812 0.5227627 0.5050867 -0.24500947 -0.0012463797 0.123905316
0.3254508 -0.38248315 0.8580762 -0.14502373 0.81320304 0.19505471 -0.5189638 -0.029073019
-0.31364122 0.21894005 1.0159422 0.48992786 0.05745317 -0.7162314 -0.33377793 0.9980086
-0.108580895 -0.1103833 -0.011760498 -0.39486778 -0.7211286 -0.30253014 -0.63065064 -0.0030628117
0.06530402 -0.5356904 -0.25972524 0.82294744 -0.02199303 0.7367743 0.83878857 0.34786102
0.36088297 0.90287936 -0.5158814 0.5018135 -0.36152664 -0.8702226 -1.194084 0.5476766
-0.286221 1.3528473 0.085091926 -0.07254284 -0.6604777 -0.5202748 0.24437177 0.12288934
-0.42687175 0.9951232 -0.29684588 -0.14253816 -0.5091247 0.563873 0.2948238 0.25689775
-0.38627246 -0.5178212 0.2752824 -0.29655215 0.29869786 -0.1267865 0.084258355 -0.59688544
0.021742944 0.50906223 -0.15830673 -0.3513654 0.59242153 0.36230984 -0.2246906 0.15056142
-0.14979233 -0.14242786 0.079386026 0.27710214 -0.32194877 0.8240257 0.8174898 0.44647622
-0.5374181 -0.00418118 0.36568478 -0.33302057 0.15048458 0.2861073 -0.06518787 -0.25190875
-0.3326962 -0.27178985 -0.08134039 0.5869278 -0.09824466 -0.27948815 -0.22487171 -0.4508081
-0.64285433 -0.008787715 -0.97884345 0.53953576 0.25848088 -0.3105719 -0.013241434 -0.13638304
0.22835197 -0.8892657 0.23485433 0.06105527 -0.17897451 -0.4387198 0.0467363 -0.33042964
-0.7031009 -0.5078038 -0.37363502 0.0039210753 -0.41586074 0.034524407 0.09168131 -0.03166492
-0.30714116 0.19934006 0.3233377 0.045539856 0.88077235 -0.51823705 0.32477105 0.05252286
0.06231957 -0.035107866 0.032928564 -0.008063662 0.04509154 0.01083988 -0.5702378 -0.35477942
-0.36533874 -0.10770615 0.67681164 0.3047894 0.1406093 -0.7151499 -1.1245768 0.54254
-0.21441622 -0.18697472 -0.15349136 0.24185097 -0.39459172 -0.20488025 -0.8217296 -0.65344834
-0.21373352 0.18333296 -0.59777135 -0.1750825 -0.10975811 0.22998594 0.20056055 0.36007935
0.017209481 0.36962515 0.19154896 -0.1535108 -0.28704962 -0.102483734 -0.108101875 0.77576345
0.05656784 -0.8229939 -0.36515078 -0.090801515 0.10728556 -0.15826035 -0.020023584 -0.2607956
-0.21896702 -0.25146344 -0.2282186 -0.30530593 -0.532606 -0.31913158 -1.3285277 0.04147504
-0.021309203 -0.39803684 0.18678026 -0.5371467 0.43738112 -0.42506626 -0.15468992 0.20084716
-0.24719015 -0.13217026 -0.25800762 0.20725127 0.23729816 0.63353586 0.04264087 -0.17124398
-0.16398714 0.120279886 -0.11609384 0.15636934 -0.4755041 0.32486704 0.6115053 0.22267288
-0.43175116 -0.5861197 0.5058696 -0.35118008 0.5537943 -0.5966286 0.06893153 -0.3369594
0.24376562 -0.1895285 0.0042661587 0.14903764 -0.7246629 -0.08259314 -0.35480073 0.094425246

rnn.cell.recurrent_kernel_r f4 [128, 128]
00000000: 8bf9 fd3c 5096 3c3e d8a3 ef3e 5a6b 273e
00000010: 5c07 61be 315f 903e 23ea f0bd f986 e43c
00000020: a055 a3be 4c4b 12be 149c ebbc f987 a1bd
00000030: e917 6abe 95ab f23d 1a70 063f 3a1b e43e
00000040: fefb 823e b9c3 c3bd a64d 8a3e d77d 153e
00000050: 51ad 413e aac4 933e ae86 50be 3b0a f73d
00000060: 8c0e 4a3e 4750 24bf 9363 48be ebb1 1e3e
00000070: 634b 53be 94fb b43e 7de8 d13e 7b44 0e3e
00000080: 676a 233d 8499 8fbd 3251 dd3d f582 3d3d
00000090: 0218 f33d 4e5d 6c3e f246 513e 6267 2dbd
000000a0: d31d 1fbf 96bb 00be e028 903e 7dcb 1c3e
000000b0: 53dd 193d 170c 1abf 1da1 fb3d 22d9 a0be
000000c0: b6c4 813e 7ec7 913d 82ff b3be f755 543e
000000d0: 0a9d a23d cda9 80bd 20b1 9c3e dec5 59be
000000e0: d520 a33d f8bf 083e 64a0 263e cd61 a53d
000000f0: 5002 c73e a5be d7ba b87d 0a3f 24e1 9ebe
00000100: d8f5 1abe 244a 26bd bbb5 b33e 940c fa3d
00000110: 7b3d 19be 28c0 d33e b8cc a7bb cf17 b8be
00000120: c9ec 883d 00be a63e 9d57 343e ff2b 7bbe
00000130: c8c3 c93c fb7f 83bd 2b1d d2bd 838b e73e
00000140: b1f9 febc 26e0 89be 7cbb bf3d 10f7 003e
00000150: e720 d0bd c33e 0c3f b7db d4bc 354f 4dbe
00000160: 60b8 f43b 6ce8 f43d e906 69be fbaf 953c
00000170: e6ba 2dbd 73c6 9fbe 5cb3 5abe 5287 9a3d
00000180: 6bc1 9c3e f3fc 6bbe a860 393d e2b0 103d
00000190: 8500 13be 26c9 c33e 294d 1c3e 0f4b c13e
000001a0: 5b8b 5e3e 265a eabd 36a0 283e 68ae 3cbf
000001b0: f93f 823e 2a69 483e c701 e5be 267c 373e
000001c0: 587d 153e b752 963e 67f8 313e bed3 b93e
000001d0: 4ac4 97be 8689 0ebe 7993 a43e d647 b33c
000001e0: 2fab 4d3e 0c8e 493e 1b76 fb3e 6def 293e
000001f0: 0cc9 9c3e 7aad 163e 1337 a53e 1c88 cf3e
00000200: c874 8c3d 0d1a db3e cd07 003f f25b 1d3e
00000210: 620d d83d 21fe c8bb 2c8b afbc 077d abbe
00000220: fb45 c1be a4af f23e 0e83 57be 2374 ee3d
00000230: ee2e 173e 5390 b33e 3c97 193f b64a 0d3f
00000240: 9c96 2bbc d618 8dbe 84b3 97bd 6afd b93d
00000250: 21fa 333e f38a a23e e95c a2be a6d8 a53e
00000260: f936 68bd 03d6 2ebe b1f1 02bf aa2c 83be
00000270: 6e04 fcbd 4004 153f 252a c23e 5640 033f
00000280: e72c 923d 9c8e c63e ba29 8bbd c8a9 063f
00000290: a29a 1b3e 4c92 5abe 227a c63e cbba d5bc
000002a0: dcd4 ffbe 6ba6 913e 857e 203f 106d 8b3d
000002b0: d463 b83e 1df8 8cbd 7726 2e3f 7c26 dc3e
000002c0: c3ec 4dbd d88d c2be 7ba0 653e 2d15 0abd
000002d0: ec95 253e ffb0 273e fade ec3e 663d ebbe
000002e0: 8447 a43c 43cd 5e3e deee b83e c594 ae3e
000002f0: ed7d 993d 3bb6 37be 31f7 873e 5c0c 073f
00000300: b55c 7ebe b15a 80be 4f82 853e 5276 fa3e
00000310: 82c7 253e 959e 833e 4231 793d b2e0 4ebe
00000320: 23a1 863e 4ee0 443e 48b1 0a3e 5f46 5ebd
00000330: dd6d c93e 6049 923d db07 e8be bb62 c53e
00000340: 0334 47be 4c06 133f ea6b 49be bca2 973d
00000350: 58f6 abbe 0a30 2fbc f413 64be 79f8 3cbd
00000360: 16cd abbc 7425 a0bc c720 75be 506d 9abe
00000370: 494c fe3e f3c2 0dbd 5695 61be a7e7 86be
00000380: 2378 93bd 0cd4 92be 73fb a83e 38a4 853d
00000390: 2892 10bf d748 e73c 1dfc 2b3e 0f9c 49be
000003a0: d327 4c3e 281b f8be b584 2f3e 7b34 7dbe
000003b0: 14c3 803e b6c2 cabe 46c1 233d e088 52be
000003c0: 3a0a 723e 2884 4a3e 4f6d 03be e6e6 433e
000003d0: eb33 523e 5bf8 31be 842e 773d a37e af3e
000003e0: 351c ff3e 2518 803e f53f 483d 60c9 5dbe
000003f0: 510f d03e 319a 383e 2882 ecbc 331e 2fbd
0.03100278 0.18416715 0.4680469 0.16349545 -0.21975464 0.28197625 -0.11763408 0.027896391
-0.31901264 -0.14286536 -0.028760947 -0.07887263 -0.22860684 0.11849133 0.52514803 0.44552022
0.2558288 -0.095588155 0.27012366 0.14598785 0.18913771 0.2886098 -0.20363876 0.12062498
0.19732112 -0.64184994 -0.19569235 0.15497558 -0.20634227 0.3534819 0.40997687 0.1389331
0.039896395 -0.07011703 0.108065024 0.04626747 0.118698135 0.23082468 0.2043722 -0.04233492
-0.62154883 -0.12571558 0.28156185 0.15312 0.037564587 -0.601747 0.12286589 -0.3141566
0.2534539 0.07118128 -0.35155874 0.20735918 0.07940109 -0.06282387 0.30603886 -0.21266887
0.079652466 0.1335448 0.16272122 0.08075295 0.38868952 -0.0016460015 0.5409808 -0.31031144
-0.15132844 -0.04059805 0.35099587 0.1220943 -0.14964859 0.4135754 -0.00512084 -0.35955665
0.06685788 0.32566833 0.17611547 -0.24528502 0.024629489 -0.06420895 -0.102594696 0.45223626
-0.031124922 -0.26928824 0.09361932 0.12594247 -0.101625256 0.54783267 -0.025983674 -0.20049746
0.0074682683 0.119583935 -0.22756542 0.01827239 -0.04241457 -0.31206092 -0.21357483 0.075453416
0.30616316 -0.23045711 0.045258194 0.03532494 -0.14355667 0.38239402 0.1526381 0.37752578
0.21732847 -0.11442976 0.16467366 -0.7370362 0.25439432 0.19571367 -0.44727919 0.17918453
0.14598596 0.2935998 0.17379914 0.3629436 -0.29641944 -0.13919649 0.32143763 0.02188484
0.20084833 0.19683093 0.49113545 0.1659524 0.30622137 0.14714614 0.3226858 0.4053353
0.06858212 0.42793313 0.50011903 0.15367106 0.105494276 -0.00613381 -0.021428667 -0.33493826
-0.37748703 0.47399628 -0.21046087 0.11643245 0.14763996 0.35071048 0.5999639 0.55192125
-0.01047292 -0.2755801 -0.07407287 0.09081538 0.17575885 0.31746635 -0.3171151 0.32391852
-0.05669305 -0.17073826 -0.5115004 -0.25620013 -0.123055324 0.5820961 0.3792278 0.51270044
0.07137471 0.38780677 -0.06795068 0.52602816 0.15195706 -0.2134487 0.38765055 -0.026090046
-0.49967086 0.2844728 0.62693053 0.068079114 0.36013663 -0.06883261 0.6802744 0.4299811
-0.05027462 -0.37998843 0.224245 -0.0337116 0.16170472 0.16376112 0.46263868 -0.4594528
0.020053633 0.21757989 0.3611974 0.34097877 0.074947216 -0.17940609 0.2655578 0.52753234
-0.24840052 -0.25069192 0.2607598 0.48918396 0.16189387 0.25706926 0.06083799 -0.20202902
0.26294813 0.1922619 0.1354419 -0.05426633 0.39341632 0.071429014 -0.45318493 0.38551888
-0.19453435 0.57431483 -0.19670072 0.07404086 -0.33586383 -0.010692606 -0.22273237 -0.0461354
-0.020971816 -0.019549109 -0.23938285 -0.30161524 0.49667576 -0.034609746 -0.22029623 -0.26348612
-0.07200649 -0.28677404 0.3300434 0.06525463 -0.56473017 0.028232975 0.16795392 -0.19688438
0.19937067 -0.4845822 0.17140467 -0.24727051 0.25148833 -0.39601678 0.03997924 -0.20560026
0.23636714 0.19776976 -0.12834667 0.1913105 0.20527618 -0.17379896 0.060347095 0.34276304
0.49826208 0.2501842 0.04888912 -0.2165885 0.40636685 0.1802757 -0.028870657 -0.04275341

rnn.cell.recurrent_kernel_h f4 [128, 128]
00000000: 74f7 3abe 9b80 3dbe e58d 68be f03d cc3d
00000010: e07e 573d b901 a9bd 00e1 4b3f 8eba f1bc
00000020: c3cd 2a3e 1195 26bb c46b 7cbe f7f0 973d
00000030: 042a 5f3d 23f5 9fbd a260 13be 39e0 f83e
00000040: c4b0 0dbe a79e 593d 51d6 bf3e 0539 8f3d
00000050: cba9 acbd f072 b73e 370f d9bd 35e1 a23e
00000060: 703d 813e 9c96 08bf 944c cbbd 3b6c e2be
00000070: 549d 84be b941 893d 14e5 4cbe 89f6 8e3d
00000080: 041f 03be d80f 4a3e f981 9dbe 9369 223f
00000090: 00d1 3a3e d130 d53e fae0 08bd 628f e03d
000000a0: ad35 5a3e f01f 893e 659a 5ebd c230 4ebe
000000b0: 45e6 dfbe ebc5 87be 6b2d 0ebd 811c 26be
000000c0: d5f9 b43d 199f 403e 0af4 3fbe 7f67 9a3e
000000d0: 62a7 80be 434b 48bd 2d35 743d cffd 913e
000000e0: 5e75 27bd 30d7 863d 5cac 53bf 2911 07be
000000f0: e042 9c3d ce2c 363f c5e7 db3d d8e7 d1bb
00000100: d2c6 f33e 0125 b5be 589f 413e ea94 443d
00000110: fe5e c9be 92f7 063f 3f9c 263f db61 9a3e
00000120: a0c1 853d a33b 223e 0e12 11bd bad3 53bd
00000130: 25de acbc 41cb 563c 5987 023e d38f 4cbf
00000140: 0b30 a53b 3b35 5bbe f882 a93d 8d42 293e
00000150: 2476 1c3e 319f 743d e490 81be a6d8 fcbc
00000160: 4425 1f3e f77f 84be c049 99bd 4747 15be
00000170: b9aa f4bd 2eb9 55be 144a 8e3e fdb8 4abd
00000180: 7e97 55be 0b5e a7bd e381 91be e49f f6bc
00000190: 9db9 3b3d 5f4d 9f3e b59d 08bf 560f 96bd
000001a0: aceb 42be 5e0d ea3c 6a94 c73d 4beb cc3e
000001b0: 3af5 0abf 2be5 98be fdb3 f53d 108b a43d
000001c0: ea47 c7bb 645b 81bd 81a3 e2bd d8f6 3f3f
000001d0: 78a8 c3be 1240 ed3b cd14 a9be 89ca 1ebd
000001e0: 0e9a 49bf d909 193c 0ea0 97bd 33b8 49bc
000001f0: f46c 8abe 5560 74be 931d fbbe 7c56 e2bd
00000200: 4497 0dbe a4b6 f1bd e27d d33d 60b0 8b3e
00000210: 1066 0d3f 61e9 0abd f180 b53c e3a6 253e
00000220: a21d 3cbe 5312 b2bd 97d0 b2bd d24c 05bd
00000230: ca0f 0a3e 5d54 4bbe 235a 93be 0bed cb3e
00000240: 6b9d dfbc cb41 4a3e 6880 5e3e e296 cc3e
00000250: e2f3 bebb 27bc 473e 0820 26be 64bd a0be
00000260: 9e47 2a3e 7218 29bf 635f 9d3e 1d29 de3e
00000270: e01f 9e3d 1d9c 51bc de53 1abe 09c7 c03c
00000280: face 283e 553c e1be aa98 2d3e cd6c 473e
00000290: d681 1cbd 0453 c8be 6699 9fbc 8c93 3dbd
000002a0: 2b25 f7bd fb5b 473d cdbf 10be f1ee 6d3e
000002b0: 87b9 e13c 5cb0 50bd 0e35 65be fb72 fe3d
000002c0: a233 c13c b790 943e 420f 0c3a 975e 203e
000002d0: ae96 a13c 5356 e1bc b386 dcbd d52a 95be
000002e0: 42b8 d3bd ece5 9a3d 39eb 2bbf 737f 403e
000002f0: 4c33 0ebe 7855 9e3e 0a70 ae3b 3312 1bbe
00000300: 3d5e 2b3e 9de7 5f3e 7342 803d 9965 e83d
00000310: 270e 6e3d c63d 2d3d cd6c 503e b221 53be
00000320: a6ee edbd 22de 853d 1f07 283e a6b0 853d
00000330: 9a6e 6ebe b76e 8bbd 684d b93e 40a2 c6be
00000340: ab1e 913b c717 853c 1525 603e fb3f 51be
00000350: 44cb 553e e43e 8b3e 358d 49bf 26b1 433e
00000360: e0c5 e63d 87d6 233e ecd2 bfbd 3242 323e
00000370: d0c7 8c3e 28a4 cc3d 3833 42be 30e8 a03e
00000380: e9c8 d8be 5d05 33bd a1e5 34be d4d8 99be
00000390: 466f dabe c464 c3be 6d66 023e fa56 813c
000003a0: 44c6 79be f1a8 533c e94d 123e 131e 2e3d
000003b0: 2cea 503e bbb0 313d 1714 03be fc46 5b3d
000003c0: 7427 0c3e 0f4b 1e3f c12b bc3d ca23 ba3d
000003d0: 3940 7cbd 14cb 053c 4c93 8abe 993d 283d
000003e0: e28b de3d 77a1 0d3c 38f9 813e 77e2 07be
000003f0: 2873 7c3e 08e4 78be 14f7 e8bc 2a51 cdbc
-0.18258458 -0.1850609 -0.22710378 0.09972751 0.05261123 -0.08252282 0.796402 -0.029507902
0.16680054 -0.002541844 -0.24650484 0.07419007 0.05448343 -0.07810428 -0.14392331 0.48608568
-0.13836962 0.05312982 0.37468198 0.069932975 -0.08430823 0.35829878 -0.10598605 0.31812444
0.25242186 -0.5335481 -0.099267155 -0.44223198 -0.25901282 0.06701989 -0.20009261 0.069806166
-0.128048 0.19732606 -0.30763224 0.63442343 0.1824379 0.41638806 -0.03341768 0.10964848
0.21309538 0.2678218 -0.05434646 -0.20135787 -0.4373037 -0.26518187 -0.034711283 -0.16221811
0.08836714 0.18810691 -0.18745437 0.30157086 -0.25127703 -0.0488999 0.059621025 0.28513953
-0.040883414 0.065840125 -0.82684875 -0.1319014 0.07629943 0.71162117 0.10737566 -0.0064058118
0.47612625 -0.35379794 0.18908441 0.047993578 -0.39330286 0.5272151 0.6508216 0.30152783
0.06531072 0.15843062 -0.03541761 -0.05171559 -0.02110202 0.013109983 0.12746944 -0.7990696
0.0050411276 -0.21407025 0.082769334 0.16529293 0.15279442 0.05972213 -0.25305855 -0.030865025
0.1554156 -0.2587888 -0.0748477 -0.14577971 -0.11946625 -0.20871422 0.27790892 -0.049492825
-0.20858571 -0.08172234 -0.28419408 -0.030105539 0.04583131 0.31113717 -0.5336564 -0.07327144
-0.19035214 0.028570827 0.097451046 0.40023264 -0.54280436 -0.2986234 0.11997221 0.080343366
-0.006081571 -0.063162595 -0.11066342 0.7498603 -0.3821447 0.007240304 -0.33023682 -0.03876737
-0.78750694 0.009340727 -0.07403575 -0.012311983 -0.2703625 -0.23864873 -0.49046 -0.11051652
-0.13827235 -0.11802414 0.103267446 0.27283 0.5523386 -0.033913974 0.02215621 0.16176943
-0.18370679 -0.08694901 -0.087311916 -0.032543965 0.13482586 -0.19856401 -0.28779706 0.39829287
-0.027296742 0.1975166 0.2172867 0.39958864 -0.005827413 0.19505368 -0.16223156 -0.31394494
0.16628882 -0.66052926 0.30736837 0.43390742 0.077209234 -0.012793568 -0.15071055 0.023532407
0.16485205 -0.43991342 0.16952768 0.19475098 -0.03820976 -0.39125836 -0.019482326 -0.04628329
-0.12067636 0.048671704 -0.14135666 0.2323568 0.027554287 -0.05094944 -0.2238352 0.124242745
0.02358419 0.2901666 0.000534285 0.15661083 0.01972517 -0.027506983 -0.10767879 -0.2913424
-0.10337879 0.07563385 -0.67155796 0.18798618 -0.13886756 0.30924582 0.0053234147 -0.15143661
0.16735168 0.21865697 0.06262674 0.11347503 0.058118965 0.04229524 0.20354004 -0.20618322
-0.11617784 0.06536509 0.16408966 0.06527834 -0.23284379 -0.068082266 0.3619187 -0.38795662
0.0044287047 0.01624669 0.21889146 -0.20434563 0.20878321 0.2719642 -0.7873109 0.19110546
0.112682104 0.15999804 -0.09366402 0.17408064 0.27496195 0.09992248 -0.18964851 0.31427145
-0.42340782 -0.043706287 -0.17665721 -0.3004824 -0.4266302 -0.38162816 0.12734385 0.015788544
-0.24392039 0.012918697 0.14287533 0.04250915 0.2040183 0.043381434 -0.12800632 0.053534493
0.13686925 0.6183328 0.09188033 0.090888575 -0.061584685 0.008166093 -0.27065504 0.04107437
0.10866524 0.008644453 0.2538545 -0.13269983 0.24653304 -0.24305737 -0.028438129 -0.025063116

rnn.cell.bias_z f4 [128]
00000000: 0024 0441 8405 0000 0000 0000 0000 0000
00000010: 0000 0000 0000 0000 0000 0000 0000 0000
00000020: 0000 0000 0000 0000 0000 0000 0000 0000
00000030: 0000 0000 0000 0000 0000 0000 0000 0000
00000040: 0100 0000 0000 0000 0000 0000 0000 0000
00000050: 0000 0000 0000 0000 0000 0000 0000 0000
00000060: 0000 0000 0000 0000 0000 0000 0000 0000
00000070: 0000 0000 0000 0000 0000 0000 0000 0000
00000080: 0000 0000 0000 0000 0100 0000 0000 0000
00000090: 0000 0000 0000 0000 0000 0000 0000 0000
000000a0: 0000 0000 0000 0000 0000 0000 0000 0000
000000b0: 0000 0000 0000 0000 0000 0000 0000 0000
000000c0: 0000 0000 0000 0000 0000 0000 0000 0000
000000d0: 0000 0000 0000 0000 0000 0000 0000 0000
000000e0: 0000 0000 0000 0000 0000 0000 0000 0000
000000f0: 0000 0000 0000 0000 0000 0000 0000 0000
00000100: 0000 0000 0000 0000 0000 0000 0000 0000
00000110: 0000 0000 0000 0000 0000 0000 0000 0000
00000120: 0000 0000 0000 0000 0000 0000 0000 0000
00000130: 0000 0000 0000 0000 0000 0000 0000 0000
00000140: 0000 0000 0000 0000 0000 0000 0000 0000
00000150: 0100 0000 0000 0000 0000 0000 0000 0000
00000160: 0000 0000 0000 0000 0000 0000 0000 0000
00000170: 0000 0000 0000 0000 0000 0000 0000 0000
00000180: 0100 0000 0000 0000 0000 0000 0000 0000
00000190: 0000 0000 0000 0000 0000 0000 0000 0000
000001a0: 0000 0000 0000 0000 0100 0000 0000 0000
000001b0: 0000 0000 0000 0000 0000 0000 0000 0000
000001c0: 0000 0000 0000 0000 0000 0000 0000 0000
000001d0: 0000 0000 0000 0000 0000 0000 0000 0000
000001e0: 0000 0000 0000 0000 0000 0000 0000 0000
000001f0: 0000 0000 0000 0000 0000 0000 0000 0000
8.258789 1.979e-42 0.0 0.0 0.0 0.0 0.0 0.0
0.0 0.0 0.0 0.0 0.0 0.0 0.0 0.0
1e-45 0.0 0.0 0.0 0.0 0.0 0.0 0.0
0.0 0.0 0.0 0.0 0.0 0.0 0.0 0.0
0.0 0.0 1e-45 0.0 0.0 0.0 0.0 0.0
0.0 0.0 0.0 0.0 0.0 0.0 0.0 0.0
0.0 0.0 0.0 0.0 0.0 0.0 0.0 0.0
0.0 0.0 0.0 0.0 0.0 0.0 0.0 0.0
0.0 0.0 0.0 0.0 0.0 0.0 0.0 0.0
0.0 0.0 0.0 0.0 0.0 0.0 0.0 0.0
0.0 0.0 0.0 0.0 1e-45 0.0 0.0 0.0
0.0 0.0 0.0 0.0 0.0 0.0 0.0 0.0
1e-45 0.0 0.0 0.0 0.0 0.0 0.0 0.0
0.0 0.0 1e-45 0.0 0.0 0.0 0.0 0.0
0.0 0.0 0.0 0.0 0.0 0.0 0.0 0.0
0.0 0.0 0.0 0.0 0.0 0.0 0.0 0.0

rnn.cell.bias_r f4 [128]
00000000: 001c 0441 8405 0000 823f d33b b969 a13c
00000010: c8a6 2c3c 26f8 2d3c 1fd7 893b fbfe a03c
00000020: 6886 fa3b dced 983c 1538 c13c f26e 7b3b
00000030: ad33 273b 06f8 b93c 87eb a03c e416 a93b
00000040: 166f 203b f5ea 713d 41aa b13c 9d9a 863b
00000050: b0d2 9e3b 5c3e 4c3d e4c6 2a3d c538 ba3c
00000060: 617c 763b e69f c63b e6a5 f23c e364 503c
00000070: c2fe f73b 4fd1 9c3c ed77 ad3b b3d3 be3c
00000080: b393 fb3c c269 bd3c db32 3f3d 8b16 0b3c
00000090: 4ad1 043d e2f7 263c f036 193b c931 933b
000000a0: 642b 753c af88 713c a235 c53b 01d9 373b
000000b0: 122d c93b 4832 433c 248a 493b 8860 883b
000000c0: 29f2 083c 221b 543b 78b5 db3c 240f 1a3c
000000d0: d316 df3b 1c0d db3b 8e04 aa3c 61e1 823b
000000e0: fa38 e53b 3411 763b 7a39 5a3b 374f 5c3b
000000f0: c427 0e3c 5c57 6c3b 55e8 103d fe31 d83b
00000100: bdf7 033c 4eea b43c 0721 553b f06b e83b
00000110: f4f7 c93c 4c2d 403d 5465 373d c1c6 273b
00000120: 9178 bc3c bbc8 893b 15ce 9a3c 565e 613c
00000130: 18d4 a33b 9542 8c3c f446 5c3c e065 ea3b
00000140: cdfb b73b 4592 833b ba54 763c 7718 933c
00000150: 84ca 133c 275c 203d 1cff 503b 58a1 d53b
00000160: 88c3 5b3b f7e8 843b 10b2 5b3b fe44 a73b
00000170: 7f62 273b 47ba c33b 62ac b93b 7649 843d
00000180: b871 123d eb94 843b 6776 063c 05f5 703d
00000190: 20b7 763b 9326 6f3b 41d0 2a3b 26dd a23c
000001a0: 422a 163c 262e 0b3b 1488 b63c cecc a73b
000001b0: ea3e 9a3c 8cb7 cc3c fa6a 6c3b 2dfc 3c3c
000001c0: a4db 463b 04c8 f83c 2736 023d c4d6 f23c
000001d0: 2eca 403b 6eee 053c 719b 5f3b 28aa d23b
000001e0: b0b0 913b 01df bd3c 5e78 e23c 6928 de3c
000001f0: c5fa 7a3b 3f55 593c 6271 243d 6eb7 b93b
8.256836 1.979e-42 0.0064467797 0.019703733 0.010537811 0.010618245 0.0042065526 0.019652834
0.007645417 0.018668108 0.023586312 0.003836569 0.002551298 0.022701275 0.019643558 0.0051601995
0.0024480275 0.059061963 0.021687629 0.004107787 0.0048468933 0.049864158 0.041693583 0.022732148
0.0037610757 0.006061542 0.029620122 0.012719366 0.0075682113 0.019142775 0.0052938373 0.023294305
0.030710077 0.023121718 0.04667936 0.008489261 0.032426156 0.010190936 0.0023378693 0.004492019
0.014963958 0.014742061 0.0060183564 0.0028052928 0.006139406 0.011913843 0.0030752504 0.004161898
0.008358517 0.0032364805 0.02681993 0.009403024 0.006808141 0.0066849124 0.020754125 0.0039941524
0.0069953175 0.0037546875 0.003329842 0.0033616552 0.008676473 0.0036062812 0.03537782 0.0065977564
0.008054671 0.022084381 0.0032520907 0.0070929453 0.024654366 0.0469182 0.04477437 0.0025600644
0.02300671 0.004204837 0.018897096 0.013755402 0.004999649 0.017121593 0.013444651 0.0071532577
0.005614734 0.0040152394 0.015034849 0.017956002 0.009020451 0.039150383 0.0031890338 0.006519478
0.0033533294 0.004056092 0.0033522882 0.00510466 0.0025540886 0.0059731337 0.0056663016 0.06459324
0.035752982 0.0040460727 0.00820694 0.05882742 0.0037645772 0.0036491498 0.002606407 0.019880842
0.0091653485 0.0021237223 0.022281684 0.00512085 0.018828828 0.024989866 0.0036074505 0.011534733
0.0030343318 0.030368812 0.031789925 0.029643424 0.0029417383 0.008174522 0.003411975 0.0064289756
0.0044461116 0.023177626 0.027645286 0.027118878 0.0038296443 0.013264953 0.040147193 0.0056676185

rnn.cell.bias_h f4 [128]
00000000: 002c 0441 8405 0000 033f d33b 6369 a13c
00000010: 67a6 2c3c c4f7 2d3c c5d6 893b a6fe a03c
00000020: d685 fa3b 8bed 983c af37 c13c 496e 7b3b
00000030: 2e33 273b a4f7 b93c 32eb a03c 7a16 a93b
00000040: 9b6e 203b 79ea 713d e3a9 b13c 459a 863b
00000050: 4cd2 9e3b f33d 4c3d 8cc6 2a3d 6338 ba3c
00000060: bb7b 763b 6e9f c63b 68a5 f23c 7064 503c
00000070: 31fe f73b fcd0 9c3c 8177 ad3b 4fd3 be3c
00000080: 3093 fb3c 5e69 bd3c 7832 3f3d 3a16 0b3c
00000090: 05d1 043d 84f7 263c 7836 193b 6a31 933b
000000a0: de2a 753c 2b88 713c 2a35 c53b 7ad8 373b
000000b0: 982c c93b db31 433c 9489 493b 2f60 883b
000000c0: daf1 083c 8d1a 543b 05b5 db3c cc0e 1a3c
000000d0: 4e16 df3b 990c db3b 3404 aa3c 0be1 823b
000000e0: 7238 e53b 8e10 763b e238 5a3b 9e4e 5c3b
000000f0: 7227 0e3c bb56 6c3b 0ae8 103d 7d31 d83b
00000100: 70f7 033c efe9 b43c 7120 553b 676b e83b
00000110: 8af7 c93c e92c 403d f564 373d 42c6 273b
00000120: 2e78 bc3c 61c8 893b c3cd 9a3c da5d 613c
00000130: b1d3 a33b 4a42 8c3c 7b46 5c3c 5665 ea3b
00000140: 5cfb b73b ee91 833b 3454 763c 2818 933c
00000150: 2fca 133c d45b 203d 89fe 503b d8a0 d53b
00000160: efc2 5b3b a0e8 843b 77b1 5b3b 9544 a73b
00000170: 0062 273b d0b9 c33b f0ab b93b 3349 843d
00000180: 6c71 123d 9494 843b 1976 063c 8af4 703d
00000190: 7ab6 763b f025 6f3b c1cf 2a3b d0dc a23c
000001a0: ec29 163c b52d 0b3b b487 b63c 65cc a73b
000001b0: 983e 9a3c 21b7 cc3c 596a 6c3b c4fb 3c3c
000001c0: 16db 463b 83c7 f83c e335 023d 46d6 f23c
000001d0: a3c9 403b 20ee 053c d69a 5f3b aaa9 d23b
000001e0: 52b0 913b 9dde bd3c e877 e23c f527 de3c
000001f0: 1dfa 7a3b c754 593c 0d71 243d fcb6 b93b
8.260742 1.979e-42 0.0064467206 0.019703573 0.01053772 0.010618154 0.0042065107 0.019652676
0.007645349 0.018667957 0.023586122 0.0038365296 0.0025512683 0.022701092 0.0196434 0.00516015
0.0024479988 0.0590615 0.021687454 0.004107746 0.0048468467 0.049863767 0.041693255 0.022731965
0.003761037 0.006061486 0.029619887 0.012719259 0.007568144 0.01914262 0.005293787 0.02329412
0.030709833 0.023121532 0.04667899 0.008489186 0.0324259 0.010190848 0.0023378413 0.0044919746
0.014963834 0.014741938 0.0060183005 0.0028052614 0.006139349 0.011913742 0.003075217 0.0041618566
0.008358443 0.0032364458 0.026819715 0.009402942 0.006808079 0.0066848514 0.020753957 0.0039941124
0.006995254 0.0037546488 0.0033298065 0.0033616195 0.008676397 0.0036062438 0.03537754 0.0065976963
0.008054599 0.022084204 0.0032520557 0.0070928815 0.024654169 0.04691783 0.044774015 0.0025600349
0.023006525 0.004204795 0.018896943 0.013755286 0.004999601 0.017121453 0.013444538 0.0071531935
0.005614681 0.004015199 0.015034724 0.017955855 0.009020372 0.039150074 0.0031889996 0.006519418
0.0033532938 0.0040560514 0.0033522525 0.005104611 0.002554059 0.0059730783 0.0056662485 0.06459274
0.0357527 0.004046032 0.008206868 0.05882696 0.0037645386 0.0036491118 0.0026063772 0.019880682
0.009165268 0.002123696 0.022281505 0.0051208013 0.018828675 0.024989666 0.003607413 0.011534635
0.0030342988 0.030368572 0.03178967 0.02964319 0.002941706 0.008174449 0.003411939 0.006428917
0.004446068 0.02317744 0.027645066 0.027118662 0.0038296052 0.013264841 0.040146876 0.0056675654

rnn.cell.input_decay_kernel f4 [37]
00000000: 0000 0000 0000 0000 0000 0000 0000 0000
00000010: 0000 0000 0000 0000 0000 0000 0000 0000
00000020: 0000 0000 0000 0000 0000 0000 0000 0000
00000030: 0000 0000 0000 0000 0000 0000 0000 0000
00000040: 0000 0000 0000 0000 0000 0000 0000 0000
00000050: 0000 0000 0000 0000 0000 0000 0000 0000
00000060: 0000 0000 0000 0000 0000 0000 0000 0000
00000070: 0000 0000 0000 0000 0000 0000 0000 0000
00000080: 0000 0000 0000 0000 0000 0000 0000 0000
00000090: 0000 0000
0.0 0.0 0.0 0.0 0.0 0.0 0.0 0.0
0.0 0.0 0.0 0.0 0.0 0.0 0.0 0.0
0.0 0.0 0.0 0.0 0.0 0.0 0.0 0.0
0.0 0.0 0.0 0.0 0.0 0.0 0.0 0.0
0.0 0.0 0.0 0.0 0.0

rnn.cell.input_decay_bias f4 [37]
00000000: 0000 0000 0000 0000 0000 0000 0000 0000
00000010: 0000 0000 0000 0000 0000 0000 0000 0000
00000020: 0000 0000 0000 0000 0000 0000 0000 0000
00000030: 0000 0000 0000 0000 0000 0000 0000 0000
00000040: 0000 0000 0000 0000 0000 0000 0000 0000
00000050: 0000 0000 0000 0000 0000 0000 0000 0000
00000060: 0000 0000 0000 0000 0000 0000 0000 0000
00000070: 0000 0000 0000 0000 0000 0000 0000 0000
00000080: 0000 0000 0000 0000 0000 0000 0000 0000
00000090: 0000 0000
0.0 0.0 0.0 0.0 0.0 0.0 0.0 0.0
0.0 0.0 0.0 0.0 0.0 0.0 0.0 0.0
0.0 0.0 0.0 0.0 0.0 0.0 0.0 0.0
0.0 0.0 0.0 0.0 0.0 0.0 0.0 0.0
0.0 0.0 0.0 0.0 0.0
