grud_output/split_5/checkpoint.pt (torch, 410402 bytes, 22 tensors)

rnn.cell.kernel_z f4 [128, 37]
-0.36225846 0.07955465 0.39589745 0.08772161 0.069867514 -0.25234592 0.000637521 0.26253316
0.09187223 0.005248655 0.171153 0.020313798 0.09015316 0.21771795 -0.1961714 -0.14740199
0.035411518 -0.10815347 -0.104120396 -0.07968021 -0.10284246 -0.2392772 0.06473763 -0.15141936
0.14425617 0.0035193828 0.0956233 0.09177569 -0.0630436 0.24141645 0.0038362502 0.05141444
-0.17987213 0.16339093 -0.05037793 -0.13354735 -0.02696277 0.6845892 0.18699665 -0.051084984
0.10645564 -0.12525542 -0.11875264 -0.47047386 0.29243848 0.30583334 0.8109316 -0.6787001
0.62462837 -0.016718367 0.49069998 -1.4005181 0.768084 0.13858616 -0.08187237 0.5532014
0.13887906 -0.09192966 -0.14233433 -0.14864066 -0.6602304 -0.14656179 -0.36919734 -0.23257278
-0.4012869 0.007352256 -0.10927632 0.5752205 -0.5855672 -0.721699 -0.010236731 -0.01030212
-0.34013405 0.74162996 0.2281325 -0.10868291 0.55213636 0.59410393 -0.23643257 -0.44821998
0.119260825 0.002324761 -0.042263694 0.15931286 -0.28536785 -0.61997575 -1.0739307 -0.05997676
-0.041567218 -0.0875194 -0.21494833 -0.50757647 -0.39656463 0.12413949 -0.654238 -0.008170831
0.38797957 -0.69652045 0.23696363 0.2045776 0.13587652 0.0644611 0.42479572 -0.6427483
-0.21397711 0.43842763 0.041480783 -0.066707924 -0.04030277 -0.067767404 -0.3603563 -0.45263964
-0.6412621 -0.5917892 -0.38987327 -0.23161916 0.037414376 -0.47629312 -0.11711362 -0.34071678
0.42665857 0.3444035 0.2328134 -0.14834371 -0.1014203 0.24925967 -0.6556204 -0.19612391
0.27729362 0.9333443 0.008975014 -0.13948034 0.19187587 -0.4973504 -0.4945785 0.6620439
-0.4103716 -0.10518035 0.07381786 0.11573232 1.0640786 0.024188953 -0.47906864 -0.34053686
-0.16512169 0.060190964 1.0294865 0.09956174 -0.28973162 -0.05781603 0.19123553 0.1183959
0.4132698 0.02820389 0.13252805 0.09729819 0.10871933 -0.43431842 -0.44354945 0.1506292
0.26340544 0.35954714 -0.1358993 -0.26483306 -0.5099336 0.067435354 0.22807446 -0.052131534
0.042137016 0.36702386 -0.17172588 0.17664506 0.34253553 0.19471592 -0.13290556 0.35411283
0.15514958 0.034742378 -0.28309742 0.3779991 0.25878018 0.027148895 -0.055753823 0.36038622
0.58480334 -0.0045612105 0.57551926 -0.51708204 0.37745744 -1.1501209 -0.37972844 -1.0255139
-0.44147044 -1.1106114 -0.0052879727 -0.06904814 0.2308154 -0.4890773 0.20181802 -0.8425318
-0.49363896 0.042160876 -0.9902312 0.18803664 0.08696541 0.2232821 -0.48187813 -0.68359953
-0.31942 -0.34448376 0.01816394 -0.5161336 0.383926 0.56652254 -0.04600259 0.05987264
-0.18230958 0.11875207 0.31451827 -1.6281874 1.0858725 -0.4295061 -0.029280482 0.16108677
0.46152577 -0.13650735 0.046840966 0.015424763 -0.122036316 0.039390218 -0.0035290087 0.07761445
0.20142415 -0.13596807 0.0717625 0.07814958 0.043353893 0.1350924 0.2719843 0.0771209
-0.08672321 -0.09228453 0.057233177 -0.121764466 0.13221507 -0.18222886 0.0375318 -0.06727361
0.050516505 0.05845705 0.09917647 -0.21758305 -0.18193825 -0.14078635 0.016082983 0.014418633
00000000: f179 b9be 8ced a23d 12b3 ca3e 63a7 b33d
00000010: b316 8f3d 7c33 81be 4f1f 273a bf6a 863e
00000020: 8227 bc3d e9fc ab3b bb42 2f3e 1f69 a63c
00000030: 38a2 b83d 74f1 5e3e 28e1 48be 8cf0 16be
00000040: ab0b 113d 917f ddbd 133d d5bd 612f a3bd
00000050: 119f d2bd 1505 75be 2a95 843d ad0d 1bbe
00000060: e4b7 133e 72a5 663b 26d6 c33d e5f4 bb3d
00000070: 011d 81bd e035 773e 9969 7b3b f397 523d
00000080: 6630 38be f44f 273e 1759 4ebd a3c0 08be
00000090: 07e1 dcbc 3d41 2f3f 0d7c 3f3e 7d3e 51bd
000000a0: 6a05 da3d f542 00be 9634 f3bd f3e1 f0be
000000b0: 7fba 953e 3096 9c3e 3799 4f3f 4abf 2dbf
000000c0: a5e7 1f3f f5f4 88bc 073d fb3e 2d44 b3bf
000000d0: 27a1 443f 88e9 0d3e b3ac a7bd 9b9e 0d3f
000000e0: 5036 0e3e 9e45 bcbd 17c0 11be 4235 18be
000000f0: dc04 29bf 4b14 16be 6f07 bdbe 8f27 6ebe
00000100: 7a75 cdbe 32eb f03b 43cc dfbd a741 133f
00000110: bbe7 15bf 44c1 38bf f6b7 27bc 39ca 28bc
00000120: 0d26 aebe 76db 3d3f 919b 693e 2595 debd
00000130: cf58 0d3f 3217 183f 611b 72be 177d e5be
00000140: 053f f43d 045b 183b b21c 2dbd e922 233e
00000150: bc1b 92be bbb6 1ebf 9076 89bf 31aa 75bd
00000160: 6342 2abd 5f3d b3bd 6a1b 5cbe 88f0 01bf
00000170: 850a cbbe d83c fe3d 247c 27bf f3de 05bc
00000180: 42a5 c63e 2a4f 32bf 98a6 723e ca7c 513e
00000190: 3723 0b3e 2e04 843d d37e d93e 278b 24bf
000001a0: d11c 5bbe 9679 e03e c1e7 293d 2a9e 88bd
000001b0: 8414 25bd a3c9 8abd 9f80 b8be 62c0 e7be
000001c0: c129 24bf 7f7f 17bf 789d c7be 932d 6dbe
000001d0: d13f 193d b1dc f3be 44d9 efbd 6e72 aebe
000001e0: fe72 da3e a855 b03e a366 6e3e 6ae7 17be
000001f0: 72b5 cfbd ed3d 7f3e bdd6 27bf b5d4 48be
00000200: 6ef9 8d3e a7ef 6e3f f00b 133c efd3 0ebe
00000210: 1c7b 443e b6a4 febe 6539 fdbe b67b 293f
00000220: 3a1c d2be cc68 d7bd d12d 973d 1105 ed3d
00000230: ba33 883f e927 c63c 7c48 f5be d95a aebe
00000240: a915 29be cd8a 763d 37c6 833f 07e7 cb3d
00000250: b457 94be 80d0 6cbd 3fd3 433e 8d79 f23d
00000260: 1998 d33e d80b e73c 6fb5 073e 4644 c73d
00000270: 3da8 de3d fc5e debe ea18 e3be 8a3e 1a3e
00000280: 14dd 863e 9016 b83e 3029 0bbe 3398 87be
00000290: 028b 02bf 8c1b 8a3d 5a8c 693e e087 55bd
000002a0: dd97 2c3d 8dea bb3e e9d8 2fbe 71e2 343e
000002b0: d160 af3e 9c63 473e 6518 08be 474e b53e
000002c0: 88df 1e3e 064e 0e3d 25f2 90be 1989 c13e
000002d0: d67e 843e 5c67 de3c 1f5e 64bd 8b84 b83e
000002e0: acb5 153f 3576 95bb 3b55 133f 7d5f 04bf
000002f0: 1a42 c13e 2937 93bf c46b c2be 0a44 83bf
00000300: 6a08 e2be 8428 8ebf bb46 adbb 1c69 8dbd
00000310: df5a 6c3e 5768 fabe 62a9 4e3e 2ab0 57bf
00000320: 3fbe fcbe e2b0 2c3d cb7f 7dbf ad8c 403e
00000330: ec1a b23d 10a4 643e bbb8 f6be 6100 2fbf
00000340: 058b a3be 2d60 b0be 8bcc 943c 5521 04bf
00000350: f391 c43e 9f07 113f 366d 3cbd 033d 753d
00000360: 5daf 3abe 4934 f33d 8a08 a13e 7268 d0bf
00000370: dffd 8a3f 39e8 dbbe 9fdd efbc eef3 243e
00000380: 1b4d ec3e 95c8 0bbe 50dc 3f3d 25b8 7c3c
00000390: 2dee f9bd a357 213d f146 67bb 53f4 9e3d
000003a0: 2242 4e3e 373b 0bbe 38f8 923d e30c a03d
000003b0: da93 313d a955 0a3e 8741 8b3e 90f1 9d3d
000003c0: f09b b1bd acff bcbd 566d 6a3d a65f f9bd
000003d0: 6363 073e 349a 3abe f2ba 193d bfc6 89bd
000003e0: 65ea 4e3d a970 6f3d 081d cb3d 17ce 5ebe
000003f0: 054e 3abe 4c2a 10be 76c0 833c 213c 6c3c

rnn.cell.kernel_r f4 [128, 37]
0.5056257 -0.24536306 0.4036699 -0.11121615 -0.172434 1.2109052 2.2911174 -0.15149339
0.5171512 0.28636536 -0.25189325 -0.20271197 -0.61918354 0.1332486 0.4342051 0.3205551
-0.8734101 -1.6757094 -0.88931906 0.019409418 -1.0378321 -0.43591753 -0.18585841 -0.057842314
-0.29845437 -0.13851391 0.191494 0.29673862 0.030746121 -0.46276048 0.4287185 0.20833175
0.050909933 0.83463794 -0.79283607 0.5470839 0.40905976 -0.089094765 0.17171848 -0.35969952
0.10420043 0.26132992 -0.92016995 -0.7164621 0.010264492 -0.26513866 0.21984796 0.3158708
-0.05479234 0.4725344 0.12418673 0.9035011 0.12986948 -0.1261555 1.0116836 0.3151932
0.13083717 -0.232486 0.18714432 0.3398605 0.644737 0.753482 -0.19558148 0.23261537
0.4405559 0.22569568 -0.5704469 -0.61540675 0.5552199 -0.2767941 0.45125186 0.11763896
0.9506838 0.51772904 0.041894224 -0.051730372 0.02495097 0.19799736 0.10743072 0.04543496
-0.12203425 -0.15756364 0.08664576 0.078862846 -0.25898397 0.053554423 -0.46651682 0.15763918
-0.21166024 -0.045051217 0.15053403 -0.1942983 -0.029069627 0.18805262 -0.075534135 -0.019773366
0.18550664 0.18416116 0.06339669 -0.052524272 0.078580596 0.1693506 -0.031231316 0.31381586
0.021424739 0.32074553 -0.2373199 0.11095202 -0.05643452 -0.16488881 -0.1955914 -0.39637432
1.2347836 -0.6895623 0.25625804 -0.75119793 0.38817358 0.0017575299 0.18034573 -0.12761681
0.8832958 -0.48959967 -0.50631785 0.3187449 0.092258886 -0.29914817 -0.66026795 -0.7440864
-0.4467101 0.100383766 -0.11456034 0.07815472 -0.54986316 -0.6909545 -0.23290099 0.009188669
0.46090996 -1.4897789 0.058341473 1.4292115 -0.4477208 0.30321917 0.01119769 -0.72973686
-0.14630607 -0.3074744 -0.44791323 0.3748904 -0.2146302 0.016066955 0.42040643 0.5695789
0.42294297 1.1823997 0.2914302 -0.5334127 0.36352596 -0.19706412 0.72865975 -1.0770272
-0.010618015 -0.24896155 0.8496665 0.20555413 1.3238661 0.32730764 -2.133223 0.0011640936
-0.44347408 -0.11226934 0.5009556 -0.68817997 0.27215186 1.5552007 0.8571439 -0.2494088
-0.07204621 -0.7716589 -0.920587 -0.66522515 0.20478311 -0.24800909 -0.06926729 0.33306786
-0.92025995 -0.17863826 0.086729504 -0.715651 0.04764741 0.6278693 0.8783775 0.86376804
-0.5364651 0.7162639 0.14405511 0.038795978 -0.013946067 -0.08041358 -0.18787616 0.021147614
-0.14121954 0.40129012 -0.67681444 -0.15416193 -0.15664414 0.61598665 0.06234427 0.019143721
0.40186772 -0.46164516 -0.8973414 -0.64823747 0.13772376 0.45697305 0.23396279 0.19707614
-0.902845 0.13888744 0.31707102 -0.37113363 0.6084607 1.0768832 -0.8103505 0.28958744
0.46236455 0.114670984 -0.38866523 -0.1523692 1.4681561 -0.9239647 1.0432719 -0.4274521
-0.050121557 0.5961142 0.22855932 -2.0869348 0.39707685 -0.85920966 1.1583408 -1.5022807
-0.7282268 -0.014957026 0.1366128 0.7599379 0.5744678 0.767428 -1.3331196 -0.37298962
-0.19780317 -1.0614419 -0.4433384 -0.26463467 -1.1828042 -0.494595 -0.8532249 -0.665375
00000000: b070 013f 7440 7bbe d2ad ce3e 4bc5 e3bd
00000010: 8a92 30be f1fe 9a3f aba1 1240 1521 1bbe
00000020: 0564 043f 7b9e 923e 27f8 80be ba93 4fbe
00000030: d082 1ebf 5272 083e 2250 de3e cc1f a43e
00000040: ce97 5fbf a57d d6bf 6aaa 63bf 8000 9f3c
00000050: afd7 84bf 9530 dfbe ab51 3ebe 10ec 6cbd
00000060: 03cf 98be 97d6 0dbe 0117 443e 20ee 973e
00000070: 4adf fb3c f1ee ecbe fe80 db3e eb54 553e
00000080: ef86 503d d5aa 553f 4ef7 4abf b10d 0c3f
00000090: 4870 d13e 5177 b6bd f8d6 2f3e 892a b8be
000000a0: 0967 d53d 09cd 853e 4290 6bbf 0f6a 37bf
000000b0: 662c 283c 41c0 87be d31f 613e d1b9 a13e
000000c0: ef6d 60bd 07f0 f13e 9d55 fe3d d94b 673f
000000d0: 81fc 043e e82e 01be d97e 813f 0161 a13e
000000e0: 2efa 053e cf10 6ebe c3a2 3f3e 3202 ae3e
000000f0: 7c0d 253f 32e4 403f 8346 48be b932 6e3e
00000100: 8b90 e13e c51c 673e cf08 12bf 4c8b 1dbf
00000110: e422 0e3f f5b7 8dbe 7c0a e73e b2ec f03d
00000120: 0360 733f e489 043f 4799 2b3d 3ae3 53bd
00000130: fa65 cc3c d2bf 4a3e a304 dc3d 021a 3a3d
00000140: 18ed f9bd 5d58 21be 5573 b13d d882 a13d
00000150: 8c99 84be e25b 5b3d 4bdb eebe 2a6c 213e
00000160: 76bd 58be a087 38bd 9825 1a3e 22f6 46be
00000170: 6d23 eebc de90 403e a4b1 9abd c1fb a1bc
00000180: 74f5 3d3e be94 3c3e 20d6 813d b123 57bd
00000190: ddee a03d 3e6a 2d3e d1d8 ffbc 79ac a03e
000001a0: ef82 af3c c238 a43e fd03 73be d03a e33d
000001b0: e227 67bd 9dd8 28be 1d49 48be 93f1 cabe
000001c0: 640d 9e3f 2887 30bf 4134 833e 824e 40bf
000001d0: b0be c63e eb5c e63a 8dac 383e fbad 02be
000001e0: ac1f 623f cfac fabe 0c9e 01bf 8832 a33e
000001f0: 3af2 bc3d f329 99be 5207 29bf 727c 3ebf
00000200: 30b7 e4be 0196 cd3d 9d9e eabd 950f a03d
00000210: d5c3 0cbf 65e2 30bf 997d 6ebe 128c 163c
00000220: 64fc eb3e 13b1 bebf 78f7 6e3d 67f0 b63f
00000230: a93b e5be 8b3f 9b3e 8476 373c 09d0 3abf
00000240: 42d1 15be 496d 9dbe e254 e5be a2f1 bf3e
00000250: 05c8 5bbe d99e 833c 833f d73e eccf 113f
00000260: fb8b d83e e058 973f 5736 953e bc8d 08bf
00000270: 1320 ba3e 2dcb 49be 7289 3a3f 07dc 89bf
00000280: 2ff7 2dbc c7ef 7ebe be83 593f c87c 523e
00000290: 7274 a93f de94 a73e ba86 08c0 8094 983a
000002a0: 090f e3be 78ed e5bd a03e 003f 902c 30bf
000002b0: 7d57 8b3e d110 c73f c86d 5b3f 0565 7fbe
000002c0: f78c 93bd 708b 45bf 97ab 6bbf 324c 2abf
000002d0: aab2 513e 18f6 7dbe 02dc 8dbd df87 aa3e
000002e0: 2896 6bbf f3ec 36be 3d9f b13d e734 37bf
000002f0: ee29 433d 0bbc 203f 59dd 603f e71f 5d3f
00000300: c755 09bf 125d 373f 2f83 133e 88e8 1e3d
00000310: 0b7e 64bc e0af a4bd 9c62 40be c33d ad3c
00000320: db9b 10be e675 cd3e b643 2dbf a0dc 1dbe
00000330: 5267 20be 4db1 1d3f b55c 7f3d 4bd3 9c3c
00000340: 9bc1 cd3e c15c ecbe 2ab8 65bf e4f2 25bf
00000350: 7507 0d3e 5ff8 e93e f193 6f3e 54ce 493e
00000360: da20 67bf 8238 0e3e 2257 a23e 3a05 bebe
00000370: 15c4 1b3f 4fd7 893f 2173 4fbf ce44 943e
00000380: 0cbb ec3e 9fd8 ea3d 21ff c6be ac06 1cbe
00000390: 8aec bb3f f388 6cbf ef89 853f 00db dabe
000003a0: 434c 4dbd f19a 183f 740b 6a3e 5790 05c0
000003b0: a84d cb3e 2af5 5bbf 8344 943f bc4a c0bf
000003c0: 126d 3abf 500e 75bc 3ae4 0b3e 4a8b 423f
000003d0: 5210 133f 2976 443f aaa3 aabf 7ff8 bebe
000003e0: ea8c 4abe 54dd 87bf 40fd e2be 327e 87be
000003f0: 2166 97bf 8e3b fdbe f26c 5abf 0456 2abf

rnn.cell.kernel_h f4 [128, 37]
-0.12154269 0.22654788 0.10852019 0.11534992 0.20769006 0.18116899 0.18079245 -0.44262886
0.21773128 0.021011386 0.15561992 0.29292879 0.102087185 -0.37573856 0.3430808 -0.15618746
-0.18361785 -0.037284967 -0.07411887 -0.17499194 0.007891081 -0.113144144 0.062337615 0.19295627
0.111587755 -0.025170526 -0.008199219 0.21636353 0.113458276 0.034101527 -0.21014702 0.09926568
-0.008377754 0.024458522 0.012887948 0.5340909 0.48070097 -0.059383936 -0.071953 0.33170095
-0.6191906 0.19644839 0.06997424 0.24693243 0.49057406 -0.4940535 0.3887126 -0.14342359
-0.48153433 -0.14779343 -0.3612162 -0.39881274 0.07809394 -0.0009541196 -0.5286005 -0.25743857
-0.17887764 0.081267536 -0.6501679 -0.47517765 0.31852734 -1.017169 0.9883995 -0.2734169
0.22378474 0.03886996 0.21450053 0.51537955 -0.48125124 -0.19912343 0.025746059 0.33314314
-0.009044913 0.26781076 0.7605754 -0.6970772 0.47888634 0.51097673 0.07598817 -0.50785613
0.56395215 0.5448091 -0.26446712 -0.110742874 0.009082289 0.2512682 -0.16463348 -0.042809237
0.2821911 -0.1919112 -0.46826714 -0.21402478 0.26666924 0.09950733 -0.098474085 0.42761216
-0.2678353 -0.059544753 0.021082146 0.10741911 -0.023137419 0.62465394 -0.58699054 0.50289416
-0.08303535 -0.21896684 -0.20222084 0.07853668 -0.06349992 -0.053290218 0.3345941 0.5829415
0.028762953 0.36503237 1.2970839 1.1730676 0.27296397 -0.65132964 0.36034775 -0.115733735
1.1092114 0.28413597 1.1854415 0.4747604 1.8802361 0.13135341 -0.32589704 -0.82041585
-0.83616745 0.757655 0.13951197 -0.55924577 0.32791856 0.6549425 -0.16224988 -0.2075629
1.197833 0.25738555 0.2207876 -0.31664374 -0.38906193 1.1830544 -0.95400906 -0.53114986
-0.18939151 2.491158 -0.55790454 0.9448814 -0.34334204 -0.8415504 0.054116573 -0.052334007
0.006226835 -0.93197125 -0.403354 0.06277508 -1.1877857 0.4437384 -0.5877198 1.2519245
-1.1919093 0.645822 -0.016014153 -0.77535355 1.5336969 -1.373644 0.14179322 -0.06609772
1.4574157 0.1578122 0.31031933 0.15029374 1.0752187 0.8161199 -0.12970966 -1.3970948
-2.278199 0.835879 0.44457966 -0.69120175 0.29352558 0.5048219 -0.0055362023 -1.5744643
0.6409629 -0.61738914 1.5225108 -0.42937303 -0.5762138 0.20825501 0.34157845 0.74013656
1.0934784 1.5115576 -0.08068091 0.08455948 0.18642794 -0.7084664 -0.5234944 0.19398467
-0.96055394 1.3108536 0.5654447 0.9705109 0.10245347 -2.0350611 1.5290235 1.8047018
0.7114887 0.3518253 -0.9696216 1.0155766 -0.3708088 1.3869505 0.265856 -0.3646882
0.88575715 0.3220752 -0.73621875 -0.099135 -1.4963359 -0.12827724 -0.018085975 0.19187397
0.28002608 -0.22258894 -0.19064623 0.060059965 -0.021380072 -0.022011392 -0.06876283 0.13276435
0.25316298 -0.2272619 0.00882103 0.077455595 0.15460405 0.013237252 0.040754415 0.054729134
-0.03341069 0.15969887 -0.10166463 0.23106131 -0.16472048 0.12528059 -0.022658784 -0.06436501
0.09163967 -0.19427341 0.12095726 0.032018267 -0.12104581 -0.12735555 -0.16352203 0.04813925
00000000: 60eb f8bd 2bfc 673e d53f de3d 943c ec3d
00000010: b4ac 543e 5d84 393e a821 393e 40a0 e2be
00000020: f3f4 5e3e 1220 ac3c d45a 1f3e c3fa 953e
00000030: 1613 d13d ce60 c0be 49a8 af3e 9bef 1fbe
00000040: 5106 3cbe 1fb8 18bd a2cb 97bd 1631 33be
00000050: 9849 013c 1eb8 e7bd ba55 7f3d 5496 453e
00000060: 1f88 e43d 6b32 cebc 0456 06bc 678e 5d3e
00000070: d05c e83d 0bae 0b3d c830 57be ce4b cb3d
00000080: d942 09bc 3d5d c83c f927 533c 2eba 083f
00000090: 701e f63e 923c 73bd 185c 93bd b5d4 a93e
000000a0: 4683 1ebf c429 493e a84e 8f3d dbdb 7c3e
000000b0: 862c fb3e 95f4 fcbe 5705 c73e a2dd 12be
000000c0: ab8b f6be 2957 17be 54f1 b8be 2f31 ccbe
000000d0: b7ef 9f3d e21d 7aba 5d52 07bf fdce 83be
000000e0: b32b 37be 986f a63d 6771 26bf 7c4a f3be
000000f0: 0416 a33e 9832 82bf c007 7d3f 4dfd 8bbe
00000100: d427 653e 1b36 1f3d 07a6 5b3e eaef 033f
00000110: 9066 f6be 03e7 4bbe 66e9 d23c bd91 aa3e
00000120: 1d31 14bc 7e1e 893e 12b5 423f a773 32bf
00000130: 9730 f53e 5fcf 023f b09f 9b3d dc02 02bf
00000140: 2b5f 103f 9c78 0b3f 3c68 87be 29cd e2bd
00000150: e2cd 143c 3aa6 803e ae95 28be bd58 2fbd
00000160: 5a7b 903e 5f84 44be b6c0 efbe 5029 5bbe
00000170: df88 883e 80ca cb3d c8ac c9bd fbef da3e
00000180: b521 89be 33e5 73bd 77b4 ac3c 8dfe db3d
00000190: af8a bdbc 52e9 1f3f 0345 16bf acbd 003f
000001a0: 700e aabd d838 60be fb12 4fbe d7d7 a03d
000001b0: 3f0c 82bd d846 5abd eb4f ab3e a73b 153f
000001c0: 49a0 eb3c 86e5 ba3e d806 a63f 1427 963f
000001d0: efc1 8b3e 8abd 26bf 807f b83e cf05 edbd
000001e0: a4fa 8d3f 457a 913e 8cbc 973f cc13 f33e
000001f0: 94ab f03f 8281 063e fadb a6be c606 52bf
00000200: 120f 56bf aef5 413f 3adc 0e3e bb2a 0fbf
00000210: f1e4 a73e 50aa 273f d524 26be 5e8b 54be
00000220: 9752 993f 0ac8 833e 2516 623e 211f a2be
00000230: 2033 c7be 546e 973f f039 74bf 70f9 07bf
00000240: d9ef 41be 226f 1f40 d5d2 0ebf bfe3 713f
00000250: 87ca afbe d96f 57bf 57a9 5d3d 2f5c 56bd
00000260: 7a0a cc3b ab95 6ebf 6a84 cebe 3990 803d
00000270: 5d09 98bf ae31 e33e ce74 16bf 103f a03f
00000280: 7c90 98bf 9754 253f 1d30 83bc 927d 46bf
00000290: 2e50 c43f 91d3 afbf 3e32 113e 3e5e 87bd
000002a0: 998c ba3f 8599 213e 2de2 9e3e 9ae6 193e
000002b0: c4a0 893f 3ced 503f 9cd2 04be 01d4 b2bf
000002c0: 03ce 11c0 2bfc 553f f29f e33e 99f2 30bf
000002d0: fc48 963e 023c 013f 0869 b5bb 0c88 c9bf
000002e0: 2516 243f 370d 1ebf a2e1 c23f c8d6 dbbe
000002f0: bf82 13bf cd40 553e 5fe3 ae3e 9779 3d3f
00000300: 1af7 8b3f b87a c13f 083c a5bd 852d ad3d
00000310: f7e6 3e3e 0e5e 35bf bb03 06bf eba3 463e
00000320: dde6 75bf 0dca a73f fcc0 103f 6773 783f
00000330: 20d3 d13d 713e 02c0 0bb7 c33f 7800 e73f
00000340: 2024 363f 7222 b43e 1f39 78bf 6afe 813f
00000350: a7da bdbe 9887 b13f 471e 883e 69b8 babe
00000360: fbc0 623f 0ae7 a43e d578 3cbf 4a07 cbbd
00000370: ef87 bfbf 1c5b 03be 0a29 94bc 9c7a 443e
00000380: 945f 8f3e 5bee 63be c438 43be 7001 763d
00000390: 4325 afbc 3c51 b4bc 87d3 8cbd 61f3 073e
000003a0: 949e 813e 58b7 68be 1586 103c 0aa1 9e3d
000003b0: 8650 1e3e 0fe1 583c 1aee 263d a82b 603d
000003c0: a6d9 08bd 1a88 233e 8c35 d0bd 569b 6c3e
000003d0: 7cac 28be 8e49 003e ea9e b9bc cdd1 83bd
000003e0: 94ad bb3d 9cef 46be 71b8 f73d 9625 033d
000003f0: dee6 f7bd 7e69 02be 5272 27be aa2d 453d

rnn.cell.recurrent_kernel_z f4 [128, 128]
-0.0069977962 0.159356 -0.0670068 0.060535002 -0.026471544 -0.12881908 -0.22618768 0.16095269
-0.021144925 -0.1477389 -0.01872093 0.015118087 -0.039098088 -0.19524075 -0.24164562 -0.09846673
0.11732041 0.21483083 0.22063142 -0.23012796 0.01168103 0.18655494 -0.11325204 0.15016285
0.059362978 -0.06848674 -0.20044889 0.11174119 -0.099392936 -0.12097691 0.14085756 0.27917907
0.043180965 -0.07053576 -0.050721753 -0.15134606 -0.26170996 -0.018629316 -0.21316 -0.10442088
-0.04224769 0.0015082917 0.063442685 0.18820567 0.22028217 -0.048258316 -0.0209272 0.25563774
0.068619095 0.011952961 0.06815071 -0.15797913 -0.039793584 0.025165698 -0.10749105 0.2137404
-0.022111285 0.064421006 -0.07292696 -0.1226455 0.09500862 0.11760363 0.12425285 0.0976167
-0.014266982 -0.13132048 -0.027068527 -0.042313904 0.0066865333 -0.019229142 -0.09034432 0.209074
0.2343799 -0.13338184 -0.49039364 -0.07632203 0.049289804 0.30339018 -0.02470349 0.18630368
0.036557473 0.10175868 -0.0014583312 -0.17190531 -0.13426396 0.20105131 -0.26831442 0.07073237
-0.084475435 -0.14512196 0.022122903 0.47365287 0.048855934 0.16728434 0.33234203 0.14757702
-0.101192854 -0.024694797 0.07870782 -0.26178667 0.027995642 0.043466203 0.1295251 0.03479713
0.04807064 -0.17912221 -0.17144412 0.07015313 0.26308656 0.008896355 -0.07420587 0.015479194
0.018580113 0.08663383 -0.11382726 0.08574694 0.053973492 0.2332203 0.06309338 0.11219122
0.021763204 0.33084196 0.32047063 0.099402845 0.12320464 -0.09461396 -0.06330386 0.013023099
-0.4665627 0.047436457 -0.40075955 0.3808976 0.13501602 -0.8261756 -0.13194174 0.2278018
0.41364348 -0.12067268 0.21540348 1.1338637 0.26786196 0.3159972 0.098212175 -0.28137094
-1.2011214 -0.036197867 0.6663445 -0.0018577968 -0.27554685 -0.52286464 0.05852237 -0.38810366
0.010732617 -0.28435072 -0.4911112 -0.45243987 0.4315929 0.02477135 -0.34310168 -0.06396748
-1.3075472 0.051993914 0.060570396 -0.15908302 -0.40378782 0.11895423 -0.169343 -0.0646193
0.3187393 -0.50284755 -0.8404363 0.376179 0.27725473 -0.042786635 -0.37784186 0.15429772
-0.41963193 -0.17579854 0.23497523 -0.48322213 0.44477803 -0.72349 0.1240477 0.026718881
-0.09221013 0.16560285 -0.006874532 0.28418508 0.6426197 -0.22445111 -0.26132086 0.26895425
0.06415103 -0.18190749 0.22419538 -0.23194452 -0.2654863 -0.30337507 -0.64138573 0.25742412
0.31626725 -0.17417292 -0.24453816 0.004596938 -0.055335153 0.08152272 0.740265 0.30621654
0.8348283 0.5075744 0.11345713 0.5637091 -0.98979276 0.13982414 -0.0086860955 -0.2861052
-0.50961566 -0.1697053 0.2239318 -0.48916113 -0.5868056 0.08186919 -0.02602535 0.3832827
-0.79902405 0.023024471 0.1548262 0.37400576 0.042362776 -0.71304184 0.03982814 0.43777284
0.56592786 0.22563958 0.46385235 0.28323042 0.30667832 -0.39202335 0.08463391 0.19648562
-0.3611308 -0.3365799 -0.44317114 0.1981014 -0.2528123 0.42723113 0.52263653 -0.033171993
0.72110337 -0.095963694 -0.35922232 -0.578444 -0.28968394 0.34259525 0.043223497 0.29236308
00000000: c54d e5bb 382e 233e dc3a 89bd 8df3 773d
00000010: dada d8bc 26e9 03be be9d 67be c8d0 243e
00000020: 1f38 adbc de48 17be a35c 99bc dab1 773c
00000030: 5125 20bd 31ed 47be f371 77be eda8 c9bd
00000040: af45 f03d 9dfc 5b3e 34ed 613e aaa6 6bbe
00000050: ca61 3f3c 4208 3f3e b0f0 e7bd 4ac4 193e
00000060: 9826 733d c742 8cbd 7942 4dbe 91d8 e43d
00000070: 868e cbbd bec2 f7bd f73c 103e 8ff0 8e3e
00000080: 86de 303d 0d75 90bd 9dc1 4fbd 76fa 1abe
00000090: d9fe 85be 829c 98bc 9d46 5abe 9dda d5bd
000000a0: ea0b 2dbd dfb1 c53a 3dee 813d fdb8 403e
000000b0: a691 613e 83aa 45bd 856f abbc f3e2 823e
000000c0: 2b88 8c3d 5ad6 433c 9992 8b3d 48c5 21be
000000d0: 99fe 22bd 4b28 ce3c 4524 dcbd c3de 5a3e
000000e0: ba22 b5bc 29ef 833d bb5a 95bd 902d fbbd
000000f0: e193 c23d 2cda f03d 4778 fe3d 44eb c73d
00000100: 0fc0 69bc e078 06be d1be ddbc 5851 2dbd
00000110: b51a db3b 6f86 9dbc 7106 b9bd 7f17 563e
00000120: 4901 703e 4095 08be e014 fbbe b94e 9cbd
00000130: 1be4 493d f555 9b3e f95e cabc 64c6 3e3e
00000140: 4abd 153d db66 d03d 7a25 bfba f207 30be
00000150: 7e7c 09be 65e0 4d3e 8260 89be 22dc 903d
00000160: 7501 adbd da9a 14be 173b b53c a182 f23e
00000170: 291d 483d 964c 2b3e bc28 aa3e 6e1e 173e
00000180: 333e cfbd be4c cabc 9131 a13d e708 86be
00000190: 1e57 e53c 9e09 323d 3aa2 043e 6f87 0e3d
000001a0: b8e5 443d d06b 37be 0c8f 2fbe 72ac 8f3d
000001b0: 48b3 863e 04c2 113c 3ff9 97bd 729c 7d3c
000001c0: 5235 983c 146d b13d 441e e9bd 179c af3d
000001d0: 4f13 5d3d 4dd1 6e3e 1a37 813d 83c4 e53d
000001e0: bf48 b23c 1e64 a93e ba14 a43e b893 cb3d
000001f0: b752 fc3d f7c4 c1bd 74a5 81bd d65e 553c
00000200: 4ee1 eebe bb4c 423d 5b30 cdbe 0305 c33e
00000210: a441 0a3e 3e80 53bf bc1b 07be e044 693e
00000220: 14c9 d33e 3d23 f7bd bb92 5c3e 7222 913f
00000230: 3425 893e 63ca a13e 7723 c93d da0f 90be
00000240: 59be 99bf 3744 14bd 8e95 2a3f 5181 f3ba
00000250: 7a14 8dbe 75da 05bf 27b5 6f3d 86b5 c6be
00000260: dcd7 2f3c 6b96 91be ed72 fbbe 33a6 e7be
00000270: bff9 dc3e 49ed ca3c 06ab afbe 6201 83bd
00000280: b55d a7bf 92f7 543d aa18 783d a9e6 22be
00000290: 47bd cebe 469e f33d 4068 2dbe 2057 84bd
000002a0: cc31 a33e 9eba 00bf d526 57bf 899a c03e
000002b0: 55f4 8d3e 0a41 2fbd 7d74 c1be 3900 1e3e
000002c0: ffd9 d6be 8804 34be 599d 703e e468 f7be
000002d0: f2b9 e33e a436 39bf b80c fe3d 8ee1 da3c
000002e0: aad8 bcbd cb93 293e c143 e1bb b580 913e
000002f0: ba82 243f 83d6 65be d9cb 85be 5fb4 893e
00000300: 9d61 833d f545 3abe 7993 653e dd82 6dbe
00000310: d2ed 87be fa53 9bbe db31 24bf 18cd 833e
00000320: c8ed a13e 635a 32be 3668 7abe e9a1 963b
00000330: 1da7 62bd 62f5 a63d 0282 3d3f 6ac8 9c3e
00000340: 4fb7 553f 65f0 013f 365c e83d 3d4f 103f
00000350: 0f63 7dbf 0f2e 0f3e 2050 0ebc 617c 92be
00000360: 2c76 02bf 3ac7 2dbe 614e 653e 5473 fabe
00000370: e438 16bf 09ab a73d 1d33 d5bc a13d c43e
00000380: d78c 4cbf d19d bc3c c28a 1e3e af7d bf3e
00000390: 9784 2d3d e989 36bf d522 233d c323 e03e
000003a0: a6e0 103f 100e 673e 0e7e ed3e 9403 913e
000003b0: f104 9d3e 49b7 c8be 8b54 ad3d 8733 493e
000003c0: 23e6 b8be 3354 acbe 54e7 e2be 18db 4a3e
000003d0: 9d70 81be 0abe da3e 82cb 053f 5bdf 07bd
000003e0: 3b9a 383f 9d88 c4bd fdeb b7be e814 14bf
000003f0: 7451 94be a568 af3e 1f0b 313d 9db0 953e

rnn.cell.recurrent_kernel_r f4 [128, 128]
-0.015606279 0.4035189 -0.0647007 0.16303931 -0.46853676 -0.09442882 -0.6095721 0.087340645
-0.638418 0.21827509 -0.43773142 -0.11145659 -0.01131741 1.3182732 -0.068073206 0.5259341
-0.35138378 0.13368027 0.31856564 0.07256939 -0.078009754 -0.30294192 -0.12869065 -0.26474056
-0.6784936 -0.20965125 -0.30340263 -0.24421194 0.3669093 -0.051279657 0.6535572 0.088894926
-0.0863161 0.19175665 -0.44523606 0.07993692 0.15085857 0.515507 0.08561491 0.13644536
0.3635622 -0.14816667 -0.46639287 1.5506804 0.7647747 -0.3522856 -0.27582636 0.72345024
-0.11250821 -0.5923428 0.2805972 0.42225102 0.35552678 -0.095277734 0.8205037 0.009237023
0.60438746 0.16730449 0.38437343 -0.0650329 -0.6378281 -0.27858055 0.03583753 -0.601212
0.42986858 0.20759362 0.5021679 -0.18066867 -0.084563464 -0.5617942 0.23281641 -0.017345624
0.42164096 -0.072008565 -0.17175893 0.38924253 -0.2631442 0.25842646 0.6079785 0.3890969
0.84992087 -0.4006836 1.375211 1.0863215 -0.69933087 0.02522291 -0.22773246 0.36345178
0.13984765 0.27612162 0.20405117 -0.3954913 -0.40230823 0.27042967 -0.7125074 0.78201133
0.08952388 -0.13282599 0.09963479 0.2573166 0.07090175 0.049118534 0.22874933 -0.31845683
1.0281241 -0.12238906 -0.24197131 0.79803985 1.5722586 -0.35293266 -0.33567682 0.06306811
0.14663126 -0.72502255 -1.2320269 -0.14329731 -1.13987 0.40993172 1.0374191 0.34747693
-0.16841076 0.3982279 0.22386602 -0.12193212 0.85637796 -0.26077378 -1.5987122 -0.7604908
-0.08258709 0.86711717 -0.32419345 0.3219225 0.28653347 -0.18974175 0.2629132 -0.32168388
0.35199043 0.34971565 0.46195206 0.34822804 1.3592693 0.07014617 -0.18527071 0.088463835
0.6639535 0.16784148 -0.053832583 0.18933837 -0.77322966 -0.4510765 -0.015325583 -0.015137826
-0.4215411 -0.0803435 0.0052400455 0.57586485 -0.01859666 0.9635795 -0.038646653 -0.19079334
-1.0756024 0.62343055 -0.616295 -0.3196517 -1.1616766 -0.03419275 0.3961423 0.30516985
-0.71360695 -0.12450895 -0.27371114 -0.163395 0.056633413 -0.25764373 0.13929117 0.059627138
0.5786324 0.1379958 -0.27232102 0.2614586 0.19658764 0.18048297 1.1020086 -0.03720163
-0.8929544 -0.2095023 -0.06567697 0.31685466 0.0132333655 0.09772849 0.17343517 -0.013675573
0.28172788 0.8259673 -0.042371973 0.3784736 -0.076137595 0.12623148 -0.34220883 0.22694139
-0.86497205 0.9965964 -0.022169413 0.4179376 -0.049691595 0.64543295 -0.1074557 0.36730814
0.21104048 0.73659235 0.09268675 0.2554834 -0.47394776 0.28583193 -0.08941973 -0.28851455
0.9866166 -0.36857456 -0.4522896 0.1674003 -0.66301763 0.3400629 0.326462 0.41144133
-0.70846057 0.04231661 -0.06500765 -0.44691345 0.025639012 0.2647718 0.93724006 0.31946582
0.41154528 0.9968523 -0.96449673 -0.41406026 0.29585925 -0.12739816 0.24766451 -0.31522483
-0.13214451 -0.43907243 -0.36698154 0.37728477 -0.10097769 -0.19558142 0.45987737 0.24069415
0.14735103 0.74766934 0.23002666 0.14231968 0.27604002 0.092768714 0.5568317 0.20957951
00000000: 7ab1 7fbc 079a ce3e cd81 84bd c7f3 263e
00000010: 0de4 efbe e663 c1bd eb0c 1cbf a7df b23d
00000020: 5d6f 23bf 8183 5f3e 551e e0be 5a43 e4bd
00000030: a86c 39bc 2dbd a83f f769 8bbd 9ea3 063f
00000040: 93e8 b3be 7be3 083e 091b a33e 439f 943d
00000050: 94c3 9fbd 341b 9bbe 7bc7 03be 138c 87be
00000060: c2b1 2dbf d1ae 56be 9757 9bbe b212 7abe
00000070: 89db bb3e 9e0a 52bd 864f 273f 8b0e b63d
00000080: 7fc6 b0bd db5b 443e fbf5 e3be f8b5 a33d
00000090: ab7a 1a3e 44f8 033f df56 af3d 55b8 0b3e
000000a0: d324 ba3e 01b9 17be 0ccb eebe b27c c63f
000000b0: 46c8 433f c75e b4be 1d39 8dbe 0934 393f
000000c0: b46a e6bd c7a3 17bf 70aa 8f3e 4931 d83e
000000d0: 9b07 b63e f920 c3bd 880c 523f e256 173c
000000e0: 23b9 1a3f de51 2b3e 98cc c43e f82f 85bd
000000f0: b448 23bf 1ca2 8ebe 60ca 123d 08e9 19bf
00000100: bc17 dc3e 6c93 543e 138e 003f 3501 39be
00000110: 9c2f adbd bfd1 0fbf 6d67 6e3e 6918 8ebc
00000120: 53e1 d73e 3a79 93bd 93e1 2fbe cc4a c73e
00000130: d6ba 86be 7950 843e 7ba4 1b3f b537 c73e
00000140: 6a94 593f 6726 cdbe ea06 b03f 950c 8b3f
00000150: 5907 33bf 47a0 ce3c b332 69be 5a16 ba3e
00000160: 3934 0f3e d05f 8d3e caf2 503e d67d cabe
00000170: 58fb cdbe c275 8a3e e366 36bf e531 483f
00000180: 4c58 b73d 8903 08be 530d cc3d 00bf 833e
00000190: f034 913d 8430 493d 443d 6a3e c60c a3be
000001a0: 9299 833f 1ea7 fabd 54c7 77be 574c 4c3f
000001b0: c53f c93f 97b3 b4be d5dd abbe da29 813d
000001c0: 8126 163e 149b 39bf 0fb3 9dbf 88bc 12be
000001d0: 43e7 91bf 92e2 d13e 26ca 843f 7fe8 b13e
000001e0: df73 2cbe 87e4 cb3e 223d 653e 8cb7 f9bd
000001f0: 963b 5b3f 2484 85be 9aa2 ccbf 86af 42bf
00000200: 6c23 a9bd 64fb 5d3f affc a5be 07d3 a43e
00000210: 84b4 923e a94b 42be 8f9c 863e c0b3 a4be
00000220: 1738 b43e ee0d b33e fb84 ec3e f24a b23e
00000230: 89fc ad3f cca8 8f3d 9bb7 3dbe 872c b53d
00000240: dbf8 293f a3de 2b3e 8e7f 5cbd ebe1 413e
00000250: 61f2 45bf 80f3 e6be 2718 7bbc a504 78bc
00000260: 3cd4 d7be 228b a4bd b0b4 ab3b e16b 133f
00000270: 0658 98bc 25ad 763f f44b 1ebd 545f 43be
00000280: 57ad 89bf 2599 1f3f 82c5 1dbf 63a9 a3be
00000290: d2b1 94bf b20d 0cbd 2ad3 ca3e 393f 9c3e
000002a0: f2ae 36bf 8cfe febd de23 8cbe 0551 27be
000002b0: 70f8 673d e1e9 83be 58a2 0e3e 963b 743d
000002c0: 4121 143f c54e 0d3e a96d 8bbe e7dd 853e
000002d0: 454e 493e 87d0 383e 9e0e 8d3f bd60 18bd
000002e0: a998 64bf c587 56be a681 86bd c63a a23e
000002f0: c2d0 583c e025 c83d fd98 313e 830f 60bc
00000300: a33e 903e 9872 533f 3c8e 2dbd 4bc7 c13e
00000310: 07ee 9bbd d342 013e ff35 afbe 5363 683e
00000320: cf6e 5dbf f120 7f3f a19c b5bc ebfb d53e
00000330: 6a89 4bbd 183b 253f bc11 dcbd d00f bc3e
00000340: ff1a 583e 5191 3c3f 8dd2 bd3d b8ce 823e
00000350: 48a9 f2be 9058 923e b121 b7bd 2eb8 93be
00000360: e892 7c3f ceb5 bcbe 8192 e7be fc6a 2b3e
00000370: 86bb 29bf b91c ae3e 0726 a73e 70a8 d23e
00000380: ac5d 35bf 2f54 2d3d bb22 85bd d7d1 e4be
00000390: e808 d23c 2b90 873e f7ee 6f3f 0691 a33e
000003a0: 10b6 d23e b631 7f3f 42e9 76bf b5ff d3be
000003b0: dd7a 973e aa74 02be c49b 7d3e 2665 a1be
000003c0: e450 07be 1ace e0be 01e5 bbbe 782b c13e
000003d0: 64cd cebd 7f46 48be 0c75 eb3e 8778 763e
000003e0: 30e3 163e 4267 3f3f 1c8c 6b3e 40bc 113e
000003f0: 1e55 8d3e 86fd bd3d 868c 0e3f 039c 563e

rnn.cell.recurrent_kernel_h f4 [128, 128]
0.42919305 -0.19268644 0.010472735 0.20034385 0.23685926 -0.11230387 -0.1991018 0.0717231
-0.56068057 0.121010914 -0.662841 -0.36086008 -0.104577854 0.14974919 -0.09491502 0.20745112
-0.15333347 -0.2477272 -0.23803918 -0.06379148 0.4742697 -0.28315166 0.2260764 -0.18667218
0.05684962 0.65360516 -0.2386556 0.08801619 0.024711313 -0.029689785 0.33818954 -0.23911305
-0.26240486 -0.12691903 -0.06292773 0.30816507 -0.13581683 0.08936885 -0.07300515 0.07299389
-0.1838094 0.089129046 -0.029809376 -0.02680723 -0.12565158 -0.014606128 -0.037564255 0.12568574
0.33229196 0.20843476 -0.23087075 -0.018570505 -0.42456555 -0.0064233956 0.09971214 0.041103147
0.33038113 0.27219847 0.029828532 -0.1414473 -0.1132935 -0.032492623 0.0047041737 -0.06943172
0.22489889 0.03419763 -0.11255843 0.19006005 -0.18425038 -0.17306721 0.20572338 0.050684225
0.25799227 0.14101955 -0.005795997 0.5449168 0.121512316 0.54848534 -0.0716378 -0.36549464
0.16736852 0.08242491 -0.034877025 -0.38564485 0.053902607 0.1570237 0.29171255 0.019333422
-0.008419924 -0.341875 -0.27493888 0.10551739 0.030517226 -0.0016991243 -0.2882561 -0.27995402
-0.015588544 -0.015217768 -0.047066458 0.12634727 0.1920152 -0.2335261 0.112046786 -0.37856993
0.07981677 -0.2396759 -0.049000606 0.08371693 -0.36399236 0.3950635 0.1103078 0.018926185
0.2829679 -0.059795316 0.56137264 -0.03594125 -0.19214559 -0.07172454 0.14133608 -0.042899724
-0.21988776 -0.5052318 -0.20023757 -0.10644423 0.12770182 0.15648553 -0.3356382 -0.123942204
0.6601317 0.029333265 0.11926626 -0.23233025 -0.13665952 0.05171676 0.722056 0.044873133
0.11193046 -0.093581945 -0.059617236 0.081875235 0.07900843 0.49728915 0.013270589 0.21754251
-0.707426 -0.2601641 0.48157617 -0.15263408 -0.35668063 -1.0276206 -0.13490313 0.11601528
0.14645179 -0.23050356 -0.6525638 -0.25366974 -0.0849647 0.69413424 -0.06816142 0.009828877
-0.08970579 0.30028734 0.25860345 0.9785398 -0.35838524 0.0136961425 -0.09479627 -0.046956506
0.13387784 -0.14073367 0.30590972 0.15796211 -0.2707755 0.10431276 -0.35753527 0.1743941
-0.100066796 0.5374317 -0.20866148 0.055835832 0.14187457 -0.09612637 0.0748614 -0.06708131
-0.42763835 0.24953148 -0.09050062 0.45683467 0.076544136 0.16476965 0.024405712 0.66992176
-0.11690538 0.021637533 0.052983735 0.063833185 -0.5379464 0.22570515 -0.36887115 0.34081882
0.5183918 -0.08704388 -0.124621615 0.15785672 0.07943122 0.0071896682 0.14044122 -0.022573108
-0.18250759 -0.07702058 -0.019835008 0.05468493 -0.33181003 0.820794 -0.11729103 -0.12007557
0.4574253 -0.14522773 0.21913359 0.18496667 0.20085593 -0.13498348 0.16552122 0.37895998
-0.099037305 -0.21888803 0.27218428 0.113274366 0.42519805 0.16881989 0.1356938 0.49694768
-0.3589282 0.09462141 0.2296646 -0.19640183 0.3918214 -0.38166264 -0.13671054 0.007216285
-0.010601809 0.07555523 -0.648155 0.055849183 -0.9534326 0.45916831 -0.23418859 -0.047263257
-0.21711852 0.18862504 -0.03374348 0.16918029 -0.5903745 -0.018958516 0.35718977 0.14567092
00000000: 31bf db3e 984f 45be d695 2b3c f026 4d3e
00000010: 3c8b 723e 92ff e5bd 58e1 4bbe 90e3 923d
00000020: c388 0fbf 92d4 f73d f3af 29bf a7c2 b8be
00000030: ea2c d6bd da57 193e ce62 c2bd 116e 543e
00000040: 7303 1dbe 33ac 7dbe 8bc0 73be 1ca5 82bd
00000050: 7ad3 f23e 41f9 90be 9280 673e fe26 3fbe
00000060: 26db 683d ab52 273f 2262 74be d541 b43d
00000070: 616f ca3c fe37 f3bc 2e27 ad3e 0dda 74be
00000080: ee59 86be 10f7 01be 41e0 80bd d0c7 9d3e
00000090: 9113 0bbe 0407 b73d b983 95bd d27d 953d
000000a0: 8838 3cbe 4a89 b63d cb32 f4bc d69a dbbc
000000b0: cfaa 00be 8b4e 6fbc fadc 19bd c3b3 003e
000000c0: 2c22 aa3e ec6f 553e 6269 6cbe 2c21 98bc
000000d0: a860 d9be 597b d2bb e135 cc3d c65b 283d
000000e0: b727 a93e 995d 8b3e f75a f43c 90d7 10be
000000f0: 6c06 e8bd fc16 05bd 7825 9a3b 3832 8ebd
00000100: e54b 663e d012 0c3d 0985 e6bd 1a9f 423e
00000110: 22ac 3cbe 8838 31be 26a9 523e 439a 4f3d
00000120: 9017 843e 6e67 103e 59ec bdbb ab7f 0b3f
00000130: 73db f83d 8969 0c3f d7b6 92bd 1d22 bbbe
00000140: a762 2b3e 64ce a83d 36db 0ebd 3e73 c5be
00000150: fbc8 5c3d d2ca 203e 595b 953e 2061 9e3c
00000160: b9f3 09bc 3d0a afbe cac4 8cbe 8019 d83d
00000170: 43ff f93c 27b5 deba 4e96 93be 2256 8fbe
00000180: 1867 7fbc f253 79bc c2c8 40bd 2e61 013e
00000190: a29f 443e 7721 6fbe c978 e53d ebd3 c1be
000001a0: fa76 a33d 996d 75be dcb4 48bd c873 ab3d
000001b0: 355d babe c345 ca3e 0ee9 e13d 160b 9b3c
000001c0: 2be1 903e efeb 74bd 1eb6 0f3f 2237 13bd
000001d0: d0c1 44be 51e4 92bd 68ba 103e 9fb7 2fbd
000001e0: 422a 61be df56 01bf 140b 4dbe 6fff d9bd
000001f0: 44c4 023e be3d 203e c5d8 abbe 69d5 fdbd
00000200: 64fe 283f 514c f03c de41 f43d fbe7 6dbe
00000210: 79f0 0bbe f4d4 533d a9d8 383f e4cc 373d
00000220: cc3b e53d e4a7 bfbd 3431 74bd 34ae a73d
00000230: 2ccf a13d af9c fe3e e26c 593c 77c3 5e3e
00000240: df19 35bf 3b34 85be 2791 f63e 1c4c 1cbe
00000250: d89e b6be 1289 83bf 0c24 0abe 6b99 ed3d
00000260: 75f7 153e 2009 6cbe 6c0e 27bf 00e1 81be
00000270: f901 aebd c8b2 313f 3798 8bbd 4c09 213c
00000280: abb7 b7bd 43bf 993e ac67 843e 9681 7a3f
00000290: 457e b7be c965 603c 8c24 c2bd 7755 40bd
000002a0: 4617 093e 7d1c 10be 33a0 9c3e d2c0 213e
000002b0: 16a3 8abe eea1 d53d dd0e b7be 5e94 323e
000002c0: d2ef ccbd 2095 093f 5bab 55be 1db4 643d
000002d0: 9147 113e e7dd c4bd ef50 993d ed61 89bd
000002e0: 6af3 dabe 2e85 7f3e 6458 b9bd 3ce6 e93e
000002f0: 2cc3 9c3d 60b9 283e 7dee c73c fe7f 2b3f
00000300: 166c efbd 3241 b13c 7905 593d f9ba 823d
00000310: dbb6 09bf 401f 673e aedc bcbe ce7f ae3e
00000320: 53b5 043f 1044 b2bd 9e39 ffbd 31a5 213e
00000330: d6ac a23d 4f97 eb3b d3cf 0f3e 3deb b8bc
00000340: 45e3 3abe f7bc 9dbd 077d a2bc 4efd 5f3d
00000350: 01e3 a9be 8e1f 523f 4836 f0bd 2eea f5bd
00000360: a633 ea3e 94b6 14be 8e64 603e e767 3d3e
00000370: 2dad 4d3e 1c39 0abe 657e 293e 0b07 c23e
00000380: 12d4 cabd 2f24 60be bd5b 8b3e 64fc e73d
00000390: 8fb3 d93e 1fdf 2c3e 51f3 0a3e ed6f fe3e
000003a0: 70c5 b7be dfc8 c13d 322d 6b3e 901d 49be
000003b0: d19c c83e 4969 c3be d9fd 0bbe 9676 ec3b
000003c0: 36b3 2dbc b3bc 9a3d 7ced 25bf 1dc2 643d
000003d0: 2914 74bf 1c18 eb3e 22cf 6fbe 1e97 41bd
000003e0: 5154 5ebe ec26 413e 9a36 0abd 993d 2d3e
000003f0: c922 17bf e44e 9bbc 94e1 b63e c22a 153e

rnn.cell.bias_z f4 [128]
8.255371 1.979e-42 0.0 0.0 0.0 0.0 0.0 0.0
0.0 0.0 1e-45 0.0 0.0 0.0 0.0 0.0
0.0 0.0 0.0 0.0 1e-45 0.0 0.0 0.0
0.0 0.0 0.0 0.0 0.0 0.0 0.0 0.0
1e-45 0.0 0.0 0.0 0.0 0.0 1e-45 0.0
0.0 0.0 0.0 0.0 0.0 0.0 0.0 0.0
0.0 0.0 1e-45 0.0 0.0 0.0 0.0 0.0
0.0 0.0 0.0 0.0 0.0 0.0 0.0 0.0
0.0 0.0 0.0 0.0 0.0 0.0 1e-45 0.0
1e-45 0.0 0.0 0.0 0.0 0.0 0.0 0.0
0.0 0.0 0.0 0.0 0.0 0.0 0.0 0.0
0.0 0.0 0.0 0.0 0.0 0.0 0.0 0.0
1e-45 0.0 0.0 0.0 1e-45 0.0 0.0 0.0
0.0 0.0 0.0 0.0 1e-45 0.0 0.0 0.0
0.0 0.0 0.0 0.0 0.0 0.0 0.0 0.0
1e-45 0.0 0.0 0.0 0.0 0.0 0.0 0.0
00000000: 0016 0441 8405 0000 0000 0000 0000 0000
00000010: 0000 0000 0000 0000 0000 0000 0000 0000
00000020: 0000 0000 0000 0000 0100 0000 0000 0000
00000030: 0000 0000 0000 0000 0000 0000 0000 0000
00000040: 0000 0000 0000 0000 0000 0000 0000 0000
00000050: 0100 0000 0000 0000 0000 0000 0000 0000
00000060: 0000 0000 0000 0000 0000 0000 0000 0000
00000070: 0000 0000 0000 0000 0000 0000 0000 0000
00000080: 0100 0000 0000 0000 0000 0000 0000 0000
00000090: 0000 0000 0000 0000 0100 0000 0000 0000
000000a0: 0000 0000 0000 0000 0000 0000 0000 0000
000000b0: 0000 0000 0000 0000 0000 0000 0000 0000
000000c0: 0000 0000 0000 0000 0100 0000 0000 0000
000000d0: 0000 0000 0000 0000 0000 0000 0000 0000
000000e0: 0000 0000 0000 0000 0000 0000 0000 0000
000000f0: 0000 0000 0000 0000 0000 0000 0000 0000
00000100: 0000 0000 0000 0000 0000 0000 0000 0000
00000110: 0000 0000 0000 0000 0100 0000 0000 0000
00000120: 0100 0000 0000 0000 0000 0000 0000 0000
00000130: 0000 0000 0000 0000 0000 0000 0000 0000
00000140: 0000 0000 0000 0000 0000 0000 0000 0000
00000150: 0000 0000 0000 0000 0000 0000 0000 0000
00000160: 0000 0000 0000 0000 0000 0000 0000 0000
00000170: 0000 0000 0000 0000 0000 0000 0000 0000
00000180: 0100 0000 0000 0000 0000 0000 0000 0000
00000190: 0100 0000 0000 0000 0000 0000 0000 0000
000001a0: 0000 0000 0000 0000 0000 0000 0000 0000
000001b0: 0100 0000 0000 0000 0000 0000 0000 0000
000001c0: 0000 0000 0000 0000 0000 0000 0000 0000
000001d0: 0000 0000 0000 0000 0000 0000 0000 0000
000001e0: 0100 0000 0000 0000 0000 0000 0000 0000
000001f0: 0000 0000 0000 0000 0000 0000 0000 0000

rnn.cell.bias_r f4 [128]
8.250977 1.979e-42 0.0036615552 0.0016412472 0.011854897 0.0015326457 0.0039326055 0.0035831926
0.0013958027 0.0029538716 0.0018273903 0.012148614 0.0051255967 0.0035602713 0.007008609 0.008830593
0.005199098 0.010225093 0.0057605524 0.020562269 0.0029495868 0.002519276 0.0020938355 0.0020357424
0.006316539 0.0030088057 0.0044879625 0.0068817143 0.005477659 0.003441104 0.006043695 0.0050255405
0.0072029866 0.0019613623 0.0017351472 0.0055317576 0.012581204 0.0041338685 0.003221628 0.011130088
0.0032950225 0.004096978 0.0020703885 0.0010756789 0.006075886 0.0051124985 0.005303321 0.0033613187
0.003944242 0.0059084943 0.004302142 0.025366923 0.003781711 0.0065324856 0.02011391 0.0061017848
0.0044601006 0.019095179 0.0030481336 0.016039176 0.0026751067 0.004279152 0.0037470553 0.00517924
0.00429787 0.01856139 0.0015465552 0.036184333 0.0040322016 0.004981076 0.0071510263 0.002956361
0.0024471048 0.01860477 0.0064421194 0.020439342 0.010922435 0.019497262 0.0030566838 0.018949213
0.039094765 0.0013837237 0.0053891884 0.012630398 0.0010083535 0.0023536477 0.006081074 0.025320541
0.005709071 0.007789909 0.007111668 0.0013500806 0.049549635 0.0046556178 0.0157252 0.0050973734
0.0014454665 0.02856176 0.0073450045 0.009140755 0.0017883847 0.0030540118 0.0017513327 0.011899723
0.006669743 0.016727624 0.0070290286 0.006021452 0.00987443 0.001562424 0.009925092 0.011039619
0.00200085 0.006114436 0.01956166 0.0066089313 0.016984189 0.0051130285 0.0018551471 0.0017832697
0.0012529914 0.0049247784 0.004974058 0.0012867305 0.015897542 0.0025069956 0.0016052467 0.003011901
00000000: 0004 0441 8405 0000 b4f6 6f3b 1e1f d73a
00000010: 0b3b 423c 0ee3 c83a 16dd 803b ffd3 6a3b
00000020: 5ef3 b63a be95 413b 0b85 ef3a fb0a 473c
00000030: 9ff4 a73b 7153 693b 79a8 e53b 31ae 103c
00000040: 325d aa3b 2687 273c 04c3 bc3b 3472 a83c
00000050: db4d 413b 701a 253b bb38 093b 176a 053b
00000060: f8fa ce3b 622f 453b c20f 933b 0180 e13b
00000070: ef7d b33b 2584 613b 300a c63b 4aad a43b
00000080: 0807 ec3b 338a 003b e16d e33a bf43 b53b
00000090: 6521 4e3c 6775 873b f321 533b f95a 363c
000000a0: 4ef1 573b f13f 863b 5baf 073b cbfd 8c3a
000000b0: 3a18 c73b bf86 a73b 7bc7 ad3b 9249 5c3b
000000c0: b33e 813b 0b9c c13b fcf8 8c3b 4bce cf3c
000000d0: 95d6 773b 760e d63b edc5 a43c 7bf1 c73b
000000e0: 0926 923b 7e6d 9c3c 32c3 473b 9764 833c
000000f0: d850 2f3b 2138 8c3b 2891 753b 9db6 a93b
00000100: 26d5 8c3b 0e0e 983c c8b5 ca3a 0636 143d
00000110: 8f20 843b 4b38 a33b 2853 ea3b 82bf 413b
00000120: 9b5f 203b 0869 983c 6a18 d33b 6870 a73c
00000130: 03f4 323c b9b8 9f3c a552 483b 613b 9b3c
00000140: d521 203d 105e b53a ca97 b03b bbef 4e3c
00000150: bb2a 843a a83f 1a3b bf43 c73b 066d cf3c
00000160: 2913 bb3b 7e42 ff3b ff08 e93b 30f5 b03a
00000170: 8ff4 4a3d 278e 983b 22d2 803c de07 a73b
00000180: cf75 bd3a 5afa e93c 5dae f03b 1bc3 153c
00000190: 3c68 ea3a d125 483b f98c e53a 0ef7 423c
000001a0: dc8d da3b 5f08 893c c453 e63b 9a4f c53b
000001b0: 5cc8 213c 40ca cc3a da9c 223c 85df 343c
000001c0: b120 033b 9b5b c83b c63f a03c bc8f d83b
000001d0: 6d22 8b3c 318b a73b 6828 f33a 9abc e93a
000001e0: 6a3b a43a 0960 a13b 6cfd a23b 83a7 a83a
000001f0: 903b 823c 684c 243b 2467 d23a 5063 453b

rnn.cell.bias_h f4 [128]
8.254395 1.979e-42 0.0036575303 0.0016394376 0.011841889 0.0015309551 0.0039282837 0.0035792536
0.0013942622 0.0029506227 0.0018253765 0.012135283 0.005119967 0.0035563575 0.0070009143 0.0088209
0.0051933876 0.0102138715 0.0057542264 0.020539714 0.0029463426 0.0025165037 0.0020915295 0.0020335002
0.0063096033 0.0030054965 0.0044830316 0.006874159 0.005471643 0.003437321 0.0060370583 0.00502002
0.007195079 0.0019592016 0.0017332346 0.005525682 0.012567399 0.004129326 0.0032180855 0.011117874
0.0032913997 0.004092476 0.0020681084 0.0010744894 0.006069214 0.005106883 0.005297496 0.003357623
0.0039399075 0.005902006 0.0042974153 0.025339099 0.0037775545 0.006525313 0.020091847 0.0060950844
0.0044552004 0.019074231 0.0030447813 0.01602158 0.0026721635 0.0042744502 0.0037429368 0.0051735514
0.004293148 0.018541027 0.0015448494 0.036144648 0.0040277704 0.0049756044 0.0071431757 0.0029531093
0.0024444116 0.018584361 0.006435046 0.020416921 0.010910449 0.019475875 0.0030533222 0.018928425
0.039051887 0.0013821964 0.0053832694 0.012616539 0.0010072379 0.002351057 0.0060743964 0.02529277
0.0057028015 0.0077813575 0.0071038604 0.0013485902 0.049495295 0.004650503 0.015707947 0.0050917743
0.0014438716 0.028530432 0.007336941 0.009130722 0.0017864138 0.0030506533 0.0017494024 0.011886665
0.00666242 0.016709274 0.0070213117 0.0060148397 0.009863592 0.0015607008 0.009914199 0.011027505
0.001998646 0.0061077215 0.019540202 0.006601675 0.016965557 0.005107412 0.0018531029 0.0017813044
0.0012516074 0.004919369 0.0049685943 0.0012853097 0.015880102 0.0025042368 0.0016034766 0.0030085885
00000000: 0012 0441 8405 0000 2db3 6f3b 66e2 d63a
00000010: 7b04 423c 54aa c83a d5b8 803b e991 6a3b
00000020: adbf b63a 3c5f 413b 7941 ef3a 11d3 463c
00000030: 65c5 a73b c711 693b ed67 e53b 8985 103c
00000040: 4b2d aa3b 1558 273c f38d bc3b e742 a83c
00000050: 6d17 413b edeb 243b 0b12 093b 7944 053b
00000060: cac0 ce3b ddf7 443b 65e6 923b a040 e13b
00000070: 784b b33b ad44 613b 84d2 c53b fb7e a43b
00000080: b2c4 eb3b f365 003b b42d e33a c810 b53b
00000090: 7ee7 4d3c 4c4f 873b 84e6 523b be27 363c
000000a0: 86b4 573b 2d1a 863b 1a89 073b e2d5 8c3a
000000b0: 42e0 c63b a457 a73b 9e96 ad3b 910b 5c3b
000000c0: 571a 813b 9d65 c13b 55d1 8c3b f193 cf3c
000000d0: d990 773b 4bd2 d53b a897 a43c 46b9 c73b
000000e0: eefc 913b 9041 9c3c f48a 473b b03f 833c
000000f0: 771f 2f3b b010 8c3b 0f4c 753b e586 a93b
00000100: 89ad 8c3b 5ae3 973c 8b7c ca3a 690c 143d
00000110: 63fb 833b 650a a33b 4d11 ea3b f488 413b
00000120: 6c32 203b 3b3e 983c 14dd d23b 6341 a73c
00000130: bdc1 323c df8b 9f3c 3f1a 483b c90f 9b3c
00000140: dff4 1f3d d12a b53a 2366 b03b 9ab5 4e3c
00000150: 4c05 843a 3114 1a3b bb0b c73b c832 cf3c
00000160: 91de ba3b c2fa fe3b 80c7 e83b 2ec3 b03a
00000170: 94bb 4a3d 3f63 983b f4ad 803c e6d8 a63b
00000180: 4b40 bd3a a7b8 e93c b96a f03b 0699 153c
00000190: 1a26 ea3a 78ed 473b 344c e53a 49c0 423c
000001a0: 6e50 da3b e3e1 883c 0813 e63b 2218 c53b
000001b0: e79a 213c 6e90 cc3a 2a6f 223c b5ac 343c
000001c0: b7fb 023b 4823 c83b c612 a03c dd52 d83b
000001d0: 5afb 8a3c 145c a73b d1e3 f23a a87a e93a
000001e0: fa0c a43a a832 a13b 97cf a23b d677 a83a
000001f0: fd16 823c 1f1e 243b bf2b d23a bd2b 453b

rnn.cell.input_decay_kernel f4 [37]
0.0 0.0 0.0 0.0 0.0 0.0 0.0 0.0
0.0 0.0 0.0 0.0 0.0 0.0 0.0 0.0
0.0 0.0 0.0 0.0 0.0 0.0 0.0 0.0
0.0 0.0 0.0 0.0 0.0 0.0 0.0 0.0
0.0 0.0 0.0 0.0 0.0
00000000: 0000 0000 0000 0000 0000 0000 0000 0000
00000010: 0000 0000 0000 0000 0000 0000 0000 0000
00000020: 0000 0000 0000 0000 0000 0000 0000 0000
00000030: 0000 0000 0000 0000 0000 0000 0000 0000
00000040: 0000 0000 0000 0000 0000 0000 0000 0000
00000050: 0000 0000 0000 0000 0000 0000 0000 0000
00000060: 0000 0000 0000 0000 0000 0000 0000 0000
00000070: 0000 0000 0000 0000 0000 0000 0000 0000
00000080: 0000 0000 0000 0000 0000 0000 0000 0000
00000090: 0000 0000

rnn.cell.input_decay_bias f4 [37]
0.0 0.0 0.0 0.0 0.0 0.0 0.0 0.0
0.0 0.0 0.0 0.0 0.0 0.0 0.0 0.0
0.0 0.0 0.0 0.0 0.0 0.0 0.0 0.0
0.0 0.0 0.0 0.0 0.0 0.0 0.0 0.0
0.0 0.0 0.0 0.0 0.0
00000000: 0000 0000 0000 0000 0000 0000 0000 0000
00000010: 0000 0000 0000 0000 0000 0000 0000 0000
00000020: 0000 0000 0000 0000 0000 0000 0000 0000
00000030: 0000 0000 0000 0000 0000 0000 0000 0000
00000040: 0000 0000 0000 0000 0000 0000 0000 0000
00000050: 0000 0000 0000 0000 0000 0000 0000 0000
00000060: 0000 0000 0000 0000 0000 0000 0000 0000
00000070: 0000 0000 0000 0000 0000 0000 0000 0000
00000080: 0000 0000 0000 0000 0000 0000 0000 0000
00000090: 0000 0000
